models/ARB_lstm_model.tflite (tflite, 145900 bytes, 8 tensors)

arith.constant4 f4 [1, 25]
000000 cd 40 99 be e8 4e 48 3e 11 42 c2 be 47 62 db be
       -0.29932252 0.1956135 -0.3794103 -0.42848417
000010 dc bb 90 bd 5e 61 c2 bd 08 29 99 be 70 a0 9b 3e
       -0.07067081 -0.094912276 -0.29914117 0.30395842
000020 8d 63 de be a7 a7 d4 3e 91 d0 b9 bd bd fe 7f 3e
       -0.43435326 0.4153416 -0.09072984 0.24999519
000030 67 b2 90 be f6 b2 de 3e 57 4b 8f be dc 39 6b be
       -0.2826111 0.4349591 -0.27987167 -0.2297129
000040 cd 45 a6 be a6 8d c3 be e8 6d 50 3e 08 c3 ae 3d
       -0.3247513 -0.38194007 0.20354426 0.08533293
000050 8b 86 54 bd ac d2 38 3e 02 db dc 3e b7 47 d0 3e
       -0.051886123 0.18049115 0.4313584 0.40679714
000060 97 21 a6 be
       -0.32447502

arith.constant5 f4 [25, 50]
000000 36 fb 89 3b bb a5 20 3e 37 3a 0b be a0 00 31 3e
       0.004210855 0.15688221 -0.13596426 0.17285395
000010 20 63 87 3e 03 51 cf bd 38 fb a9 bd 94 f7 58 3b
       0.26442814 -0.10122874 -0.08299869 0.0033106552
000020 f2 90 ba 3d 91 4b 29 3d 05 ef 49 3d 4c 12 69 3d
       0.091096774 0.04133183 0.049300212 0.056902215
000030 9a f9 57 be 6b 62 07 be 5c 11 80 be b1 98 77 3e
       -0.21091309 -0.13221137 -0.25013244 0.24179341
000040 9f 2b c5 3d 46 e7 58 3e 2e 76 30 3e 9e 54 fc 3d
       0.09627461 0.21181974 0.17232582 0.12320827
000050 fb c5 12 3d d9 2c 92 bc 78 a7 17 be 88 ea bf bd
       0.03583334 -0.01784365 -0.14809978 -0.09370905
000060 dc 8f 5c bb de c9 9a 3d f0 88 f7 bc 4c dc 7d 3e
       -0.0033655083 0.07558034 -0.030216664 0.24791068
000070 88 43 e1 3d a0 b7 98 bd 92 ac 3d 3e 9b 66 ff bc
       0.10999209 -0.07456899 0.18522862 -0.031176856
000080 a3 4c 35 3e b2 3d 06 3e cc 69 37 3e b1 aa a4 bd
       0.17705016 0.13109472 0.17911452 -0.08040369
000090 5a e2 54 bd 70 b7 f1 3c 61 e1 6c bd 9e e8 82 3e
       -0.05197368 0.029506415 -0.057832126 0.25568098
0000a0 58 18 5a 3c 05 2e 41 be 3b 88 4b 3d 1c 6b 1f 3e
       0.013311468 -0.18865211 0.049690466 0.15568203
0000b0 c6 81 91 3e e4 f1 0c be 63 80 4f be 6a b3 19 3e
       0.28419322 -0.13764149 -0.2026382 0.15009847
0000c0 a6 ad b5 3c a4 57 70 be 85 ba 34 3e fb b5 2b 3d
       0.022177529 -0.23470932 0.17649277 0.041921597
0000d0 0f 06 f4 bc 5a 77 90 3e 70 c0 65 be 72 87 70 3e
       -0.029788045 0.28216058 -0.2243669 0.23489168
0000e0 43 d2 67 bd f6 70 2e 3e cc 23 d9 bc 85 60 9c 3d
       -0.056597006 0.17035279 -0.026506327 0.07635597
0000f0 5d 92 5e 3d 6c 50 46 3e 08 c8 03 be 86 4e 00 be
       0.0543388 0.19366616 -0.12869275 -0.12529954
000100 e2 69 92 3c 9a 3c 6f be 8f f2 44 bc bf 33 4f 3b
       0.017872754 -0.23362961 -0.012020721 0.0031616536
000110 91 39 16 3e 32 86 9e 3d 54 77 4a be e3 13 0d bd
       0.14670397 0.077404395 -0.19772083 -0.034442794
000120 14 17 c4 3d 52 36 f2 3d 61 b9 02 bd e9 0b 13 be
       0.09574714 0.11826767 -0.031915072 -0.14360012
000130 3c 99 90 3e 75 5f 84 be 89 3d 83 3d 12 9e ce bd
       0.2824191 -0.25854078 0.06408221 -0.10088743
000140 d3 04 4d 3e 04 7e 3e 3e 20 a7 a0 bd cc be f5 3d
       0.20021372 0.18602759 -0.078443766 0.11999282
000150 ae d7 ff bd 20 e5 29 3e 54 73 85 3e d6 8e 76 be
       -0.124923095 0.1659131 0.2606455 -0.24077925
000160 7b d0 84 3c bd 18 87 3d 02 9e 7d 3d 15 0b 35 3e
       0.016212692 0.06596515 0.061918266 0.17680009
000170 06 9e 70 be 35 d3 77 be 13 85 67 3e ee 8d 82 3e
       -0.23497781 -0.24201663 0.22609358 0.2549891
000180 1b e6 30 be d2 61 7d be ac fc 31 3e 40 2e 00 be
       -0.17275278 -0.24744347 0.17381543 -0.12517643
000190 92 7c 69 bd 48 1f fb 3c ef 14 4d be 6a 8b af 3d
       -0.057003565 0.030654564 -0.20027517 0.08571513
0001a0 bf b6 7d be 2e 23 b3 3d 11 10 8f be 65 5c 55 3e
       -0.24776743 0.08746944 -0.27941945 0.20836027
0001b0 1d ca 0a 3e b0 2c 6a be d2 c9 d6 3d 87 18 35 be
       0.13553663 -0.2286861 0.10487713 -0.17685138
0001c0 fc 62 2e 3e 8b 45 45 3e 08 51 8b bd 59 43 d7 3c
       0.17029947 0.1926481 -0.06802565 0.026277231
0001d0 5f 90 47 be c0 11 90 be b5 59 3f bd 6e 5d 9a bd
       -0.19488667 -0.28138542 -0.04671641 -0.075373515
0001e0 a7 e2 f7 bd 82 c7 fb bb c5 99 79 bc 48 4b 77 3c
       -0.121037774 -0.0076836953 -0.015234415 0.015093632
0001f0 96 17 3c 3e 39 12 49 3b 20 08 ee 3d 69 c0 bb 3b
       0.18368372 0.0030681028 0.116226435 0.005729724
000200 99 78 1e be 8a 02 1d be c7 5b 23 3e a2 cd 1a 3e
       -0.15475692 -0.15333 0.15952979 0.15117505
000210 4a 1b 11 be f9 4f 39 3e d9 9d 04 be 35 c2 8e 3e
       -0.14170566 0.18096913 -0.12950839 0.27882543
000220 04 23 8c be 87 b8 93 3e 76 dc 8d 3d 3f ae 6d be
       -0.27370465 0.2885172 0.06926815 -0.23211001
000230 66 12 b7 3d 0d 89 95 3e 74 ce 0f 3e 61 28 4e be
       0.08939056 0.29206124 0.140436 -0.20132591
000240 75 60 70 3e 49 ce 90 3e 9e bf 59 bd d5 7b 4b 3e
       0.23474295 0.28282383 -0.053161256 0.19871457
000250 35 07 c5 bd bc 31 21 3d 56 5c d0 bd 0d 61 88 3e
       -0.09620515 0.03935407 -0.10173862 0.26636544
000260 a1 9a 15 3e d7 94 91 3c f8 d0 de 3c 08 5f a1 3d
       0.14609767 0.017771168 0.027199253 0.07879454
000270 26 0d 46 be 45 d2 5d be 1f b6 d7 bc 52 7c 8c be
       -0.19340953 -0.21662243 -0.02633196 -0.274386
000280 17 ca 8a be 69 00 42 be ad 97 89 3e 56 b8 98 3d
       -0.27107307 -0.18945469 0.26873532 0.07457034
000290 64 93 05 3e 51 80 40 bd 70 4a e3 3b ef 53 1e be
       0.13044506 -0.046997372 0.006936364 -0.15461706
0002a0 92 ea 3a be ee ce 14 bd 53 9b 56 be ec 13 0e be
       -0.18253544 -0.036330156 -0.20957689 -0.13874787
0002b0 46 e7 8a bd 4c 89 10 be 82 85 11 be 2e 03 f2 bc
       -0.06782393 -0.14114875 -0.14211085 -0.029542532
0002c0 cd f1 b7 bd 98 a1 7b 3e 2b 58 3e be 30 52 1c 3e
       -0.08981667 0.24573362 -0.18588321 0.15265727
0002d0 36 d1 8d 3e 73 4d 6b bd 67 10 d1 bd 0e 55 d7 bd
       0.27698678 -0.05744691 -0.102082066 -0.1051427
0002e0 45 12 8b 3e 82 50 2f 3e e9 d9 5c 3d 05 e6 df 3c
       0.27162376 0.17120555 0.053918753 0.027331362
0002f0 d6 01 3e 3d 19 27 87 be bc cd 00 be b9 98 a3 3d
       0.04638847 -0.26397017 -0.12578481 0.07988114
000300 f4 74 2f 3e cf 63 8e 3e 8f bc ff 3c 16 9f 0a be
       0.17134458 0.27810523 0.031217841 -0.13537249
000310 82 6e 8a 3e c2 49 ab bd 0e ec 66 be 46 15 ae 3d
       0.27037436 -0.083636776 -0.22550985 0.08500151
000320 ed 7f 6c be 29 b1 04 bc 2f d0 63 3e db 05 0b bd
       -0.23095675 -0.008098879 0.22247384 -0.03394113
000330 52 5e 1a 3c d3 71 3f bd 4c 87 8e 3d ba c6 0e bd
       0.009421902 -0.04673941 0.069593996 -0.03485749
000340 f2 70 a4 3c 32 08 da bd c4 2d 61 be a0 e8 92 bd
       0.020073388 -0.106460944 -0.21990114 -0.07173276
000350 85 59 1f 3d ac 62 2d 3e 04 4f 7d be 0c d7 e6 3c
       0.03890373 0.16932172 -0.24737173 0.028178714
000360 52 13 2f 3e fc 3b 46 be ca 0d 89 be 95 95 b9 bd
       0.17097214 -0.1935882 -0.26768333 -0.09061734
000370 c9 86 02 bd 28 bb 0a 3e e7 07 62 bd 05 02 86 be
       -0.031866822 0.13547957 -0.055183318 -0.26173416
000380 b8 ef 7f 3e 67 9f 0e 3e f0 e2 51 3e ec a7 58 be
       0.24993789 0.13927995 0.20496726 -0.21157807
000390 a4 47 06 3e a2 4b bf bd bd a0 e3 3c 01 a4 3c 3e
       0.13113266 -0.09340598 0.027786607 0.18421938
0003a0 c0 fa 15 be 8e 0f 93 3e a6 1e 33 3e 42 63 40 3e
       -0.14646435 0.28722805 0.1749216 0.18787864
0003b0 34 73 4b bd 80 a5 8b 3e 58 d6 b8 bd 5e b1 90 be
       -0.049670413 0.27274704 -0.09025258 -0.2826032
0003c0 d8 19 11 3d b4 a0 44 be 20 9f 3e be f0 a0 1c be
       0.035425037 -0.19201928 -0.18615389 -0.15295768
0003d0 12 ed 4f 3e 14 85 55 3e ce 8c d2 bd 54 3b be 3d
       0.20305279 0.20851547 -0.102807626 0.0928866
0003e0 22 72 03 be 9d a7 5b be 02 54 ce bd b6 78 1e be
       -0.12836507 -0.21450658 -0.10074617 -0.15475735
0003f0 e7 c3 98 bd 4f b7 89 be 1e ea f2 39 6f c2 68 3e
       -0.074592404 -0.26897666 0.00046332268 0.2273042

arith.constant17 f4 [200, 1]
000000 34 9b a3 3d d3 a6 f7 3d 3f 59 48 bd 02 8a 35 bd
       0.07988587 0.12092366 -0.048913237 -0.044321068
000010 0f e3 04 bc ef b0 08 be 81 c5 09 be 1a e4 1b 3e
       -0.008110776 -0.13348745 -0.13454248 0.15223733
000020 9c 7b 21 be 23 dd b9 3d d7 39 38 3d 3f 02 11 3e
       -0.1576981 0.090753816 0.044977035 0.14161013
000030 d6 20 11 3e 10 8c d6 3d 9b 9c 1a 3b 34 c8 e1 3d
       0.14172682 0.104759336 0.002359188 0.11024514
000040 47 a6 51 bd 59 b2 d9 3d 02 0d 9d bd 63 23 de bd
       -0.051183965 0.1062972 -0.07668497 -0.10846593
000050 89 b3 29 bd dc 49 1b 3e de d4 01 3e cd dd b6 bc
       -0.041430984 0.15164894 0.12678859 -0.02232256
000060 1d c9 b5 bd 2a 31 ad bd 9d b0 34 3e 40 e0 9a 3c
       -0.0887625 -0.08456643 0.17645498 0.018905759
000070 26 08 41 3d 2a b6 b1 3d 0e dd 33 3d ca 77 cb bd
       0.04712691 0.08677323 0.043911986 -0.09934957
000080 c9 e0 0d 3e 04 06 12 3e 66 f2 65 3d 0d 38 6f bd
       0.1385528 0.14260107 0.056139372 -0.058403064
000090 41 c1 eb 3d 68 02 09 be 28 b2 c8 bd 41 fd 1c 3e
       0.1151147 -0.13379824 -0.097996056 0.15330984
0000a0 48 9b 1a be 80 d5 10 3e 03 7e ce 3c d8 a2 a8 bd
       -0.15098298 0.14143944 0.025206571 -0.08234185
0000b0 97 90 16 bd bb f6 e9 3d ba f7 d6 bd 1a 10 41 bd
       -0.036758985 0.11424013 -0.10496469 -0.047134496
0000c0 da d9 99 3d ae 72 e8 3a 14 c8 f1 3d ea 32 c3 bc
       0.07512255 0.0017734373 0.1180574 -0.023827989
0000d0 22 9e 1a 3e ca 5f 5e bd 64 09 21 be fb 82 f7 3d
       0.15099385 -0.05429057 -0.15726238 0.120855294
0000e0 e4 f2 99 3d fd f5 fa bb 87 9d ed 3c a5 c4 35 bd
       0.07517031 -0.0076587186 0.029005779 -0.044376988
0000f0 86 6d b4 3c b7 db a5 bd df da 5d 3c c5 46 00 3e
       0.022024881 -0.08098548 0.0135409525 0.12526996
000100 3c 68 69 bc f5 97 d8 3d 31 d1 1e 3e c5 cc 21 be
       -0.014246043 0.105758585 0.15509488 -0.1580077
000110 88 b9 e5 bd c0 8d f9 3c ac 9f 27 bd 43 df 08 3e
       -0.11217028 0.0304631 -0.04092376 0.13366418
000120 27 ee 98 3d bd 32 0c 3a 55 4b f9 3d 15 53 cd 3d
       0.07467299 0.0005348137 0.121725716 0.10025612
000130 38 4a 94 bd 5b fe e1 bd 85 ad fa bb 7e eb 05 3e
       -0.072407186 -0.110348426 -0.0076500797 0.13078114
000140 a8 e6 c3 bd 04 72 30 be 3a d8 a1 bc d4 83 e0 3d
       -0.095654786 -0.17230994 -0.019756425 0.10962644
000150 b9 4f 55 3d 8e 78 33 3c 7c 3e cf 3d 56 0c 54 bd
       0.052077983 0.010954035 0.1011934 -0.051769577
000160 66 5f ff bd d3 b9 41 bd 2a 71 58 bc 85 f0 8a bd
       -0.12469368 -0.047296356 -0.013210574 -0.06784157
000170 67 5d 5d 3d ae af 0e bd 85 14 65 bd 87 0b 02 be
       0.054044154 -0.03483551 -0.055927772 -0.1269971
000180 10 e9 9f bb ca 1b 12 be a6 70 d2 bc 9b 61 44 3d
       -0.004880078 -0.14268413 -0.02568848 0.047944646
000190 5c e9 25 3e 19 14 02 be 4a 1b 9f bd be db c0 3d
       0.16202301 -0.12702979 -0.07768877 0.094169125
0001a0 0d 0d 73 bb 9b 89 0c 3e c0 92 28 3c ac 6d 38 3d
       -0.0037086636 0.13724367 0.010288894 0.045026466
0001b0 0f 48 a7 3d 41 65 34 be d6 5d eb 3d 61 d9 03 be
       0.08168041 -0.1761675 0.11492507 -0.12875892
0001c0 bc e7 d7 3d fe 0c e3 bd 28 37 72 3d ea 4e 27 3e
       0.10542247 -0.110864624 0.059134632 0.16338697
0001d0 f6 d3 5b bd 62 4c 33 3c 0a 8f 38 3c 92 e5 80 3c
       -0.05366894 0.010943504 0.011264572 0.015734468
0001e0 80 e1 a0 bd ee c3 d2 3d 8d 12 c8 3d a2 7a 3d bd
       -0.07855511 0.10291277 0.09769163 -0.04625953
0001f0 91 2f 0a be 4c 1f 51 bc 5c 1a f8 3d 03 2a 2c 3e
       -0.13494708 -0.012763809 0.12114403 0.16812901
000200 1e a9 11 be ac a0 be 3a 32 96 41 bb d2 17 b3 bc
       -0.1422467 0.0014543734 -0.0029538986 -0.021861944
000210 80 03 23 be 28 45 0f 3e 3a fa b3 bd a4 62 d3 bc
       -0.15919304 0.13991225 -0.08787961 -0.025803871
000220 f7 23 93 3c 73 d2 ce 3d 8d 7b bc bc d9 50 7a 3c
       0.017961485 0.10098734 -0.023008132 0.015278065
000230 37 f5 ac bd 17 b5 dd 3d e6 19 36 bc 4b a1 74 3d
       -0.084452085 0.10825556 -0.011114573 0.059724133
000240 15 f4 19 be 9b 3e 05 3e d0 d9 b8 bd d6 46 eb 3b
       -0.15034516 0.13012163 -0.090259194 0.007180075
000250 0f 31 b0 bc c6 6a b5 bd 51 d3 0b 3e d7 6e 24 bd
       -0.021507768 -0.08858256 0.1365483 -0.040144768
000260 9f d4 82 bd a7 6f 2a 3d 49 fb b7 3c 8a e1 1f be
       -0.063882105 0.041610386 0.02245869 -0.1561338
000270 3b 4e 18 3e 3d dd c5 bc 77 cd 22 3d 78 1f bf 3d
       0.14873593 -0.024153346 0.039746728 0.09332174
000280 4d 84 ac bc 13 17 ac 3d 3d 90 65 3d 96 d8 0c be
       -0.02105918 0.084028386 0.05604576 -0.13754496
000290 56 67 d3 bd 56 99 e8 3c fa f2 a9 bc e0 8e 48 bd
       -0.10322444 0.028393429 -0.020745743 -0.04896438
0002a0 92 ec 9d bd db 9e da bd 2e 4a d4 bd 80 96 9e 3d
       -0.07711138 -0.106748305 -0.10365711 0.07743549
0002b0 09 d2 af bc 69 8e e6 bd e5 dc 19 be 1b 8d 5e 3d
       -0.021462457 -0.11257631 -0.15025671 0.054333787
0002c0 e3 27 39 3e 23 0c 1d 3e f7 c3 08 be 82 2a e4 bd
       0.18081622 0.15336661 -0.13356005 -0.1114092
0002d0 3c 64 00 be 5d d3 18 bd 66 c2 82 3d 21 8b 78 3d
       -0.12538236 -0.037310947 0.06384735 0.06067956
0002e0 0c 92 a2 3d 82 5e fd bd 3b 12 eb 3d 4c ef e2 3b
       0.079380125 -0.123715416 0.114780866 0.006925499
0002f0 29 67 b1 3c b9 ec 63 bd 00 c8 a4 3d 71 19 13 bd
       0.021655636 -0.05564568 0.080459595 -0.035912935
000300 be 9d 8d bd da 91 81 3d b1 67 7e bd 40 6a 0f be
       -0.069148526 0.06326647 -0.062110607 -0.14005375
000310 d2 ab 0b 3e 0d 68 2e 3e 3a 27 02 3e 9d 96 18 be
       0.13639763 0.1703188 0.12710276 -0.14901204

arith.constant18 f4 [200, 50]
000000 50 c2 41 bd 0a fb 08 3d a0 13 49 3d 8d 43 f5 3c
       -0.04730445 0.033442535 0.04909098 0.029939437
000010 ea df e8 bc 6f de 41 3e b1 d0 2e 3d 1a 6b 94 3d
       -0.028427083 0.18932508 0.042679492 0.072469905
000020 6c d5 aa 3b 03 3d 0f 3d fb db 4a bd b3 15 df 3b
       0.00521343 0.034970295 -0.049526196 0.0068080067
000030 66 1d 3c 3c c9 da 66 3c 67 b1 9b 3d 4b f0 b8 bd
       0.0114816185 0.014090248 0.07602196 -0.09030207
000040 a3 12 79 bc b2 a1 17 3d 9e f3 6d bd 1d 1e 02 3e
       -0.015202197 0.03701944 -0.05809366 0.127068
000050 27 08 c8 3d 87 2b 3e bd 1a d6 20 3d 53 4e a7 3d
       0.0976718 -0.04642823 0.039266683 0.08169236
000060 db 88 89 bd 9a 8a 1a 3d 06 c0 67 bc d2 e1 dc 3c
       -0.06715556 0.037729837 -0.014144903 0.026963148
000070 70 bb a3 bd 9d d5 87 3d 44 c5 56 bc 4a ea 2d bb
       -0.07994735 0.066325404 -0.013108555 -0.0026537352
000080 60 21 6c bc 01 2c c4 3d 4c 76 c8 bc d9 e2 37 bc
       -0.014412254 0.095787056 -0.02447047 -0.011223518
000090 93 50 b8 bd 5c 69 d4 bb ee 93 26 be d2 f7 d9 3c
       -0.08999743 -0.0064822864 -0.16267368 0.026607428
0000a0 15 2a a4 bc 81 c8 00 bd b3 27 1c 3d 40 cc 87 bd
       -0.020039598 -0.031441215 0.038123798 -0.066307545
0000b0 e3 0f 05 be 2f 55 c0 bc 31 3d 0d 3d fc a3 0a 3d
       -0.12994342 -0.023478119 0.034482185 0.033847794
0000c0 d4 51 23 3e b7 65 01 bc a1 c3 77 bc 6a f1 7b 3d
       0.15949184 -0.007897786 -0.015122325 0.061509527
0000d0 7f 8e db 3d 29 bc 69 bb 83 64 02 3c ab ef 3d 3e
       0.10720538 -0.003566513 0.007958534 0.18548457
0000e0 a2 68 a2 bd ff c1 de 3d 34 42 a4 bb 7b 5e 86 3d
       -0.079301134 0.108768456 -0.005012775 0.065609895
0000f0 de 58 52 3d a6 60 f2 bd 99 d8 8f bc 86 d1 a2 3d
       0.05135428 -0.118348405 -0.017559336 0.0795012
000100 af ab 98 bb c9 59 c6 bd 9f 51 f5 bd ef 6b 30 be
       -0.004659138 -0.09685094 -0.119784586 -0.17228673
000110 02 b1 06 3d 96 b4 0b bd 08 be d6 bc c8 be 7d bd
       0.03288365 -0.034107767 -0.02621366 -0.06194952
000120 e4 b8 13 bd 58 70 4e bc 65 83 62 3a b3 c6 5f 3d
       -0.036064997 -0.012600027 0.0008640795 0.054632854
000130 74 30 89 3d 90 db 0e bd c5 a8 4e 3d f5 4e e6 3d
       0.06698695 -0.03487736 0.05045392 0.112455286
000140 3c 60 fc 3d e1 bb c9 3c 76 de f5 3d 6e 2f ea 3d
       0.12323043 0.02462572 0.12005322 0.11434828
000150 47 54 ea bc e9 9a 7b 3d b4 3c 54 3d 33 d5 19 be
       -0.02860464 0.06142703 0.051815704 -0.15022735
000160 75 e9 d9 bb 9c b4 9b 3d 6e f0 86 3d a6 c6 8a bd
       -0.0066501447 0.07602808 0.06588827 -0.067761704
000170 c4 a7 23 bc 63 5a d8 3d 9e 4c 95 3d 0e 60 6e bd
       -0.009988729 0.10564115 0.07290004 -0.058197074
000180 40 aa c8 3c f3 59 c6 3c 37 7e 6a 3c 80 dc 99 3d
       0.024495244 0.024212813 0.0143123185 0.0751276
000190 c6 88 98 bc 0d 65 86 bc 8c a9 2a 3d b0 2a cc bd
       -0.018619906 -0.016405607 0.0416656 -0.099690795
0001a0 ca 7f 9b 3d 2f 87 15 3d f4 50 43 3d a1 87 4d bd
       0.07592733 0.036505874 0.047684625 -0.050178174
0001b0 22 50 94 bc ad 69 a0 bd 6d c7 88 3d 86 68 20 bc
       -0.018104617 -0.07832656 0.066786624 -0.009790545
0001c0 6b 22 41 3a c5 ba e4 3d 9c 0a 1f 3d 32 ed f9 3a
       0.00073674944 0.11168436 0.038828477 0.0019067882
0001d0 f3 3c 96 3d 7f 76 b7 3b 5a ff 36 be f0 78 19 3e
       0.07335844 0.0055988426 -0.17870846 0.1498754
0001e0 73 6d 83 3d 29 38 cd bc 6b 71 b1 bc 41 89 27 3c
       0.0641736 -0.025051193 -0.021660527 0.010225595
0001f0 6d 7b cd bd 37 04 3e bd 79 34 d2 bc 64 55 1b bc
       -0.10033307 -0.04639074 -0.025659787 -0.009480808
000200 53 69 af 3b 3c d2 7c 3d b5 74 b5 bb 9e 8a 58 bd
       0.005353132 0.061723933 -0.005537594 -0.05286657
000210 18 16 50 bd 57 a8 89 3c a1 95 61 3d f3 75 ad 3c
       -0.05080232 0.016803904 0.055074338 0.021174407
000220 85 f1 3a 3d 93 9c 3e 3d 69 9c c0 bb 28 71 29 3c
       0.045640487 0.04653604 -0.0058780205 0.01034192
000230 da 78 16 be 0f c3 ad bc bc 78 1c bc 00 15 79 3c
       -0.14694539 -0.021211175 -0.00955027 0.015202761
000240 a2 ff 5d 3d 18 4c 86 3d a5 0a f8 bd 85 99 a1 3d
       0.05419887 0.065574825 -0.12111405 0.0789061
000250 e2 c7 97 bc cb b1 aa bc 96 9e 26 bd b1 a5 a3 3c
       -0.018527929 -0.020836731 -0.040678583 0.019976469
000260 03 da 93 3d df d4 ea bd 7f 78 8c bc 54 17 9f 3d
       0.07219317 -0.11466383 -0.0171473 0.07768121
000270 87 53 13 be 57 50 ad 3d be 4a b8 3d 1c 15 9e bd
       -0.14387332 0.08462589 0.08998631 -0.0771887
000280 fd ad ba bd a1 47 8b bd ea 15 5b 3d 25 09 0a bd
       -0.09115217 -0.068007715 0.053487696 -0.033700127
000290 2b 96 21 bd ee c7 09 bd 7f 5d cf bd b7 70 26 3d
       -0.039449852 -0.033637933 -0.10125255 0.040634837
0002a0 7c b6 40 3c 77 64 47 3d f0 e9 c1 3d a4 7e 69 bc
       0.011762258 0.048679795 0.09468448 -0.014251385
0002b0 ee 93 a8 3d f7 33 b5 bc bc 5f 66 3d 99 11 c8 bc
       0.0823134 -0.022119505 0.056243643 -0.024422454
0002c0 4b 2f 57 3c b1 76 d9 bc e6 6a 34 3d e2 0e 8b bc
       0.013133834 -0.026545854 0.04404726 -0.01697487
0002d0 1d 04 a4 3d 5d 04 2b 3d 14 e9 ea bc 48 85 aa bc
       0.08008597 0.041752208 -0.028675593 -0.020815507
0002e0 5a 0b e3 bc 15 21 12 3d 88 ed 33 3e be 90 bb bb
       -0.027715374 0.03567608 0.1757108 -0.0057240417
0002f0 03 f9 50 3d 3b 01 78 3c 96 82 75 bd 6a f6 07 3e
       0.051018726 0.015137012 -0.05993899 0.13277593
000300 8c b2 37 bd 79 90 ee bc c2 28 4b bc ff 13 0a 3e
       -0.04484801 -0.029121624 -0.012399854 0.1348419
000310 7d 39 9f bd 75 7a cc bd 32 a2 45 bd 9d 09 0e bc
       -0.07774637 -0.09984294 -0.048250385 -0.008669284
000320 b1 7a 23 bb ca 7d 00 3a e8 5c 69 bd dd d4 82 3d
       -0.0024944956 0.00049015565 -0.056973368 0.06388257
000330 63 07 31 3d 9d d6 91 bd 9a 89 cd 3d 1e c6 db bc
       0.043219935 -0.07121012 0.10036011 -0.026827868
000340 af 8b 95 bd 3a 0b e7 3d 27 b8 97 bd 2c 75 c5 bd
       -0.07302033 0.11281438 -0.07408171 -0.096414894
000350 e2 44 6b bd 7c fc 91 3d e3 e5 09 bd 7a 29 1d bc
       -0.05743874 0.07128236 -0.033666503 -0.009592408
000360 71 13 9a bd 76 10 26 be a7 54 88 3d 8a b4 ed 3d
       -0.075232394 -0.16217217 0.06656771 0.11606701
000370 b6 74 97 3d 4f 4f 18 3e df 5e 4a bd fe d2 5e 3d
       0.07395308 0.14874004 -0.049406882 0.054400437
000380 10 42 ae bc 1d 66 43 3c c6 7b 11 bc 6e ba 6a bd
       -0.021271735 0.011926201 -0.008879608 -0.0573067
000390 04 19 b6 3d 76 50 b5 3d 86 4a 28 3e 2b 0f 8e bd
       0.0889149 0.08853237 0.16434678 -0.06936487
0003a0 41 28 d1 bd c1 ba 97 3c 70 41 bf bc 4a dc ff bd
       -0.10212756 0.018521668 -0.023346633 -0.12493189
0003b0 e9 96 17 3d 00 5b 01 3e 1f 22 6c 3d 24 f0 a3 3d
       0.037009154 0.1263237 0.057649728 0.080047876
0003c0 9b 2b b6 3d 10 7c 5e bd 71 4c 0a bd 31 cd dd 3d
       0.08895036 -0.054317534 -0.033764306 0.10830153
0003d0 97 70 16 be 2c 86 5f 3c e6 fa cc bc 9b a0 00 3c
       -0.14691387 0.013642829 -0.025021981 0.007850791
0003e0 7c 07 2d bd 2a 61 23 bd 8c 4d 8b bd 99 e5 98 bd
       -0.042243466 -0.039887585 -0.068019 -0.07465667
0003f0 d0 71 77 3c eb c9 15 bd 4d 97 f4 bd 78 b4 44 b9
       0.015102819 -0.036569517 -0.11942921 -0.00018759246

sequential_4_1/lstm_8_1/while/lstm_cell_1/add_1/ReadVariableOp f4 [200]
000000 0a fb 6d 3b 75 48 0b bc c3 0d 0b 3b 1a 5d 14 3c
       0.003631296 -0.008501162 0.002121792 0.0090554
000010 dd c2 42 bb 59 dd c7 3b 1f c8 64 bc 6b 0c 24 bc
       -0.0029718198 0.0060993847 -0.013963728 -0.010012726
000020 b3 d7 4a 3b 8b 39 fb 3b 23 95 7c 3b 86 3f cf 3b
       0.003095132 0.0076667718 0.003854104 0.0063247113
000030 fc b5 d1 3b 24 d1 6f bb de f9 e0 3b 6d 00 63 bb
       0.006399868 -0.0036593163 0.006865724 -0.0034637705
000040 bb 87 79 3b c2 f6 04 bc ea 3b 1f bc 04 02 54 bc
       0.0038075286 -0.008115472 -0.0097188745 -0.012939934
000050 48 8b 15 3c cc 56 1f bc 18 8e 27 3a 19 d8 01 bc
       0.0091274455 -0.009725284 0.0006391718 -0.007925057
000060 c4 96 61 3b ad 94 99 3a f7 16 8d 3b 8f df f6 3b
       0.0034422139 0.0011717282 0.004305716 0.0075339745
000070 95 74 3b 3b 26 bc 58 bc 23 17 ba 38 c3 95 33 bc
       0.0028603424 -0.013228452 8.873481e-05 -0.010960999
000080 fb 2a 5e b9 80 5f e8 bb c5 27 f6 bb fc 22 b7 3b
       -0.00021187581 -0.0070914626 -0.007512065 0.0055888873
000090 1e 69 ef ba e9 8a d2 3b 23 a0 d4 3b 94 cd fe 3a
       -0.001826558 0.006425251 0.0064888163 0.0019439929
0000a0 95 1d f8 3b a5 b4 06 bc 21 c4 f4 bb 8e 70 bf 3a
       0.007571886 -0.00822178 -0.0074696695 0.0014605687
0000b0 87 3d b4 3b cd 26 2e 3b cb d0 14 39 dc f0 37 36
       0.0055004987 0.002657342 0.00014192161 2.7409324e-06
0000c0 3e 7c f8 bb 1b 1d f1 3b 47 42 80 3f b1 c6 7d 3f
       -0.00758317 0.007358206 1.0020226 0.99131304
0000d0 50 2a 80 3f 2f dd 80 3f 3c 15 7f 3f 56 82 80 3f
       1.0012913 1.00675 0.99641776 1.0039775
0000e0 51 73 7c 3f ed 3d 7d 3f 41 2e 80 3f 75 c8 80 3f
       0.9861346 0.98922616 1.0014116 1.0061175
0000f0 84 5a 80 3f 6b a9 80 3f 81 9c 80 3f 83 e8 7e 3f
       1.0027623 1.0051702 1.0047761 0.99573535
000100 f9 6f 80 3f e0 89 7e 3f 61 5e 80 3f 25 eb 7d 3f
       1.0034171 0.9942913 1.0028802 0.9918693
000110 14 a7 7c 3f 84 b6 7c 3f 9d d6 80 3f 56 7c 7d 3f
       0.9869244 0.98715997 1.0065495 0.99017847
000120 8b fc 7f 3f 06 ef 7d 3f c8 45 80 3f ab 0e 80 3f
       0.99994725 0.99192846 1.0021296 1.0004476
000130 4c 68 80 3f 74 c3 80 3f 49 a1 7f 3f bf a0 7c 3f
       1.0031829 1.0059648 0.99855477 0.9868278
000140 54 f1 7f 3f 4d 5b 7d 3f 59 6b 7f 3f 84 fa 7d 3f
       0.9997761 0.9896744 0.99773175 0.9921038
000150 40 e4 7d 3f 61 7a 80 3f 54 4e 7f 3f ca 99 80 3f
       0.99176407 1.0037347 0.99728894 1.0046933
000160 d1 9b 80 3f 3a 31 80 3f 76 c4 80 3f 77 bc 7d 3f
       1.0047551 1.0015023 1.0059955 0.991157
000170 cc f1 7c 3f 6f 03 80 3f 3d 7b 80 3f a1 3c 80 3f
       0.9880645 1.0001048 1.0037609 1.0018502
000180 8f a3 7f 3f e2 d1 7f 3f ea 06 7e 3f 67 c4 80 3f
       0.99858946 0.9992963 0.992293 1.0059937
000190 62 76 8a bb be 53 54 3c 80 d4 1c 3b 99 9a 4d 3b
       -0.004225538 0.012959419 0.002393037 0.0031372665
0001a0 f6 bf 2a bc c0 84 56 bb 6b ce ad bb 5b 6e 8f bc
       -0.010421744 -0.0032732934 -0.005304148 -0.017508676
0001b0 45 95 9d b7 3d 41 04 3a b4 4a 43 bb 25 24 d1 39
       -1.8785368e-05 0.00050451217 -0.0029799165 0.00039890516
0001c0 02 38 06 bb e6 2e 3f 3c ea 97 86 3b 81 6c 7f bc
       -0.002048016 0.011668896 0.004107465 -0.015589834
0001d0 ac 53 07 bb 47 c6 92 bb f7 74 1a bc e3 a0 9b bb
       -0.0020649238 -0.004479203 -0.009427301 -0.004749404
0001e0 b7 0b 97 bb 22 60 cc bb b7 d0 ec ba 9b 67 4b 3c
       -0.004609551 -0.006237046 -0.0018067573 0.012414838
0001f0 d4 11 39 3a 1f 23 32 bb 2f d0 be ba dc fe 58 3a
       0.00070598465 -0.0027181578 -0.0014557893 0.0008277723
000200 ee 5e 30 3c 62 e8 f4 bb 56 be c0 bb de bf 74 3b
       0.0107648205 -0.0074739913 -0.005882065 0.0037345807
000210 37 47 3f 3c cc b3 45 bc 8f a1 fd 3b 29 52 42 3a
       0.011674694 -0.012066793 0.0077402066 0.00074127555
000220 c9 c7 e4 bb 23 bf 3f bb 1e a3 6b bb d6 89 09 3a
       -0.006981824 -0.0029258213 -0.003595538 0.00052466744
000230 70 46 15 ba 7b c8 60 bc 54 26 8c 3b be 02 75 bb
       -0.0005694395 -0.013719673 0.00427703 -0.0037385668
000240 88 3e 2a 3b 5c ed 58 bb 9f 7e e4 3b 1f a4 07 3a
       0.0025977213 -0.0033100462 0.006973102 0.0005174297
000250 04 1e 3e 3c 46 e0 48 ba 9e a1 6d 3b 97 f7 0a bc
       0.011603836 -0.0007662814 0.0036259661 -0.008481882
000260 f0 6f 0d 3b a6 22 11 3c 21 c4 44 bb fc 32 d4 3b
       0.0021581613 0.0088583585 -0.0030024129 0.0064758044
000270 a7 b2 64 bc 09 3e 22 bc b9 1e 3f 3b cb 24 03 3c
       -0.01395861 -0.009902486 0.00291626 0.008004378
000280 a8 e0 85 3b 2f 38 d8 3b b6 ff d8 3b 25 25 8b bb
       0.004085619 0.0065984945 0.00662228 -0.0042463713
000290 7b 87 ec 3b b6 2a 65 bb e8 f5 7a 3b 03 25 05 bc
       0.007218299 -0.0034968085 0.0038293544 -0.0081265
0002a0 2f 45 1e bc 2a bd 52 bc ec 81 1a 3c 60 94 1f bc
       -0.009660049 -0.012862483 0.00943039 -0.009739965
0002b0 da 0a 47 3a a2 ad 02 bc c1 a0 6b 3b 7d 4d 8d 3a
       0.00075928646 -0.007975968 0.003595397 0.001078054
0002c0 80 0a 8c 3b 24 07 f2 3b f0 02 6f 3b 68 0c 59 bc
       0.0042737126 0.007386105 0.0036470257 -0.013247587
0002d0 2c 68 49 38 bc ae 33 bc fb 71 a6 b8 8c e3 e7 bb
       4.8019152e-05 -0.010966953 -7.936727e-05 -0.0070766862
0002e0 89 52 f7 bb 4d bc c1 3b 3f 80 f5 ba d0 53 cd 3b
       -0.0075476808 0.00591234 -0.0018730237 0.0062660947
0002f0 c6 9b c6 3b bd 0a 25 3b 41 f9 ed 3b 17 cb 06 bc
       0.00606105 0.0025183402 0.0072623794 -0.008227131
000300 7a 73 e4 bb 77 50 b1 3a dd c1 b6 3b d8 8d 52 3b
       -0.0069717737 0.0013528009 0.0055773095 0.0032128002
000310 b8 08 8d b9 67 44 b9 b9 d2 80 f6 bb 3b 2f 00 3c
       -0.00026900112 -0.00035336913 -0.007522681 0.007823761

arith.constant22 f4 [200, 50]
000000 d3 7d 03 be 1b ad 0c 3e a2 43 40 3d 61 ba e7 3c
       -0.12840967 0.1373791 0.0469395 0.028287115
000010 8d 98 14 be 3c bd 47 3d 82 2b 66 3d 1c 03 eb 3d
       -0.14511319 0.048764452 0.056193836 0.114752024
000020 51 90 03 3e 65 82 ae 3d f4 b1 49 bd df 98 42 bd
       0.12848021 0.085209645 -0.049241975 -0.04750907
000030 35 cd 2c 3d 30 ed c2 3d 09 ed 43 bd 03 a9 9d bc
       0.04218789 0.09517896 -0.047833476 -0.01924563
000040 22 29 0a 3e f2 62 cc 3a 66 85 ba 3d c5 c5 1f 3e
       0.13492253 0.0015593453 0.09107475 0.15602787
000050 5d 66 02 be b8 01 89 3d 65 3e 14 be bd 92 cc bd
       -0.12734361 0.06689781 -0.14476927 -0.099889256
000060 fc b0 df bd e8 47 1b be 22 97 bd 3d 63 d1 bb bc
       -0.10922429 -0.15164149 0.09257342 -0.022926992
000070 71 f1 88 bd 4b f8 b6 3c 5e 01 79 3d 07 a8 b4 bc
       -0.06686676 0.022335192 0.06079232 -0.022052778
000080 e3 c1 e6 3b 6e aa b1 bc 4b 60 42 bd b6 d9 77 bd
       0.007042156 -0.021687713 -0.047455113 -0.06051036
000090 58 19 cb bd f0 82 29 bd 57 8a a1 bd d0 85 73 3c
       -0.09916943 -0.041384637 -0.07887714 0.014863446
0000a0 54 49 99 3c 0f 6b 04 be 98 94 ec 3d c3 1a d8 3d
       0.018711723 -0.12931465 0.115517795 0.105519794
0000b0 e3 68 43 bc 1c c6 e4 bd 51 af 3a bd 81 ca 4b bd
       -0.011926862 -0.11170599 -0.04557735 -0.04975367
0000c0 26 a8 4f 3c e5 30 f5 3d 91 7d 8a bd 73 51 27 be
       0.012674367 0.119722165 -0.06762231 -0.16339664
0000d0 c6 39 95 3c d5 2c 48 3c 9a c1 23 be 50 74 8f 3c
       0.018216025 0.01221772 -0.15991822 0.017511517
0000e0 64 b9 cf bd 9c af bb 3d 46 40 c7 bd 3a 24 d6 3d
       -0.10142782 0.09164354 -0.09729056 0.104561284
0000f0 80 d8 f1 bd 2a 7d 8d bd 4e 30 24 3e ad 5f f3 bd
       -0.11808872 -0.06908639 0.16034052 -0.11883483
000100 22 80 93 3c 7b 35 9d 3d d3 8e 21 bc d8 3b 7e bd
       0.018005434 0.07676216 -0.009860712 -0.06206879
000110 94 d4 9c bd b0 f3 7d bb 8c 02 97 3d 34 f8 84 3d
       -0.076577336 -0.0038749985 0.07373533 0.064926535
000120 ec 6b 8f 3d 06 99 1e be 4e 6e fe 3d b9 2b 00 bd
       0.07003006 -0.15488061 0.12423383 -0.031291697
000130 77 6e 0f 3e c3 4a 08 3e a3 12 de bc 00 07 10 3e
       0.14006983 0.1330977 -0.027108496 0.1406517
000140 e7 b1 99 bd 02 34 0e 3e 9f af 5d 3a 2c c6 15 3e
       -0.07504635 0.13887027 0.00084566505 0.14626378
000150 99 16 f7 3d 0e 97 3a 3d b3 a0 c2 bd 22 9f ed ba
       0.12064857 0.045554213 -0.09503307 -0.001812909
000160 a7 5c b7 bd de e9 89 3d 22 70 81 3d 03 a0 18 3c
       -0.08953219 0.0673406 0.06320216 0.0093154935
000170 ad 19 02 3d 41 08 d6 3d fa bb c7 bd 43 a6 76 bd
       0.031762768 0.10450793 -0.097526506 -0.060217153
000180 4b 87 77 bd df 50 c7 3d cf a5 a7 3b c7 51 dd bd
       -0.06043176 0.09732222 0.0051162015 -0.108066134
000190 9b c5 91 bd 82 7c cf bd 80 e7 b5 3c 40 50 a1 bd
       -0.071177684 -0.1013117 0.022205114 -0.078766346
0001a0 8e 2f 03 3e fe 08 82 bd 50 b5 c3 3d 9b 03 14 bd
       0.1281111 -0.063493714 0.09556067 -0.03613625
0001b0 19 9d ee 3d ee dc 01 bd a5 28 cd 3d 91 be 4b 3d
       0.11651058 -0.031704836 0.10017518 0.049742285
0001c0 42 73 0e be 44 53 5c 3d 21 ca 33 bc 62 2a bf 3d
       -0.13911155 0.053790346 -0.010973484 0.09334256
0001d0 7c 7c 4e bd 4e b6 ec bd 45 e2 b2 bd bf 74 fa 3d
       -0.050411686 -0.11558209 -0.08734564 0.12229299
0001e0 21 2d 17 3d d1 b1 02 3e f1 95 87 bd 42 a2 0c 3e
       0.036908273 0.12763144 -0.06620396 0.13733771
0001f0 90 a3 04 be 3f 5b f3 3d f1 0f 16 3e 6c dc 8d bc
       -0.12953019 0.11882638 0.14654519 -0.01731702
000200 4c 66 b7 bd bd 74 c7 3d d9 0f 10 3e 1b 9d 93 3d
       -0.089550585 0.09739063 0.14068545 0.072077
000210 48 7e 08 be 11 5a 90 3d 90 5e 9d bd b7 1b 23 be
       -0.13329422 0.07048429 -0.07684052 -0.15928541
000220 58 2d dc bd 8e a9 ad 3d e4 e8 46 3c 90 e0 14 bc
       -0.10750836 0.084796056 0.012140486 -0.009086743
000230 6e 1f 04 3e 52 e3 b8 bc d4 9f a6 3c e3 db d0 bd
       0.12902614 -0.022569332 0.020339884 -0.1019819
000240 0d d9 17 be 05 03 bd 3a e0 0c da bd fb 4f 18 bd
       -0.14828892 0.0014420456 -0.10646987 -0.03718565
000250 81 30 7a 3d de b4 02 3d ce f1 ea bc 3c 40 a8 3c
       0.061081413 0.03191077 -0.028679755 0.020538442
000260 8f f2 7f 3b 78 a9 13 be 81 17 2a 3d c4 d5 02 bb
       0.0039054488 -0.14420116 0.04152632 -0.001996384
000270 e5 29 a7 bd c9 09 14 3d d1 dc 74 3d b4 5d 20 3e
       -0.081622876 0.036142144 0.0597809 0.15660745
000280 db 42 04 3b 0d a8 f1 bd 9f 47 91 bd 34 55 0b be
       0.002018145 -0.11799631 -0.07093739 -0.13606721
000290 e9 7c 07 be a3 2a 92 3c fd 77 b6 bc f1 40 cb 3d
       -0.13231243 0.017842596 -0.022274012 0.09924496
0002a0 67 71 3e bd f0 db f7 bd 41 cd a1 bd c9 89 25 bd
       -0.046494868 -0.121024966 -0.07900477 -0.040414605
0002b0 9d 5b f0 bd ce f5 f9 3d c5 f7 d3 3d 03 b8 72 bd
       -0.11736224 0.12205087 0.10349993 -0.05925752
0002c0 b4 b1 ca bc 16 53 75 bd d2 df 14 bb f3 8e 93 3d
       -0.024742939 -0.05989369 -0.0022716415 0.07205
0002d0 f3 d0 6e 3d ee 67 85 3b 2a 7b f4 bc 63 81 06 be
       0.05830474 0.0040712273 -0.029843885 -0.13135295
0002e0 2b 16 0d 3e 28 10 93 3d 12 a3 13 3e f4 0a e0 3d
       0.13777988 0.07180816 0.14417675 0.10939589
0002f0 1e 3f a4 bc 1c 6f 05 3e e3 95 e8 3d 4e 89 39 3d
       -0.020049628 0.13030666 0.113567136 0.04529696
000300 4e 0f e0 bd 0c bb 2e bd 1c 4e c8 bc 98 a1 09 be
       -0.10940419 -0.04265885 -0.024451308 -0.1344055
000310 06 91 f5 bd 19 c3 2a 3c 37 82 5d 3d 4e de 99 bd
       -0.11990552 0.0104224915 0.05407926 -0.075131044
000320 70 1e 77 3d ee 09 78 bc 58 b4 dc 3d 05 60 c2 bb
       0.06033176 -0.015139086 0.10776585 -0.0059318566
000330 3c 44 da bd 94 3b 24 3d ad 82 22 3e f6 4f 14 3c
       -0.10657546 0.04009588 0.15870161 0.009052267
000340 64 03 92 3d ee 5f 04 be c4 fe fe 3d 7e 7b 2b 3d
       0.07129553 -0.1292722 0.124509364 0.04186582
000350 dc 81 2a 3e 47 57 e6 bc d1 1c 9b 3d 79 f6 c4 bc
       0.166511 -0.028117789 0.07573856 -0.024043309
000360 03 23 a3 3d 4f 4b 17 3e 66 99 b3 3d 78 ca 3b bd
       0.07965662 0.14774822 0.08769493 -0.045847386
000370 5e 59 f2 ba 07 f9 b1 3d 7b 1f 51 3d 4e 3a 91 3d
       -0.0018489768 0.08690076 0.051055413 0.07091199
000380 9c 3b 0f 3d 8f 30 88 3d c5 9c c9 3b b6 82 86 3d
       0.034968957 0.06649887 0.0061527216 0.065679
000390 e1 d1 1e be cc 02 d4 3d fa 2e f6 bd e0 1c 7d 3d
       -0.1550975 0.10352096 -0.12020679 0.061795115
0003a0 3c 1b ec bc cb 8a c1 bd 34 aa 3a 3d 35 f1 14 3e
       -0.02882158 -0.09450301 0.045572475 0.14545138
0003b0 97 40 d3 bc 1b 06 42 3d d6 d1 fd bd a7 ab 6b bd
       -0.025787635 0.047369104 -0.12393539 -0.057536747
0003c0 38 de 3f bd d4 ee a5 bd 54 6c ac 3d ce ab 17 bd
       -0.046842784 -0.081021935 0.084190995 -0.03702908
0003d0 22 75 75 3c e5 60 84 3d b3 86 d4 bd 2f 19 10 bc
       0.01498154 0.06463794 -0.10377254 -0.008795067
0003e0 24 0b ea bd f5 cb 01 3e 54 66 a8 3d b1 2a 09 3c
       -0.11427906 0.1267546 0.082226425 0.008371995
0003f0 4e ca 7b bd 57 4b 7e bd 89 ca 30 bd 2f b2 88 3d
       -0.06147223 -0.06208357 -0.043161903 0.06674611

arith.constant23 f4 [200, 50]
000000 e0 4e 60 3b 79 ed 8a 3c 8d 1f 77 3d a7 df fc 3b
       0.00342267 0.016958939 0.060332824 0.007717091
000010 58 1c b9 ba 54 3f 2e bd 50 45 f1 3c 3a 10 65 3d
       -0.0014122827 -0.042540863 0.029451996 0.055923678
000020 70 54 dd 3d 20 6d 7c bc 73 0e f7 3d ee 8b 5c 3c
       0.10807121 -0.015406877 0.12063303 0.013461096
000030 39 8a 82 bd c0 51 56 bd e8 ba 18 3d 70 a3 c8 bc
       -0.0637402 -0.052324057 0.037287623 -0.024491996
000040 14 c4 08 3d ef b4 f7 3d 91 8b 9b bc 7c c1 76 3d
       0.03339012 0.12095057 -0.018987449 0.060243115
000050 39 1a 60 3b 2e fd 7c 3b e9 a0 89 3d 7f a3 07 3e
       0.0034195317 0.0038603055 0.06720144 0.13245963
000060 0f 95 d9 bd 9b 80 3d bd 59 f2 83 3d c7 0b 8e 3d
       -0.10624134 -0.046265226 0.064427085 0.0693584
000070 94 21 1a 3e 43 38 98 bd 7d bf 1b bd 5f be 2c 3e
       0.15051872 -0.07432606 -0.038024414 0.16869496
000080 6a 0e 5c 3c e8 b2 95 bc a9 4c 96 3d d4 9b ff bd
       0.013431171 -0.018273786 0.073388405 -0.12480894
000090 cc c7 93 3d e2 64 96 3c 8e 39 e1 3d cd 9b 92 bd
       0.072158426 0.018358652 0.10997306 -0.07158623
0000a0 be 3a 83 bd db 8c 0a bd 4e 88 40 3d a9 8e bd bc
       -0.064076886 -0.033825736 0.04700499 -0.023139315
0000b0 bd a3 9b bd e5 fb 0c ba cd 0e 11 bd 6b f1 ce bc
       -0.0759959 -0.00053781114 -0.035414506 -0.025261601
0000c0 e2 eb f4 3d b2 28 42 3d ae 3b d0 bc 99 a8 b4 bd
       0.119590536 0.04740209 -0.025419082 -0.0882122
0000d0 0f 5c 90 3d cc 9e 64 3d be 8d 34 3c 86 3e d5 bd
       0.07048809 0.055815503 0.011020122 -0.10412316
0000e0 7c df 75 3d b6 fc 8d bd 96 e5 4a bd a5 7d 1a bd
       0.060027584 -0.069329664 -0.049535356 -0.03771748
0000f0 a8 b6 75 bb 75 59 9d bd 46 5f e5 3d 83 30 96 bd
       -0.0037492905 -0.07683078 0.111998126 -0.073334716
000100 d3 dd 97 bd 08 d6 71 3d 71 ac 21 be 00 60 67 bd
       -0.074153565 0.059042007 -0.15788437 -0.056488037
000110 b7 5b 72 bc a4 2c 9b 3c db 0a 1f 3d 74 10 02 bd
       -0.014792374 0.018942185 0.038828712 -0.031753972
000120 70 f8 29 3d 4f bb b1 bd 67 28 80 3d b5 fe 91 bd
       0.041496694 -0.086783044 0.06257706 -0.0712866
000130 8b 28 ce bc 9c 9d 66 3c b3 93 92 bb e0 89 42 3d
       -0.025165817 0.014075663 -0.0044731735 0.04749477
000140 b7 29 68 bd a4 ba a3 3c 26 9e 1b 3e 40 a7 c7 bd
       -0.056680407 0.019986458 0.15197048 -0.09748697
000150 7a 41 22 bc cc 8f ef 3c 87 1f ba 3b 2b bf 78 3d
       -0.009903306 0.029243372 0.005680028 0.060729187
000160 ee b4 03 be 5b 6d 69 bd a9 02 8e bc a0 1f ea 3c
       -0.12861988 -0.056989055 -0.017335253 0.028579533
000170 a2 00 7a 3c 29 49 40 3c 51 0f 85 bd 7e ab 33 bd
       0.01525894 0.011736193 -0.06497062 -0.04386472
000180 6f 7a 48 bd 42 33 2e 3c 18 3d d2 3d f4 02 ae bd
       -0.048944887 0.010632338 0.10265559 -0.08496657
000190 77 e8 10 bd c3 4e c3 3d 2b 5f ba 3d 9f ce 62 3c
       -0.035377946 0.09536507 0.09100183 0.013843208
0001a0 80 8a ae bd 50 45 ae bd 61 a2 ef bc b0 8b f3 bc
       -0.085225105 -0.08509314 -0.029252233 -0.029729694
0001b0 48 74 df bd 69 b8 03 bd 66 20 83 bd e9 81 b9 3d
       -0.10910851 -0.03215829 -0.06402664 0.090579815
0001c0 d6 e7 ec 3d a8 1e a1 bd 94 39 e2 bc 9e 0f 07 ba
       0.11567657 -0.07867175 -0.027615346 -0.00051521685
0001d0 92 71 bf bd cb 58 96 bc 56 e3 6d bd 0e d8 0a 3d
       -0.09347834 -0.018352887 -0.058078133 0.033897452
0001e0 a0 4b cd ba b7 21 d6 bc b6 36 9c 3d f5 38 93 3d
       -0.0015662797 -0.026139123 0.07627623 0.07188598
0001f0 bd e8 78 bd 72 8b d9 3d d0 64 5b be ae 06 53 bc
       -0.06076883 0.106223 -0.21425176 -0.0128800105
000200 9f c4 ff 3c 7c a7 19 be 25 d1 cc 3b 15 78 ee 3d
       0.031221686 -0.15005296 0.006250518 0.116439976
000210 78 3c 92 3d 05 5a 20 bc 33 37 2f 3a 22 fd 8c bd
       0.0714044 -0.009787087 0.00066839455 -0.06884219
000220 4b a2 19 3e 8c 11 1d be 33 8b ae 3d 97 3d 1c 3d
       0.15003316 -0.15338725 0.08522644 0.038144674
000230 f4 97 9a 3c c9 04 05 bd 9b 8d 11 3d 32 9b 4f 3d
       0.018871285 -0.032475267 0.035535436 0.050685115
000240 22 dd 27 be 8e 74 8e 3c c9 98 ce bd c2 49 a8 3d
       -0.16392949 0.017389562 -0.10087735 0.08217193
000250 fe f8 0d 3e 02 27 6d 3d fa 18 12 bd 57 70 51 3e
       0.13864514 0.05789853 -0.03566835 0.2045301
000260 00 04 3b bd 1b 05 d8 bc 9e 25 ba 3d df ea 66 bd
       -0.04565811 -0.026369622 0.09089206 -0.056376334
000270 ba c8 6c 3c 5f a5 45 3d 69 da ce bb 65 7b 33 bd
       0.014452154 0.048253413 -0.0063126576 -0.04381885
000280 dc 83 32 bb 7c f6 8e 3d d9 57 1a be 64 4d 10 3d
       -0.002723924 0.06980607 -0.15072574 0.035230055
000290 72 81 08 be 5f 22 38 3d 24 0b ba 3c 77 1d ae 3d
       -0.1333063 0.044954654 0.02271039 0.08501714
0002a0 81 02 7c bc d6 2c d7 3d 06 cc 67 bd 8c da b9 3c
       -0.015381456 0.10506599 -0.056591056 0.02268722
0002b0 3c 78 a9 3c f6 8c 3c 3b 2e db ac bd 01 a2 b9 bc
       0.020687215 0.0028770543 -0.08440243 -0.022660257
0002c0 5d 6c 1f 3c ef 4c ec bb 2f f4 98 3a 08 d0 21 b9
       0.009730426 -0.0072113196 0.0011669452 -0.00015431654
0002d0 5e a6 23 3d b0 a4 38 be 61 1e ee bd 3e cd b1 bd
       0.039953582 -0.18031573 -0.11626888 -0.08681725
0002e0 73 71 05 3c d0 8d 15 3d 93 bd a0 3d bd c3 88 bd
       0.008144724 0.036512196 0.078486584 -0.06677959
0002f0 72 12 aa 3b 44 5e 79 3d df ad 47 bb ad 0a ac 3b
       0.005190187 0.060880914 -0.0030468625 0.005250296
000300 cc 65 d6 3c 46 89 eb bd 18 ec 2d 3e 2b 74 e8 bc
       0.026171587 -0.11500792 0.16984594 -0.028375706
000310 ec 86 bc 3d c0 9c 48 bd 57 82 a5 3a 76 80 bd bc
       0.09205422 -0.048977613 0.0012627345 -0.023132544
000320 63 41 43 3c e2 16 40 bd 22 7a 80 3c f3 57 04 bd
       0.011917445 -0.046896823 0.015683237 -0.032310437
000330 f8 bb 19 3d fd 60 05 3e 59 bb e2 3d 01 92 85 bd
       0.037532777 0.1302528 0.1107089 -0.06521989
000340 6f af e8 3c 34 84 05 3d be 79 56 bd 60 ce eb 3c
       0.028403966 0.03259678 -0.052362196 0.02878493
000350 b5 22 45 3d b4 43 3d bd b4 2f 0c 3d d0 6f 99 3d
       0.048128802 -0.046207145 0.03422518 0.0749203
000360 e3 4f ad 3d 13 6d 86 bc c7 3b 55 bb 23 7a 16 bd
       0.08462503 -0.016409433 -0.003253685 -0.036737572
000370 16 5f df bd 21 6f 5b 3d 13 bb 3c 3d 41 b9 59 bd
       -0.10906808 0.053572778 0.046076845 -0.053155188
000380 85 3d e5 bd 7a 54 05 3e 05 83 45 3e 2e db 0a bd
       -0.111933745 0.13020507 0.19288261 -0.033900432
000390 f4 42 58 bd 65 b6 d6 bc eb 58 8a 3c bf 17 f4 bc
       -0.052798226 -0.02621002 0.016888103 -0.02979648
0003a0 0a 4a 9d bd 26 a0 a7 bd 40 d2 85 bd 64 1e b6 bd
       -0.076801375 -0.08184843 -0.06534243 -0.08892515
0003b0 e3 7f 5a 3d 38 9b fa bd d0 db 06 3e a6 38 37 bd
       0.05334462 -0.12236637 0.1316979 -0.04473176
0003c0 9f 92 f6 3c 3e 93 cd bd d9 6f 5c bd 94 71 77 3c
       0.030099211 -0.1003785 -0.053817604 0.015102763
0003d0 ef 0e ff bd df 94 44 3d a0 a0 ac 3d 5c e2 fd 3d
       -0.1245402 0.047993537 0.08429074 0.1239669
0003e0 67 08 e4 3c 7c 78 2d 3d 14 c1 b6 bd e9 e2 5c bd
       0.027836038 0.04235123 -0.089235455 -0.053927336
0003f0 a7 69 5b bd b5 9b 62 3d 37 b8 0a 3e bc f2 88 3d
       -0.053567555 0.055324275 0.13546835 0.06686923

sequential_4_1/lstm_9_1/while/lstm_cell_1/add_1/ReadVariableOp f4 [200]
000000 1b 02 13 3b 00 e4 01 3c 7b 17 bd 3b 93 c3 dc bb
       0.0022431675 0.007927895 0.0057706214 -0.0067371815
000010 20 ed dc 3b 33 e4 1c bc e9 e2 79 ba 43 e9 3b bc
       0.0067421347 -0.009575891 -0.00095324084 -0.011469188
000020 41 a5 ee 3a c5 fa e3 3a cc 5a d0 3b d7 ca 24 bc
       0.0018207208 0.0017393461 0.00635848 -0.010058126
000030 12 3f 18 bc 8b 43 29 3b f4 18 8b 3b 4d 03 55 3a
       -0.009292381 0.0025827612 0.004244918 0.0008125797
000040 4f a1 e6 bb 90 5c df 3a 71 71 04 3c 7c ad 1e bc
       -0.0070382725 0.0017041136 0.008083687 -0.009684917
000050 c7 a7 88 3b f8 25 2f bc 81 3a df 3b 87 6b 3d bb
       0.0041703912 -0.010690205 0.006812394 -0.0028903203
000060 79 5a 23 3b db c4 59 bb e0 41 72 bc ea fb 17 3b
       0.0024925752 -0.0033228907 -0.014786214 0.0023190924
000070 cb fa 5d 3b a9 40 74 3b 1f 53 89 3c 82 db 35 bc
       0.0033871408 0.0037269986 0.016763268 -0.011099698
000080 e6 2f fe bb e2 ee d8 3b ec 62 d5 3b bc 86 24 bb
       -0.007757175 0.006620274 0.0065120365 -0.0025104722
000090 88 8a aa 3b f5 ab 24 3c ec 3c 31 bc 5d 1a 06 3c
       0.0052045025 0.010050763 -0.010817748 0.008184996
0000a0 8b c3 0a bc 37 b8 52 bc 4d 24 b6 3b 1d 87 6a bb
       -0.008469473 -0.012861303 0.0055585266 -0.00357861
0000b0 09 85 de 3b 82 a0 4c 3b b8 a7 e8 bb c7 e2 22 bc
       0.0067907614 0.00312236 -0.0071000718 -0.009941763
0000c0 bc 8e 09 bc 89 dc 22 bc e9 28 80 3f f4 c7 80 3f
       -0.008395847 -0.009940275 1.0012485 1.0061021
0000d0 7e 85 80 3f 4c 56 7e 3f 5d a8 80 3f 57 87 7d 3f
       1.0040739 0.9935043 1.005138 0.9903464
0000e0 fe a8 7f 3f 3b 21 7d 3f c7 0b 80 3f 18 ce 7f 3f
       0.99867237 0.9887883 1.0003594 0.9992385
0000f0 c2 8e 80 3f 66 4e 7d 3f 35 a1 7d 3f df 32 80 3f
       1.0043566 0.9894775 0.9907411 1.0015525
000100 b8 6e 80 3f 46 11 80 3f f1 0b 7e 3f 41 21 7f 3f
       1.0033789 1.0005271 0.9923697 0.99660116
000110 8c d8 80 3f 6d 86 7d 3f 82 59 80 3f 9b 39 7d 3f
       1.0066085 0.9903324 1.0027316 0.98916024
000120 8f a7 80 3f 7c 1a 7f 3f a7 2f 80 3f 14 c0 7e 3f
       1.0051135 0.99649787 1.0014542 0.9951184
000130 4d 3b 7c 3f 9d 24 80 3f 64 2e 80 3f 24 5f 80 3f
       0.98527986 1.0011173 1.0014157 1.0029035
000140 a0 ae 81 3f 8c 22 7d 3f 54 03 7e 3f 7d a5 80 3f
       1.0131416 0.9888084 0.9922383 1.0050503
000150 75 a2 80 3f 35 5d 7f 3f fc 72 80 3f 8a f6 80 3f
       1.0049578 0.997516 1.003509 1.0075238
000160 70 43 7d 3f 1d e4 80 3f 00 c2 7d 3f 8f ac 7c 3f
       0.98931026 1.0069615 0.99124146 0.98700804
000170 68 8c 80 3f 02 f2 7e 3f 85 ba 80 3f 74 46 80 3f
       1.0042849 0.99588025 1.0056921 1.00215
000180 fd fc 7d 3f 7e 78 7d 3f 36 e5 7d 3f 6e 6c 7d 3f
       0.99214154 0.9901198 0.99177873 0.98993576
000190 35 90 a2 bb c5 ff 21 bb 9c e4 7c 3b 48 ba 32 bc
       -0.0049610385 -0.00247191 0.003858841 -0.010908671
0001a0 fa fe 8f bb 94 6b 24 bc 7b 78 92 ba 56 ab 01 bc
       -0.0043944092 -0.010035414 -0.0011174822 -0.007914385
0001b0 35 68 ac 3a ea 42 b1 3b 0d 95 55 3a 08 95 eb 3b
       0.0013153615 0.005409588 0.00081475155 0.007189397
0001c0 01 8f 28 bc 95 c3 9e 3b a9 43 1a 39 6d 84 ee 3a
       -0.010288001 0.0048450925 0.0001471179 0.0018197425
0001d0 e0 0e 43 bc 52 4c 4a bc 30 9e 9d 3b 53 9d fe 3b
       -0.011905402 -0.012347298 0.004810117 0.0077702194
0001e0 ff 4e 73 3b 47 04 07 3c ab 65 8f 3b 01 04 9c bb
       0.0037125943 0.008240766 0.0043761334 -0.0047612195
0001f0 4f 9d 1e bb 59 41 96 3b 2f 8d bf bb ad 0f 6b bb
       -0.002420265 0.0045854268 -0.005845688 -0.0035867498
000200 fb cf 45 39 a5 1e 42 3b 70 fd bc bb 5b 2b 1d bc
       0.00018864863 0.0029620316 -0.005767517 -0.009592856
000210 35 af 4f bc a0 b7 4f bb be 81 8d 3a 6f ce cd 3b
       -0.01267605 -0.0031695142 0.0010796112 0.0062807123
000220 98 1d 0a 3b 7a b8 96 bb 2d c3 0c bc bd b9 ee 3a
       0.0021074768 -0.004599628 -0.008591455 0.0018213313
000230 b1 6a 67 3c 8d 3e bf 3b 03 9d 60 bb 22 47 b2 ba
       0.014124558 0.005836314 -0.0034273274 -0.0013601521
000240 53 7a 8c bb 42 78 19 bb 67 79 d7 bb a6 6c 3d bc
       -0.004287043 -0.0023417627 -0.0065757516 -0.011561548
000250 db ff 3a 3c b4 f8 d6 bb 99 78 11 3b 98 39 02 3c
       0.01141354 -0.0065604094 0.0022197126 0.007948302
000260 12 4e c7 3b 09 34 d8 bb 84 74 da 3b da 90 1c bc
       0.0060823048 -0.006598 0.006666722 -0.00955602
000270 ed cb 78 ba 32 34 3c bc cc f0 cf 3a 59 07 d4 3a
       -0.00094908365 -0.011487054 0.001586461 0.0016176506
000280 e9 f1 ce 3b 86 02 25 bc 56 11 18 bc 76 69 27 3b
       0.006315459 -0.010071402 -0.009281477 0.0025545037
000290 32 f8 86 3b 58 64 5f 3a 90 1e e1 bb 0a b3 00 3b
       0.0041189427 0.0008521727 -0.0068700984 0.0019637966
0002a0 82 15 fe 3b e6 21 1f bc 15 28 83 3b 94 89 2f bc
       0.007754029 -0.009712672 0.004002581 -0.0107139535
0002b0 e0 da e0 3b 83 49 58 bb 29 4e 17 3b e2 3c 77 bb
       0.0068620294 -0.00330028 0.0023087359 -0.0037725498
0002c0 46 1f 72 bc 23 d7 19 3b 0c 53 51 3b c6 d0 6b 3b
       -0.014777964 0.0023474179 0.003194037 0.0035982593
0002d0 d3 df 8a 3c 01 ad 35 bc c5 67 fe bb 98 53 d4 3b
       0.01695243 -0.011088611 -0.007763835 0.0064796917
0002e0 64 aa ce 3b b5 35 24 bb 80 62 a6 3b 42 c8 25 3c
       0.0063069332 -0.0025056426 0.00507766 0.010118546
0002f0 b3 c7 32 bc 3f 0f 05 3c b3 09 0d bc c5 df 54 bc
       -0.01091187 0.008121311 -0.0086082695 -0.012992804
000300 82 8b a7 3b 01 59 6b bb e4 45 da 3b db 9f 40 3b
       0.005113066 -0.0035911205 0.0066611636 0.0029392156
000310 df c3 ee bb b5 22 23 bc d9 da 05 bc bf 49 23 bc
       -0.0072865332 -0.009957005 -0.008169853 -0.009966313
