models/BNB_lstm_model.tflite (tflite, 145900 bytes, 8 tensors)

arith.constant4 f4 [1, 25]
000000 1e 7b 92 be a9 3a c0 bd 66 b6 76 3d 6f 87 de 3e
       -0.28609556 -0.093861885 0.060232542 0.43462703
000010 b8 4f 86 be 47 0b b7 3e 81 25 4c be 84 05 96 3e
       -0.26232696 0.3575079 -0.19936182 0.29301083
000020 5a 81 ec be 82 28 65 3e e6 02 2d be f0 84 a6 be
       -0.46192437 0.22378734 -0.16895637 -0.32523298
000030 66 bc a7 3d 24 fd c0 3e 5f 92 b0 bd fb 33 ca bd
       0.08190231 0.3769313 -0.08621668 -0.09873196
000040 2b 9f 1f 3e ce 2d 66 3e 1b 74 b7 ba 35 ca 4e 3e
       0.15588062 0.2247841 -0.0013996394 0.20194323
000050 64 9a ec 3e 4d 09 c8 3e e1 a9 9e 3e cf 25 5a 3e
       0.4621154 0.39069596 0.30988982 0.21303485
000060 bd 7b ec be
       -0.46188155

arith.constant5 f4 [25, 50]
000000 c2 ed b9 bd 8f c4 74 be 2d ce fb 3d 9b 18 1d 3e
       -0.09078552 -0.23903106 0.12295184 0.15341417
000010 a1 59 cb 3d 99 c4 86 3e 6a 76 19 be 82 98 0f 3e
       0.09929205 0.26321867 -0.14986578 0.14023021
000020 19 85 00 be 86 02 8f 3e ca 37 dd 3d 6c 50 5d be
       -0.12550773 0.27931613 0.108016565 -0.2161271
000030 4e e6 51 be 21 3e c0 bd 2f 06 c6 bd 14 33 93 be
       -0.2049801 -0.0938685 -0.09669148 -0.28749907
000040 75 ef 48 3e 25 1a d8 3d d6 d2 1c 3e 47 3f 89 3e
       0.19622596 0.10551862 0.15314803 0.2680609
000050 5d b3 7d be 06 2d b8 bd 55 5b 14 3d 94 a0 ca bd
       -0.24775453 -0.089929625 0.036219914 -0.09893909
000060 1d 4f 93 3e fc a5 2d 3e 07 53 75 3e 8f ab 55 bc
       0.28771296 0.1695785 0.23957454 -0.013041391
000070 c2 01 46 be 0e 20 4d be 55 4a bf 3d b8 1b 48 3e
       -0.19336608 -0.20031759 0.093403496 0.19541824
000080 96 e6 87 bd 83 06 f2 3d ae 35 25 3e b2 06 cf 3d
       -0.06635778 0.11817648 0.16133758 0.10108699
000090 7f c9 35 be ce 1c d4 3d 78 73 f0 bc 7c 33 24 be
       -0.17752646 0.103570566 -0.029351935 -0.16035265
0000a0 11 2f 82 3a a0 1c 60 be 7a 32 29 3c 1b eb f9 bd
       0.000993224 -0.2188592 0.010326976 -0.12203046
0000b0 bf 59 51 be 4d 7d 05 3e 29 f0 e4 3d e8 fa dd 3d
       -0.20444392 0.1303608 0.111786194 0.10838872
0000c0 d3 c7 8f be c6 d4 ca bd 53 47 1e 3e 98 24 18 be
       -0.2808214 -0.099038646 0.15456896 -0.1485771
0000d0 3f 96 46 be 7f c2 70 bd b0 d1 42 3e e5 0d 27 3e
       -0.19393252 -0.058779236 0.19025302 0.16313894
0000e0 f4 a0 ec 3d cc 7e 01 3e 62 66 98 3d 79 bd fe 3b
       0.11554137 0.12646025 0.07441403 0.0077740517
0000f0 da 23 02 be 45 64 8c 3e e1 57 17 3e 86 c7 a9 bd
       -0.12708989 0.2742025 0.14779617 -0.08290009
000100 22 3d 01 bd 94 25 6b 3e f5 6f 1d be 4a 3c 6c be
       -0.03155244 0.22963554 -0.1537474 -0.23069873
000110 41 af e7 bd 48 bd 86 be dc 63 39 3e bb e0 0e 3e
       -0.11312724 -0.26316285 0.181045 0.13952915
000120 93 bd 2e 3e ed 46 7d 3e f2 72 83 3e 0f 00 ca bd
       0.17064504 0.24734087 0.25673634 -0.098632924
000130 80 ca 19 3e 9e be 62 3d 03 3a ce bd c9 b7 cf bd
       0.15018654 0.055357568 -0.100696586 -0.10142476
000140 2e ce 55 3e 19 fc 57 3e 05 44 4d be 40 84 35 be
       0.20879433 0.21092261 -0.20045479 -0.1772623
000150 50 25 ae 3d 16 88 1b 3e 22 b5 28 3d 7c 69 25 be
       0.085032105 0.15188631 0.041188367 -0.1615352
000160 1e 39 1d 3d 1c ea 7b bd e5 a5 0f 3e 30 02 2b be
       0.03838455 -0.06150256 0.14028127 -0.16700053
000170 43 ef 6d 3e 3a 94 06 3e c7 71 91 bd a6 60 ec bd
       0.23235802 0.13142481 -0.071017794 -0.11541872
000180 a8 24 37 3e c0 62 50 3d 52 41 66 3e 24 bd fc 3d
       0.17885077 0.050875425 0.22485855 0.12340763
000190 2e da 18 be 48 f9 7c 3e 48 fa 63 3e c8 81 72 3e
       -0.14926979 0.24704468 0.22263443 0.2368232
0001a0 2b 05 0e 3e f4 5a 00 be 02 80 62 bd 36 bd 5b 3d
       0.13869159 -0.12534696 -0.05529786 0.053647242
0001b0 63 a4 63 3e d2 3c b6 3c 7a ca 76 3e 07 5f 5b bd
       0.22230677 0.022245798 0.24100676 -0.053557422
0001c0 9f d8 0a be 6c fb 1e 3e 46 13 8e be d8 f3 9f 3d
       -0.13559197 0.15525597 -0.2774908 0.078101814
0001d0 e1 b6 7d 3d 22 53 0e be ed be 40 be 96 3b 85 bb
       0.061941985 -0.138989 -0.18822832 -0.004065941
0001e0 ce f6 81 3e 5c 9f 21 be 77 5c 89 3e 52 2f 67 be
       0.2538361 -0.15783447 0.26828358 -0.22576645
0001f0 0e cf e9 ba 57 64 e8 3c 11 c3 4a be 72 40 b5 3d
       -0.0017838196 0.028368158 -0.19800974 0.088501826
000200 e7 a0 85 3e 55 a4 04 be f1 80 81 3e 69 50 fe 3d
       0.2609932 -0.12953313 0.25293687 0.12417681
000210 3a 22 69 be e0 b9 4a 3e 30 ce 4e be 04 10 bd 3c
       -0.22766963 0.19797468 -0.20195842 0.023078926
000220 b9 63 ca ba fa 57 4c bd 1c 4e 12 3e 05 32 98 bd
       -0.0015441097 -0.04988859 0.14287609 -0.074314155
000230 a6 e0 d8 bc ec 03 0d be b3 9d 83 bd ec ad 83 be
       -0.026474308 -0.13771027 -0.06426563 -0.2571863
000240 b6 a6 7d be cb ef bb 3d bb 60 11 bc e9 3c ab 3d
       -0.24770626 0.09176596 -0.00887316 0.08361227
000250 4e f3 60 be f7 50 9e 3d a1 6b 3f 3e 51 4d 7b be
       -0.21967813 0.077302866 0.18693401 -0.24541213
000260 73 b7 51 3e 59 42 c2 bd 97 4a 23 3e 5f 4b 8c 3e
       0.20480137 -0.09485311 0.15946423 0.27401254
000270 c9 c8 86 3d 4c 60 a1 bd ee c9 8c 3d f3 ab 8c bd
       0.065812655 -0.07879695 0.068744525 -0.06868734
000280 27 da 47 3e d4 01 f9 bd 5a 95 07 3e fa 12 7f bd
       0.19516812 -0.12158552 0.13240567 -0.062273957
000290 33 e2 31 be 19 15 37 3e d7 26 80 3e f7 a5 3e be
       -0.17371444 0.17879142 0.25029632 -0.18617998
0002a0 73 26 27 be e6 6b 15 3e 8a 1f 35 be 8b af 46 be
       -0.16323261 0.14591941 -0.17687812 -0.19402902
0002b0 30 70 c6 bd 0c ca 07 3e 69 89 28 3e b3 a5 99 bd
       -0.09689367 0.13260669 0.16458668 -0.07502308
0002c0 38 ac 62 bd 74 c5 38 bd f9 ee d4 3d 5d ef 55 3e
       -0.05534002 -0.04511018 0.10397143 0.20892091
0002d0 07 47 16 3d c9 bb 20 be 6e 81 d7 bd ab f7 0e 3e
       0.03668883 -0.15696634 -0.10522734 0.13961665
0002e0 8d 31 48 be cb 69 0b 3e a8 c5 8c 3e f2 14 5d 3e
       -0.19550152 0.13614576 0.2749455 0.21590021
0002f0 3a e5 72 3e 3c 8f d2 bd ed 70 ed ba 8c 77 82 bc
       0.23720255 -0.10281226 -0.001811532 -0.015926145
000300 d9 9c 8d be 5e ee 6c 3a c3 c7 60 be 11 3b e9 bd
       -0.27658728 0.0009038205 -0.21951203 -0.11388219
000310 67 52 8c 3e 15 07 3c 3e 85 bd e9 3d 37 c2 16 3e
       0.27406618 0.18362077 0.11413101 0.14722525
000320 8f 75 e6 3d d6 21 fb bd f3 5b 6e be 6f 8f b0 3b
       0.11252891 -0.12262313 -0.23277263 0.0053881924
000330 78 22 1d bd 8d b3 71 be bf 25 2d be 51 ed 83 3d
       -0.03836295 -0.2360365 -0.1690893 0.06441749
000340 27 4d c3 3c 07 ec 70 3e 4a c4 f4 3d 7b 0b 1b 3d
       0.0238405 0.23527537 0.11951502 0.037852746
000350 9e 7e 57 be df 1f f4 3d c8 16 7e 3c 80 e2 55 3e
       -0.21044394 0.119201414 0.015508361 0.20887184
000360 ef b7 36 3e 55 5d 64 3e 34 f2 f1 3c 32 9d 88 3e
       0.17843603 0.22301228 0.029534437 0.2668243
000370 11 ff 12 bd 48 a7 70 3e 37 76 77 be f4 42 6a bc
       -0.03588778 0.23501313 -0.24166189 -0.014298189
000380 8c 54 ae 3c 63 07 f5 3d 82 2d bc 3d 7e 98 3a be
       0.02128055 0.119642995 0.091883674 -0.18222234
000390 4a bb 30 be 62 ca 27 be 1e 3a 01 3e 28 10 7f be
       -0.17258945 -0.16385797 0.12619826 -0.24908507
0003a0 32 fd 70 be 77 fa f8 3d 43 70 18 be f6 dd b9 bd
       -0.23534086 0.121571474 -0.14886574 -0.09075539
0003b0 b8 81 b1 3d aa 09 da 3d 89 e1 7d be 00 07 00 be
       0.0866732 0.106463745 -0.24793066 -0.1250267
0003c0 5a a8 52 be cc fc 07 3d 13 94 5e be d4 a0 6a 3e
       -0.20572034 0.03320007 -0.21736173 0.22912914
0003d0 1d a9 b7 bd 94 e7 87 bd d7 65 73 3e b8 82 42 be
       -0.08967803 -0.06635967 0.23769318 -0.18995178
0003e0 6a b3 7b 3e 40 11 70 3e 19 85 4b 3e 59 29 95 3d
       0.2458016 0.2344408 0.19874991 0.07283277
0003f0 b0 4a 12 3e 31 73 46 be 53 c1 f4 3d 5a 4f 7a ba
       0.14286304 -0.1937988 0.11950936 -0.00095485675

arith.constant17 f4 [200, 1]
000000 02 a4 c1 bd 39 9d 80 bd 1e 23 fa bc ab ad e9 3d
       -0.0945511 -0.06279988 -0.030534323 0.11410078
000010 65 f0 29 3d 2c 44 ed 3d 10 91 a9 3d 50 a8 2a 3e
       0.041489024 0.115852684 0.082796216 0.16665769
000020 07 22 ff bd 07 0e bb bd cc 52 71 bd 92 8e 30 bd
       -0.12457662 -0.09133535 -0.058916852 -0.043104716
000030 86 bc 97 bd 00 fa cc bd 0e 44 87 bc 52 1f f3 bd
       -0.07409005 -0.10008621 -0.016511943 -0.11871208
000040 16 13 7d bd f4 94 09 bc 18 44 37 be d3 bd ff bd
       -0.06178578 -0.00839733 -0.1789707 -0.12487378
000050 60 31 fd 3d a8 a4 8f bd d3 fa 8a 3d 0c 61 11 be
       0.12362933 -0.070138276 0.06786122 -0.14197177
000060 45 75 1b be 84 52 9b bd 0b 94 f2 bd ef 9f 1e be
       -0.15181454 -0.07584098 -0.11844643 -0.15490697
000070 e5 5b d3 3d 93 84 d9 3c 49 80 55 3d 15 c7 2a 3d
       0.10320262 0.026552474 0.052124295 0.041693766
000080 3d 05 a3 3d 3f 40 25 3e e1 96 ea 3d 0f 19 a2 3d
       0.079599835 0.16137789 0.11454559 0.07914936
000090 ac a0 1c be f3 d8 b9 3d 8e 22 16 be 47 fc e2 bc
       -0.15295666 0.09074583 -0.14661619 -0.027708186
0000a0 94 12 1c bd a4 2f 9c 3d ba 41 aa bd 90 6d 94 3d
       -0.038103655 0.07626274 -0.083133176 0.0724746
0000b0 06 9e ab bd d5 60 1e be 61 66 13 bd 76 29 36 be
       -0.0837975 -0.15466626 -0.035986308 -0.17789254
0000c0 e7 aa 1f 3e dd cd c4 bb 91 40 15 3e 68 8a 15 3e
       0.15592538 -0.006005986 0.14575411 0.14603579
0000d0 42 3d 42 3c 91 67 13 3e 06 cf 7e 3d 21 d6 04 be
       0.011855425 0.14394976 0.06220915 -0.12972309
0000e0 83 ba 09 3e a2 a1 20 3e 79 ee 21 be d6 94 68 3c
       0.13450055 0.15686658 -0.15813626 0.0141956415
0000f0 44 8a 48 bd 75 64 22 3e e4 e4 19 bc 51 6e 02 be
       -0.048959985 0.15858634 -0.009392951 -0.12737395
000100 10 df 86 bd 1a 35 28 3e 23 b1 13 be fa 37 fc bd
       -0.065855145 0.16426507 -0.14423041 -0.12315364
000110 5d f1 cc bd 78 3a d2 3d 00 ea 71 3d 47 c8 d0 3d
       -0.10006974 0.10265058 0.05906105 0.1019445
000120 0e 2a ad bb 8c 48 79 bb 79 4a 52 3d fb c9 ee 3c
       -0.0052845543 -0.0038037626 0.051340554 0.029149046
000130 22 b0 1c 3d ce 9f 0d bd 7e 66 39 be 2a d8 ae bd
       0.03825391 -0.03457623 -0.18105504 -0.08537324
000140 66 4f 90 bc 55 c2 16 3e 98 07 a3 bd 32 de 26 be
       -0.017615985 0.1472257 -0.07960433 -0.16295698
000150 61 54 84 3d 02 43 8a bd f1 9d c6 bd e0 88 df 3c
       0.064614065 -0.06751062 -0.09698094 0.027286947
000160 24 ef be bd 53 f4 13 3e 6c f6 7b 3d 84 a5 25 bd
       -0.09322956 0.14448671 0.061514303 -0.04044105
000170 75 8f f3 bd cf a0 fa bb ea f3 b7 3d da 84 21 bd
       -0.11892597 -0.0076485644 0.0898207 -0.039433338
000180 72 da 86 3d d0 0d 38 be 29 aa 33 be ad 3c 5d bc
       0.06584634 -0.17974019 -0.1754538 -0.013503236
000190 7c c6 b4 3d c0 30 1a be bc c8 20 3d ed c0 d7 bd
       0.088269204 -0.15057659 0.039253935 -0.105348445
0001a0 34 f5 88 bb da b1 1a 3e aa 0c 65 3d c7 af 44 3c
       -0.004179621 0.15106907 0.05592028 0.012004799
0001b0 77 a1 ed bd dc 2c 8a 3c 49 6c 1a 3e 3f 16 11 3e
       -0.116030626 0.016867094 0.1508037 0.14168642
0001c0 78 a6 2b 3e 41 0c 92 bd 3e 90 c5 3d bb e0 ce bd
       0.16762722 -0.071312435 0.09646653 -0.10101458
0001d0 89 d7 34 be 51 c4 a8 bd 56 95 8b bd 5b 12 2b 3e
       -0.17660345 -0.082405694 -0.06815593 0.16706221
0001e0 aa 23 80 bc 0a 8d d7 bd aa bd 00 3e fe 0a d2 bd
       -0.015642006 -0.10524948 0.12572351 -0.10256003
0001f0 28 47 c2 3d 2b 45 8b bd 12 51 07 be fa 78 f8 bc
       0.09486228 -0.06800302 -0.1321452 -0.030331124
000200 90 3a 47 3d a7 d2 0a 3d b6 f6 02 3e 32 3b 13 3e
       0.048639834 0.0338923 0.12789425 0.1437805
000210 55 87 62 3d 70 ea b9 3d a2 2b 06 3d d1 51 1c 3e
       0.055304844 0.090779185 0.032756455 0.15265585
000220 41 e1 a6 3c 02 ea 0f be 31 cf e8 bd 1d 06 b7 3d
       0.020371081 -0.1405411 -0.113676436 0.08936713
000230 fe 0f 37 bd bb 46 0a be 42 da 17 be bf 78 41 bd
       -0.044692986 -0.13503544 -0.14829352 -0.047234293
000240 26 35 c0 3d f8 f4 24 be e7 03 29 3e 15 57 2b bd
       0.09385137 -0.16109073 0.16505395 -0.041831095
000250 40 0b 8a bd ab 44 a3 3d 87 0f a1 3d 6a 96 cb 3d
       -0.06740427 0.07972082 0.0786429 0.099407986
000260 4a 5b 02 3e e9 13 85 3d 04 af ac bd 8d a3 c6 bd
       0.12730137 0.06497938 -0.08431819 -0.096991636
000270 7a cd 65 3d 24 87 17 3e 07 24 07 be 93 8b 80 3c
       0.05610416 0.14797646 -0.13197337 0.015691554
000280 45 72 69 bc dc 9a 83 bb 04 b1 19 be 46 dd 02 3e
       -0.014248435 -0.0040162634 -0.15008932 0.12779722
000290 34 c6 d5 3d 95 28 98 3d 9d 1f 88 3d 15 9a c2 bc
       0.10438195 0.074296154 0.06646655 -0.023755113
0002a0 9d 6d c0 bd e7 ad a9 bc 8d 1b e9 3d c5 5d 05 be
       -0.09395907 -0.020712806 0.11382208 -0.13024051
0002b0 49 88 04 3e 0d 04 a2 bd 79 da 1f 3e 86 d8 8b bd
       0.12942614 -0.07910929 0.15610684 -0.06828408
0002c0 a9 5a 57 3d 6d 7e bf bd ee 48 8b 3c 84 10 ea 3d
       0.052576695 -0.09350286 0.017002549 0.11428931
0002d0 25 09 95 bc 4d 2f be bd cb 0d 09 be 27 9a 27 3e
       -0.018192837 -0.09286366 -0.13384168 0.16367398
0002e0 fe f6 f6 3d af 9c 08 be 04 24 17 be cf 40 0d 3e
       0.12058829 -0.1334102 -0.14759833 0.13794254
0002f0 6a f0 7f 3b 6c f7 0c 3e df f7 81 3d ab bc cb bd
       0.003905321 0.13766259 0.06346106 -0.09948095
000300 08 0a f3 bd 88 93 9c bd 76 a5 39 be f4 7d 32 3e
       -0.11867148 -0.07645327 -0.18129525 0.1743086
000310 fa a3 c4 bd 11 00 e7 bd 2c 6a d9 bd fb 87 85 3c
       -0.096015885 -0.112793095 -0.10615954 0.016300192

arith.constant18 f4 [200, 50]
000000 d7 bb 60 bc 46 6c 5f 3c e7 f5 27 bc b7 f2 0a bd
       -0.0137166595 0.013636654 -0.010251499 -0.033922877
000010 dd 97 a1 3c d8 3f 0f 3d b1 3b 97 3d 23 b7 c8 3c
       0.019725734 0.034972996 0.07384432 0.024501389
000020 3c 11 a5 bd e3 51 27 3d ad b1 5a bc 3f a0 26 3c
       -0.08059928 0.040849578 -0.013348025 0.010170042
000030 68 0a 65 bd f6 21 95 3d b2 fe b0 bd 62 74 3b 3c
       -0.055918127 0.07281868 -0.08642329 0.011441322
000040 d7 df 54 bc 1a 3b e9 bc 4f 5c 08 bd b2 89 06 bd
       -0.012992821 -0.028470565 -0.033291157 -0.03284616
000050 05 77 9c bd 5a 49 2e bd d2 fd 5b bd 89 bc 93 3d
       -0.07639889 -0.042550422 -0.05370886 0.072136946
000060 75 2e 47 3e c4 e9 d9 b9 af 56 15 3e de 2d 49 3d
       0.19451316 -0.00041563634 0.14583848 0.049116008
000070 0c 3a e3 3b 8b cd 19 3d b1 1e b3 3d ca f9 d3 bd
       0.00693441 0.037549537 0.08746088 -0.10350378
000080 7f e3 99 3b b2 46 94 bd 67 20 2e bb 2d 40 1a be
       0.004696309 -0.072400466 -0.0026569606 -0.15063544
000090 b3 85 c7 bc 5e a1 82 3d 6c 6f 99 3c d7 9a ea 3c
       -0.024355745 0.063784346 0.018729888 0.028638287
0000a0 a5 be cf 3d 0c dc 04 3e 86 ff 10 be 89 e9 29 3c
       0.101437844 0.12974566 -0.14159974 0.0103706205
0000b0 b7 93 95 3b d9 ce 88 3b ff 8f 18 3e be 72 d8 bd
       0.004564728 0.004175049 0.1489868 -0.1056876
0000c0 17 d3 ca 3c 28 f4 1f 3e 59 98 5a bd 97 76 f4 bc
       0.024758859 0.15620482 -0.053367946 -0.029841704
0000d0 64 59 c0 bc b0 b0 1f bd 80 45 a9 bd a4 bd 89 bc
       -0.023480125 -0.03898686 -0.08265209 -0.01681406
0000e0 4a 51 ab bb dc 64 e8 3c 3e 75 aa 3c 1b 12 bb 3d
       -0.0052281963 0.028368406 0.020807859 0.09134313
0000f0 31 17 28 3e e6 85 82 bd 8e f6 ba 3d 88 f8 a9 3c
       0.16415097 -0.06373195 0.09129058 0.020748392
000100 77 7f 68 3d 5f 87 a2 3b 24 3e be 3c 9e 6e 2c bb
       0.056762185 0.004959985 0.02322299 -0.002631105
000110 47 ad c0 3c e0 d9 86 bd e9 76 09 bc e1 89 df bd
       0.023520125 -0.06584525 -0.008390167 -0.1091497
000120 f4 a8 82 bd b0 70 22 bd b0 55 87 bd 4d 83 9b bd
       -0.063798815 -0.03965825 -0.066081405 -0.07593403
000130 26 ef 2e 3d fc 1a 80 bd 6c f7 11 3e 41 a4 b8 3d
       0.04270854 -0.06255147 0.1425454 0.09015704
000140 3e fe ea 3b a9 d0 1a bd ed d6 ab bc d0 19 2c 3d
       0.0071714213 -0.03779665 -0.020976508 0.042016804
000150 46 a7 d6 3c 81 8f b0 bc c4 2e 49 3d c6 80 1b 3c
       0.026202809 -0.021552803 0.049116865 0.009491151
000160 73 96 df 3d 17 a2 b6 3c 5b 0c 0b 3e ba a6 f3 bc
       0.10917368 0.022294087 0.13578932 -0.029742587
000170 c1 11 a0 3d 00 7e 6c bd ad 86 3e 3d d8 5b 08 bd
       0.07815886 -0.05773735 0.046515156 -0.033290714
000180 f8 7d 00 3e 1d 27 16 bc a9 6b c8 3c e6 76 a3 bc
       0.12548053 -0.009164599 0.024465399 -0.019954156
000190 ba 98 d2 bd da 7e 6c bc 60 7b ac bd b0 66 a1 3b
       -0.102830365 -0.014434541 -0.084219694 0.0049255714
0001a0 87 67 30 3d 8c 21 68 bd 33 c8 d5 3d 83 9e f5 3d
       0.04306748 -0.056672618 0.104385756 0.11993124
0001b0 10 00 b1 3b 56 41 bb bc 9b 22 27 bd 34 e9 a2 bb
       0.005401619 -0.022858303 -0.040804487 -0.0049716476
0001c0 20 6c ee bd 06 e9 2a bd a3 a1 01 bd b1 b2 03 3c
       -0.11641717 -0.041726135 -0.03164829 0.008038209
0001d0 ec c6 d0 ba 3d 69 87 bd 5e 28 85 3d bc 85 ac 3d
       -0.0015928424 -0.066118695 0.0650184 0.08423945
0001e0 28 a5 47 3d cd 8c b5 3c a1 ed 68 3d 34 51 41 3e
       0.04874149 0.022161866 0.056867246 0.18878633
0001f0 f1 be a5 3c d4 62 78 3d 8e d8 93 3d 98 75 2d bd
       0.02023265 0.060641125 0.07219039 -0.042348474
000200 cd 9d 6c bd f3 ab 5e 3d b6 4c 76 3b 2a 7c 9c bd
       -0.057767678 0.054363202 0.0037582344 -0.0764087
000210 5f 2d a9 bd c4 56 01 bd 5a a8 9f 3d b9 17 cf bc
       -0.08260607 -0.031576887 0.077957824 -0.025279867
000220 ef 3e aa 3d 43 81 52 3d 03 ac 15 bd e0 8d d7 3d
       0.08312785 0.051392805 -0.036540996 0.105251074
000230 e5 e4 92 3d 28 fc e1 3d 42 d1 cc 3a 45 e0 6a bd
       0.071725644 0.11034423 0.0015626329 -0.057342786
000240 be 9b 94 bd fc 54 eb 3a 47 82 10 bc 8e 4d 14 bc
       -0.07256268 0.0017954404 -0.008820123 -0.009051694
000250 81 3c e0 bd 2e b4 e1 bc 81 cb 37 3d 3e 91 82 bc
       -0.1094904 -0.027551737 0.04487181 -0.015938397
000260 c6 80 3a 3d 5e 27 27 bd ce f9 1d 3e 09 68 56 bd
       0.045532964 -0.040809028 0.15427324 -0.05234531
000270 a6 ff 25 3e 23 85 91 bc 3f 77 55 bd 0e e0 e2 3d
       0.16210803 -0.01776368 -0.052115675 0.11077891
000280 51 ad be 3d ab c6 06 bd da 05 1c 3d 71 81 73 bd
       0.09310401 -0.03290431 0.038091518 -0.059449617
000290 a6 dc a4 3c 7a 03 23 bd d0 1b ad 3d b3 23 68 bd
       0.020124745 -0.039798237 0.084525704 -0.05667467
0002a0 81 04 58 bd 26 e8 a0 bc 01 c9 db bc 87 ef 39 bc
       -0.05273867 -0.019641947 -0.026829245 -0.011348612
0002b0 26 de 08 bd 44 af 3f 3e 84 53 d0 bc 4b 61 2b bd
       -0.033414982 0.18719202 -0.025430448 -0.041840833
0002c0 6a f5 80 bd 94 5a a8 3d e4 06 ca bd 2a f7 47 bd
       -0.06296809 0.082204014 -0.098645955 -0.0488197
0002d0 4c 2e 3f bd bc e5 8b 3d 11 fb d9 bb 23 7a fe bd
       -0.04667501 0.06830928 -0.006652244 -0.124256395
0002e0 d9 ab 0d 3e 2b 6b d7 bd 72 fb ab 3b 4f 64 b8 bd
       0.13835086 -0.105184875 0.0052484805 -0.09003507
0002f0 b2 e0 1f 3d 07 d5 81 3d 0b 46 3d 3d 12 06 da bd
       0.039032646 0.0633946 0.046209376 -0.10645689
000300 30 9e 9a bd b9 fa d7 bd 5e ca 39 ba da 24 7d bd
       -0.07549703 -0.105458684 -0.0007087345 -0.061802723
000310 dd 8b 31 bd fa 26 fb bd 05 18 07 3e 15 3e e6 bd
       -0.043346275 -0.122632936 0.13192756 -0.1124231
000320 fb 6d 03 be f8 ef 66 bd 13 58 15 3c ec 46 1a 3d
       -0.12834923 -0.056381196 0.009115237 0.037665293
000330 a5 6b 55 3d 51 0a ab 3d 62 1a 9b bc 49 c0 9e 3d
       0.05210461 0.08351577 -0.018933479 0.07751519
000340 29 d4 ba bd fc ee 4c bc e9 ba e2 3d 12 1a fc bd
       -0.091224976 -0.01250815 0.110708065 -0.1230966
000350 aa 92 32 bd f2 8b 27 bd 0e 3a 92 b9 58 08 20 bd
       -0.0435969 -0.040904947 -0.00027890544 -0.039070457
000360 9b 84 e5 3d 83 28 fa 3b a4 7f 1b 3d 4d 19 dc 3d
       0.11206933 0.007634224 0.037963524 0.10747013
000370 15 f5 91 bd bb d8 18 be 59 a8 07 bd ae 8f 38 3d
       -0.07126824 -0.14926426 -0.033119533 0.0450589
000380 e6 8e 95 3c 9c dc 24 be 78 6e 94 3d 1d 25 d3 3b
       0.018256616 -0.16099781 0.07247633 0.006443633
000390 32 30 c9 bd 12 22 8d 3b d9 51 87 bd bf 8c df 3c
       -0.09823646 0.00430704 -0.06607408 0.027288793
0003a0 98 0c 5b 3c 4b ef 0d bd 57 bf 87 3b bf e8 fe 3c
       0.013369702 -0.034652036 0.0041426825 0.031116841
0003b0 9a 8b a5 bd a2 31 ba 3d 07 77 2e bd f6 0d 65 3d
       -0.080832675 0.09091498 -0.042593982 0.055921517
0003c0 af d5 52 be 11 5e b3 bd 4f ad b7 3d 98 6e 06 bd
       -0.20589326 -0.08758176 0.08968603 -0.032820314
0003d0 5d fe 18 3b 63 70 8b 3d b0 68 05 be b2 03 ca bc
       0.0023344972 0.068085454 -0.13028216 -0.024659965
0003e0 15 3c 29 3d 52 6a 42 3c 82 26 0e bd a0 87 96 bc
       0.041317064 0.011866169 -0.034704693 -0.018375218
0003f0 73 97 e8 bd 6c 29 f9 3c 29 b9 f1 bd 0d 67 01 bd
       -0.11357012 0.03041526 -0.118028946 -0.031592418

sequential_3_1/lstm_6_1/while/lstm_cell_1/add_1/ReadVariableOp f4 [200]
000000 93 35 ef b7 06 53 de 3b 99 cf 23 bc 73 ad 96 ba
       -2.8515968e-05 0.0067847995 -0.009998226 -0.0011495784
000010 74 71 18 bc 4d 68 17 bc 8f 43 46 bc 0a 2f 97 3b
       -0.009304393 -0.009241176 -0.012101068 0.004613762
000020 4e f9 c7 ba 0d 5b 0b bc cb 0a a2 3b 72 10 4c bc
       -0.0015256794 -0.008505595 0.0049451343 -0.012455093
000030 cb 84 9c bb 5f 67 70 3b fe 24 44 bc 68 f9 85 3b
       -0.0047765723 0.0036682708 -0.01197171 0.0040885694
000040 38 c0 ae 3b 50 90 93 bb 72 62 63 bc 66 2d b1 3b
       0.005332973 -0.0045032874 -0.013878452 0.0054070232
000050 47 92 c8 ba 32 bd 29 bc c7 ea ec bb 84 39 dd 38
       -0.0015302383 -0.010360049 -0.007230136 0.00010548814
000060 79 79 13 bc 5f f7 18 3b 11 39 1b bc 27 3c 85 ba
       -0.009001129 0.0023340804 -0.009474055 -0.0010165022
000070 fa 09 56 bc 76 9a 91 b8 91 f4 47 b7 36 7e 9e bb
       -0.013063902 -6.9429094e-05 -1.1918267e-05 -0.004836823
000080 fc 62 03 3b 57 83 8d 3b 15 3e 22 bc 0f c5 8f bb
       0.0020048013 0.0043186354 -0.009902497 -0.004387505
000090 d1 5b d9 bb ba c8 f3 3b ef 55 c4 3b 36 13 90 ba
       -0.00663326 0.0074397 0.0059916894 -0.0010992053
0000a0 a5 78 40 ba a2 45 cf 3a ad 80 10 bc f3 28 1c bc
       -0.0007342196 0.0015813599 -0.008819741 -0.009531247
0000b0 4a 44 24 bc b9 1b a6 3b 7f 44 e8 bb c1 62 3a bc
       -0.010026047 0.0050692228 -0.0070882435 -0.011376084
0000c0 63 d0 09 bc 9f b7 d6 3b 81 d7 7f 3f 65 b6 80 3f
       -0.0084115 0.006552651 0.9993821 1.0055662
0000d0 85 77 7d 3f 80 72 7f 3f 07 9a 7d 3f f4 81 7d 3f
       0.990105 0.9978409 0.9906315 0.9902642
0000e0 1f b4 7c 3f 73 94 80 3f 31 c3 7e 3f d0 c7 7d 3f
       0.9871234 1.0045303 0.9951659 0.99133015
0000f0 aa 7d 80 3f 88 a4 7c 3f 5f 79 7e 3f db 4f 80 3f
       1.003835 0.98688555 0.9940395 1.002437
000100 0e 13 7d 3f a7 68 80 3f 05 8b 80 3f 0b c7 7e 3f
       0.988572 1.0031937 1.0042425 0.99522465
000110 6d 6a 7c 3f 0f 8e 80 3f 25 9e 7f 3f 29 69 7d 3f
       0.9859989 1.0043353 0.99850684 0.98988587
000120 1d 31 7e 3f 69 b6 7f 3f 53 8b 7d 3f 8a 3b 80 3f
       0.9929369 0.9988771 0.99040717 1.001817
000130 5d 91 7d 3f a0 ad 7f 3f 09 bb 7c 3f 35 f0 7f 3f
       0.9904993 0.99874306 0.98722893 0.999759
000140 30 e9 7f 3f 50 9d 7e 3f 78 31 80 3f c7 7a 80 3f
       0.9996519 0.9945879 1.0015097 1.0037469
000150 0a 7d 7d 3f 1f 8e 7e 3f e1 37 7e 3f c9 c4 80 3f
       0.9901892 0.9943561 0.99304014 1.0060054
000160 0f a3 80 3f 26 b7 7f 3f 53 cb 7f 3f e9 21 80 3f
       1.0049762 0.9988884 0.99919623 1.0010349
000170 d8 71 7d 3f 5d 5e 7d 3f cd 7b 7d 3f fa 87 80 3f
       0.99001837 0.9897211 0.9901703 1.0041497
000180 fc 37 7e 3f f9 15 7d 3f c6 c4 7d 3f 41 b2 80 3f
       0.99304175 0.9886165 0.9912838 1.0054399
000190 51 49 8f bb 1c 2b 93 b9 15 14 10 bc 1c c4 a1 3b
       -0.0043727537 -0.00028070144 -0.00879385 0.004936708
0001a0 2d 07 49 3c fc 9f 89 bc 74 09 de bb d3 85 7a bb
       0.012269777 -0.01679992 -0.0067760292 -0.0038226738
0001b0 12 16 93 3c 32 23 50 bc a7 ce b4 b9 ca aa a4 bc
       0.01795486 -0.012703704 -0.00034486243 -0.02010097
0001c0 ec b9 5d bc b6 06 3f 39 61 06 49 bb 01 dc 02 3a
       -0.013533097 0.0001821768 -0.0030673968 0.00049918896
0001d0 08 a1 93 3a cc 80 21 ba 92 84 c6 ba a0 58 a7 ba
       0.0011263201 -0.0006160855 -0.001514571 -0.0012767501
0001e0 1c c9 a2 39 bc fa b5 3b ad 43 f0 ba 18 7f ed 3b
       0.00031048886 0.0055535715 -0.0018330716 0.007247817
0001f0 76 45 4f bc 23 64 0b bb 6c 29 2f 3c 5f a8 42 b9
       -0.012650838 -0.0021269403 0.010691028 -0.00018564005
000200 dd 70 ce bb df bf cb bb 50 af 18 bb c8 d3 34 bc
       -0.0063000754 -0.006217941 -0.0023297854 -0.011036821
000210 2c e1 74 3b 65 05 b7 ba bc 93 d8 bb 80 ba 50 bc
       0.0037365658 -0.00139634 -0.006609408 -0.012739778
000220 59 e6 66 3b fb cd 11 ba f1 94 db ba ae e3 0a bb
       0.0035232513 -0.00055620045 -0.0016752762 -0.0021192837
000230 4f 7a 8c bb ae 62 70 3b 5e de 8c 3c 1f 58 75 3c
       -0.0042870413 0.0036679911 0.017195877 0.014974623
000240 f2 8a 94 bc c5 be 16 39 48 5f 22 bc 67 85 ea 3b
       -0.01813266 0.00014376182 -0.009910412 0.007157016
000250 12 a0 87 3c 7c 5b 86 ba 89 85 b8 b9 27 32 d7 3b
       0.01655582 -0.0010250653 -0.00035194706 0.006567258
000260 56 e9 23 bc 88 08 91 ba c4 c5 18 bc 12 a7 14 bc
       -0.010004362 -0.0011065165 -0.009324495 -0.009073036
000270 de 9c 44 bc 5a 29 94 3b 2d 4a ba ba c9 20 0c bc
       -0.012000291 0.004521531 -0.001421278 -0.008552738
000280 05 8f a6 3b 21 f4 48 bc 73 b1 8a bb f1 84 4c 3b
       0.005082967 -0.012265236 -0.0042325794 0.003120717
000290 d5 7e 43 bc c4 ab 73 3b f5 31 af 3b 5f f1 92 bb
       -0.011932095 0.0037181238 0.0053465315 -0.00448434
0002a0 76 fe 63 bc 9e f1 b2 3b 8b 59 c3 ba de 8c 29 bc
       -0.013915649 0.005460932 -0.0014904005 -0.010348527
0002b0 85 0d ee bb 8d 4b 4a 39 dc 58 1a bc cd 14 13 3b
       -0.0072647952 0.00019292366 -0.0094206 0.0022442818
0002c0 cb c2 1b bc f4 4a 8f ba 3b d2 55 bc dc 72 f4 b8
       -0.0095068915 -0.0010932372 -0.013050611 -0.00011656221
0002d0 7f 93 11 b9 6e 57 87 bb 8c b2 13 3b 61 77 92 3b
       -0.00013883224 -0.0041302955 0.0022536842 0.0044697975
0002e0 53 f3 21 bc f9 e7 7f bb 09 d6 d9 bb 66 b5 ef 3b
       -0.009884673 -0.0039048179 -0.0066478294 0.0073153256
0002f0 3b a0 ba 3b 5b 3e a2 ba ed 9c 49 ba 1b be 0b 3b
       0.0056953705 -0.0012378203 -0.0007690925 0.0021323028
000300 24 e8 0a bc 40 74 1d bc eb 13 24 bc e6 bd 9a 3b
       -0.008478198 -0.009610236 -0.010014514 0.0047223447
000310 c8 c7 e6 bb d5 04 3b bc cb 5b 0d bc 18 2e d6 3b
       -0.0070428587 -0.011414726 -0.008627842 0.0065362565

arith.constant22 f4 [200, 50]
000000 dc 66 14 be 92 dc b3 3c a6 b3 a4 bc 92 d3 86 bd
       -0.14492363 0.021955762 -0.020105194 -0.065833226
000010 0d 62 a3 bc 8a c5 05 3e 0e d8 6a bd 31 f6 e2 bd
       -0.019944215 0.13063636 -0.057334952 -0.110821135
000020 d2 e7 8f bd 05 5b a7 bd 2f 13 e6 39 09 d1 f3 3c
       -0.07026638 -0.081716575 0.0004388331 0.029762762
000030 ed 45 db bd 82 d3 03 3d 5f de 21 bc 59 2a 3e bd
       -0.10706697 0.03218413 -0.009879678 -0.046427105
000040 88 b3 93 bd 7f 0a e1 3d ff cb 78 3d 34 ef 8f bd
       -0.07211977 0.1098833 0.06074142 -0.07028046
000050 70 03 72 3d 50 19 22 3e c3 56 5a 3d 3d 39 16 3c
       0.05908531 0.15829968 0.0533054 0.00916892
000060 b9 64 23 be a3 af c7 bd 45 98 34 bd af c5 d7 ba
       -0.15956391 -0.09750297 -0.044090528 -0.0016462113
000070 36 58 d7 3b 5d 65 fa bd 19 74 00 be 9a be 08 3e
       0.006571795 -0.12226365 -0.12544288 0.13353959
000080 ef 1e c8 bd b6 44 2c bc 09 41 94 bd 96 46 e8 3d
       -0.09771525 -0.010514429 -0.07238967 0.11341588
000090 df 88 c7 3d 81 c5 9a bd 58 40 8e 3d f2 41 54 bd
       0.09742903 -0.07557202 0.06945866 -0.051820703
0000a0 85 6e f0 bd 39 7c 42 3d 6f 2c 12 3d 0b 99 03 3e
       -0.1173983 0.04748175 0.035686906 0.1285135
0000b0 ef 28 03 be eb 7f e0 bd b1 90 85 bd bc 26 59 bd
       -0.12808584 -0.109618984 -0.06521738 -0.053015456
0000c0 ed f1 d0 bd 6a 8f 6a bd 18 dc ce 3b d2 d2 b0 bb
       -0.10202394 -0.057265677 0.0063128583 -0.0053962255
0000d0 7f 66 1a be 68 7f b7 bd 0c 20 97 bc 4a 81 a4 3c
       -0.15078162 -0.08959848 -0.018447898 0.020081181
0000e0 e8 05 04 bd 40 d9 96 3d 72 0c 47 3d 1b 2b eb 3d
       -0.032232195 0.07365656 0.048595853 0.11482831
0000f0 ec 5d f3 bd 4a 02 2c 3d 4e 5b da 3c c4 cc 87 3c
       -0.118831486 0.04199437 0.026654866 0.016577132
000100 15 6f 2a bd 11 d4 cc bc 6b 67 fc 3d 35 51 44 bd
       -0.041609842 -0.025003465 0.12324413 -0.047929008
000110 d8 6a 8e bc 03 6d aa 3d 93 9c 23 bd e6 21 f4 bd
       -0.017384931 0.083215736 -0.039944243 -0.11920528
000120 ab 6b 98 bd e4 78 11 3d 38 07 90 bd c1 28 19 3e
       -0.07442411 0.03551568 -0.07032627 0.14956953
000130 c0 a3 55 bd f8 8f e7 bd eb 0e a3 bd b1 80 ae bd
       -0.052158117 -0.11306757 -0.0796183 -0.0852064
000140 01 a2 09 3e 0b 9f fc 3d 47 83 0c 3d 94 47 2e bc
       0.13440706 0.123350225 0.034304883 -0.010637183
000150 dd e7 c5 3d 8f ed 04 be 96 fa 10 3e e6 84 e5 bc
       0.09663365 -0.12981246 0.14158091 -0.028017472
000160 d0 70 ae 3d 9d ac e8 bd a8 b0 fa 3d ad 4b a8 3d
       0.08517611 -0.11361048 0.12240726 0.08217559
000170 ca f9 3a 3a a5 af 98 3d 5b 5d 8f bd 73 1d f3 3d
       0.00071325584 0.074553765 -0.07000228 0.11870851
000180 f5 e8 21 bd f9 21 ae 3b a8 73 15 3e 35 9e 10 be
       -0.039528806 0.0053141084 0.145949 -0.14122851
000190 20 8c 11 be 9c 40 9f 3c 02 10 95 bd 8a 90 2b bc
       -0.1421361 0.019439988 -0.07278444 -0.0104714725
0001a0 8e db dc 3d 19 37 1a be bb 35 0a be 8a 39 2e bd
       0.10784064 -0.1506008 -0.13497059 -0.042535342
0001b0 d8 e5 82 3b 8f 14 38 3d 78 21 00 be 63 d9 13 be
       0.0039946847 0.04494148 -0.12512767 -0.14438395
0001c0 db 7f 10 be 88 bf 08 3e 80 09 74 3d 53 cc d4 3d
       -0.14111273 0.13354313 0.059579372 0.10390534
0001d0 dd e5 22 3c b7 4b 90 3b 4b 1f a9 3d 30 2f a1 bd
       0.009942499 0.004403557 0.08257922 -0.078703284
0001e0 a9 db c2 bd ba 00 fd bd b7 60 08 be 6a 53 ff 3c
       -0.09514553 -0.12353654 -0.13318144 0.031167705
0001f0 b2 26 c3 3d 42 2b ce bd 19 4c dd 3b 16 7a e8 3d
       0.09528865 -0.100668445 0.0067534563 0.11351411
000200 42 6f 04 be 08 62 1d 3e 8e d4 f7 3d 64 86 58 3d
       -0.12933066 0.15369427 0.121010885 0.05286254
000210 ee 82 45 bc e2 60 e8 bd b4 44 bf 3b e6 2b 77 bd
       -0.012055142 -0.11346604 0.0058370475 -0.0603446
000220 55 0d 81 bd 78 77 fe bd ff 26 0b 3e ee 8b 1f 3e
       -0.06301371 -0.124251306 0.13589095 0.15580723
000230 2a 63 8b 3d a3 d0 3e bd be 15 4c 3c 84 42 09 3e
       0.068060234 -0.04658569 0.012456356 0.1340428
000240 e7 90 ff bd 01 c3 8b bd d4 92 ea 3d 96 78 6d 3d
       -0.1247881 -0.068243034 0.114537865 0.057976328
000250 7c 7a 2b bd f4 f9 28 3d dd a9 be bd ec 29 ef 3d
       -0.041864857 0.041254 -0.093097426 0.11677918
000260 42 39 b1 3d f0 48 03 3e 04 0e d6 bd d0 54 35 bd
       0.08653499 0.12820792 -0.10451892 -0.044270337
000270 46 54 b5 bb 6c 2c 12 3e 7e 79 14 3d ab a0 05 3e
       -0.005533728 0.14274758 0.036248676 0.13049571
000280 9a dd d3 bd ee 44 7b 3d d5 ab cc bd 0a ed d5 3d
       -0.103450015 0.061345033 -0.09993712 0.10445602
000290 e1 26 05 3e 9a 31 be bd 34 82 e3 bd 05 e2 aa 3a
       0.13003112 -0.092868045 -0.11108819 0.001303733
0002a0 af 06 ba 3c 2c 78 f5 3d 33 ad 1f be da 0c e7 3d
       0.022708265 0.119858116 -0.15593414 0.11281748
0002b0 4b c8 88 bd 0d 3d 6e bd 16 11 a0 3d 63 83 04 be
       -0.06678828 -0.05816369 0.07815759 -0.12940745
0002c0 cd 63 90 bd 0a 88 b1 3d 22 94 2a 3a f1 87 a4 b7
       -0.070502855 0.086685255 0.0006507059 -1.9613626e-05
0002d0 0f ab 48 bd 3b 6d 28 be 77 99 cf bd ac f4 3a 3c
       -0.04899126 -0.16447918 -0.10136693 0.011410873
0002e0 46 c5 9b 3d 48 81 b1 3d f6 e6 2b 3d 0e a0 f9 bd
       0.07605986 0.086672366 0.04196831 -0.12188731
0002f0 14 90 03 be 13 a5 a1 bc 05 44 fc bd 34 8d 59 3d
       -0.1284793 -0.019732034 -0.12317661 0.053113177
000300 70 2d 1f 3e 3a 8c 3d 3d 0e 53 12 3d 8a 31 b9 bd
       0.15544677 0.04627631 0.03572374 -0.09042652
000310 61 ab 17 be c0 c7 05 be bc b2 61 3d 36 2e 03 bd
       -0.1481147 -0.1306448 0.055102095 -0.032026492
000320 0f 30 be bd f2 54 a8 bd 97 91 b9 bd b6 95 82 bd
       -0.0928651 -0.08219327 -0.09060972 -0.06376211
000330 80 52 bb bc 22 85 c8 bd 08 e3 a9 bd 88 68 42 bd
       -0.022866488 -0.09791018 -0.08295256 -0.04746297
000340 e2 1a 0c be 0b 03 cb 3b 7e fa 2b bc 22 77 bf 3d
       -0.1368213 0.006195431 -0.010496734 0.09348895
000350 b1 11 8e 3d a4 be 2f bd f2 15 d7 3d 77 41 8f 3d
       0.06936968 -0.04290642 0.105022326 0.06994908
000360 b0 b9 05 be 87 a6 b6 3d f3 ad 8a bd dd 2b 1d 3d
       -0.13059115 0.08918481 -0.067714594 0.03837191
000370 44 14 a9 3d 07 94 11 be 74 5f c3 bd f8 35 18 3e
       0.082558185 -0.14216624 -0.095396906 0.14864337
000380 6a 97 b5 bd f4 a3 09 be 6b 19 5b 3d ff 47 9e 3c
       -0.088667706 -0.1344145 0.053491037 0.01932144
000390 11 17 cd bd 01 f3 1b be d9 c5 fc 3d ae db c8 3d
       -0.10014165 -0.15229417 0.12342424 0.098075256
0003a0 7b 0c 11 3e 75 7b 06 bd 51 e2 4c bd c7 cf 02 3e
       0.14164917 -0.03283258 -0.05002052 0.12774573
0003b0 e0 1b b2 3d b2 bc d5 3d 72 e4 eb bd d9 0a 08 be
       0.08696723 0.104363814 -0.11518182 -0.13285388
0003c0 0b 01 ec 3d 77 52 1a be 36 cc b1 bd c3 3e 73 bd
       0.115236364 -0.1507052 -0.08681528 -0.059386026
0003d0 25 1e f0 bc a6 9a b0 3d 04 14 87 bd b3 67 90 bc
       -0.029311249 0.08623247 -0.065956146 -0.017627573
0003e0 84 b7 10 be c3 ea 04 be b4 a7 1e 3e 3f 90 ee bd
       -0.14132506 -0.1298018 0.15493661 -0.116486065
0003f0 68 52 de 3d 4b 1d a6 bd 07 33 80 bc 63 39 80 bc
       0.108555615 -0.08111056 -0.015649332 -0.015652364

arith.constant23 f4 [200, 50]
000000 b5 22 3f bd b4 f4 a5 3d 8c 91 e7 bd 31 7a 15 bd
       -0.04666396 0.08103314 -0.11307058 -0.036493484
000010 88 54 42 bd 7d e2 af bd ef 0b 9e 3d 45 74 6b bd
       -0.047443897 -0.08588121 0.0771712 -0.05748393
000020 05 74 74 bd d2 de e8 bc e3 36 2f bd a2 03 94 bd
       -0.059680957 -0.028426562 -0.042776953 -0.072272554
000030 f2 ad a8 bd c2 d9 b2 3d 61 ba d9 3d f9 7b 32 bd
       -0.082363024 0.0873294 0.10631252 -0.04357526
000040 bd 8a c0 bd 7f a8 9c bc 88 a7 56 bd 15 b0 c7 bd
       -0.09401462 -0.019123314 -0.052405864 -0.09750382
000050 51 ff 74 3d ea 65 cf 3c 3a 35 af 3d aa 89 9c bd
       0.0598138 0.025317151 0.08555074 -0.07643445
000060 71 d8 67 3d fa 2f 05 be 9b 43 2c 3d c9 04 6c 3d
       0.0566029 -0.13006583 0.04205666 0.05762175
000070 c2 5f 1c bb 1c 16 3e bd 58 d3 3c 3d b3 2e c9 3d
       -0.0023860787 -0.046407804 0.04609999 0.0982336
000080 10 dd 26 bd 67 b0 7d bc ae c0 99 3c 7a c8 5d 3c
       -0.040738165 -0.015483952 0.018768635 0.013536567
000090 74 70 c3 3b 0c 3e cf bd 27 f9 dd 3c 9c 19 92 3d
       0.005964333 -0.101192564 0.027096344 0.07133791
0000a0 bb 14 88 bd 1a 21 18 3e 40 da 03 3d 6e 2d 1a 3e
       -0.06644579 0.14856377 0.03219056 0.15056393
0000b0 0b 38 03 3d 21 dc 18 3d 17 2c 00 bd b0 fd 62 3d
       0.03203587 0.037319306 -0.031292047 0.055417717
0000c0 97 2c 85 bd d0 6f 72 3d 83 5a 66 bd 39 a5 0d 3d
       -0.065026455 0.059188664 -0.056238662 0.034581397
0000d0 ab eb 7b bd 17 90 31 be 07 b4 74 3d fb 5b 0c bd
       -0.061504047 -0.17340122 0.059742 -0.034267407
0000e0 10 69 09 bc 89 15 b7 3d ff 7d 56 3d 0f 8b f6 3c
       -0.008386865 0.089396544 0.052366253 0.030095605
0000f0 ec bf 15 3e 8c 42 9c bd cc be 88 bd 52 38 52 bd
       0.14623994 -0.0762988 -0.066770166 -0.051323242
000100 c3 e8 19 bc 0b bc 0b 3e c4 ec 3c bc 42 b7 ee bb
       -0.009393874 0.13645951 -0.011531059 -0.0072850296
000110 59 8a be bd 41 71 82 3d ff 9a f6 bc 02 ae 67 3c
       -0.093037315 0.06369258 -0.030103205 0.014140608
000120 00 f6 7c 3d 41 ee 21 3c 68 39 1a be 74 22 f8 3c
       0.06175804 0.009883464 -0.15060961 0.030289866
000130 75 79 ba 3b 6a ff 9c bd 79 11 63 3d 22 c8 f4 bc
       0.0056907483 -0.07665904 0.055436585 -0.029880587
000140 d2 be 7e bd 53 22 d0 3d 3d b2 9b bd ad 2e 06 3e
       -0.0621937 0.10162797 -0.07602356 0.13103743
000150 d1 9f 9f bc 06 90 2a bc d6 22 89 bd b0 7e 17 bd
       -0.019485386 -0.010410314 -0.066960976 -0.036986053
000160 0e 7b 86 3d dd ae 55 bc 7d 2b 62 bd 08 6a 78 3d
       0.065664396 -0.013042179 -0.055217255 0.060647994
000170 8d ab c8 3c df 0a 8d 3c fd d5 96 bb bd 38 9b 3d
       0.024495864 0.017217098 -0.004603146 0.07579181
000180 d9 e9 4f bd d4 da 2f bd 69 b7 07 bd dc e3 b7 bc
       -0.050760124 -0.0429333 -0.033133898 -0.022447519
000190 94 9a 95 3d 14 04 80 3d 1e 0e 8f 3d dc c6 9b 3d
       0.07304874 0.06250778 0.069851145 0.07606289
0001a0 73 66 93 3d 02 5e 29 bb 5e a1 81 3d 35 ff 91 bc
       0.07197275 -0.0025843387 0.063296065 -0.017821888
0001b0 19 b3 05 3d cd 80 6b bd 0d 76 f6 bc c7 34 a6 3b
       0.032641504 -0.05749588 -0.030085588 0.0050722095
0001c0 e9 2c 29 bd 53 75 b8 bd 71 44 48 bc 77 83 8a 3d
       -0.041302595 -0.09006753 -0.012223349 0.06763356
0001d0 71 62 a5 bd e7 93 ba bd 50 f8 b2 bd c6 cf 63 bd
       -0.08075417 -0.091102414 -0.08738768 -0.05561807
0001e0 96 2c f5 3c 4a 45 b9 3b ab 87 83 3d 3d 33 48 bd
       0.029928487 0.005654012 0.06422361 -0.04887699
0001f0 c2 38 73 bd 29 a5 83 bb d0 47 01 ba e3 18 3d 3e
       -0.0593803 -0.0040174914 -0.00049316604 0.18466525
000200 09 99 97 bc 44 65 aa bd ba 20 fc 3c 26 77 7e bd
       -0.01850559 -0.08320096 0.030777324 -0.062125348
000210 96 62 ff bc 3f 08 5d 3d 58 d7 de 3d 47 ad d5 bd
       -0.03117494 0.053962942 0.10880917 -0.10433441
000220 e0 f4 a4 3c 47 20 b7 bc b0 57 13 be 1d ed 42 bd
       0.020136297 -0.022354258 -0.14388919 -0.04758941
000230 82 ab 12 bd ca 4e 5a 3d f3 3a 2d 3c 81 1f 4a 3d
       -0.035808094 0.053297795 0.010573137 0.04934645
000240 36 96 77 3d f3 3a 9b bc 3d 09 05 3e 98 d3 96 3c
       0.060445987 -0.018949008 0.12991805 0.018411443
000250 87 94 a6 bb c2 01 b2 bd 3e 59 27 3e 10 17 0d be
       -0.005083624 -0.086917415 0.16342637 -0.13778329
000260 06 1a 26 3d d5 88 12 bd 3b 57 09 3d 50 37 1b 3c
       0.04055216 -0.035775024 0.033530455 0.009473637
000270 b5 f2 99 bd 65 0a ae bd de 31 04 3d a6 78 22 3b
       -0.07516996 -0.08498076 0.03227412 0.002479115
000280 bf 37 a5 bc 45 87 2d bd 0d b3 d6 bd bb a9 29 bd
       -0.020168183 -0.04236533 -0.1048337 -0.041421633
000290 df 86 84 3d ea e4 3d bd d6 71 98 bd 3d d0 59 be
       0.06471037 -0.046360888 -0.074435875 -0.21270843
0002a0 ed ba e9 3c dc e2 b7 3d 47 b0 6f 3c 71 ae 39 3d
       0.028531516 0.08978817 0.01462943 0.045332376
0002b0 6c 0d 49 3c 17 40 85 3d 21 91 11 bd a6 8a 62 bd
       0.012271266 0.06506365 -0.035538796 -0.055308007
0002c0 58 91 38 bc cb 52 fc 3d bd 61 d1 3d ba 87 08 be
       -0.011265121 0.12320479 0.1022372 -0.13333026
0002d0 f9 45 cc bd 58 64 bb 3d a0 84 ef bd f6 4f 65 3d
       -0.09974284 0.091499984 -0.11695218 0.05598446
0002e0 d0 f6 25 be 1b 40 70 3d 4b 68 b2 3c 31 84 9e 3d
       -0.16207433 0.058654886 0.021778246 0.07740057
0002f0 d7 72 ca bd f5 9b 55 bd df 8c a4 3d 0f 39 ff 3c
       -0.09885185 -0.052150685 0.080346815 0.031155137
000300 bc 7b 92 bb 5d 15 5d 3d 4f cd a8 3d 92 b9 03 3d
       -0.0044703167 0.05397545 0.082422845 0.032159396
000310 11 42 2d 3d 37 33 a7 3d 5e e1 a9 3d 7b bd 84 bd
       0.042299334 0.08164065 0.082949385 -0.06481453
000320 dd 2d a3 3c e0 b7 8b bc 83 30 7b 3d d2 09 e0 3d
       0.01991933 -0.017055452 0.06132556 0.10939373
000330 3c 27 e1 bc 5a 73 9f 3d 3e 93 74 3c d4 bf 8a 3d
       -0.027484529 0.077856734 0.014927683 0.067748696
000340 7e d3 c5 bd 90 d9 d2 bd 89 a1 54 bd 46 6c e7 3c
       -0.096594796 -0.10295403 -0.051911864 0.028249871
000350 b5 60 02 3d 39 61 1e 3b d1 b3 ae bd 04 2a 1e bd
       0.03183051 0.0024166836 -0.08530391 -0.038614288
000360 d5 79 a2 3d b4 fe 0a 3d e2 f2 26 3e d8 f7 9c 3d
       0.07933394 0.03393431 0.1630359 0.0766446
000370 18 c4 7e 3d cc 38 a2 bc 5c aa 2b 3d 55 51 e9 3c
       0.06219873 -0.019802473 0.041910514 0.028481165
000380 d0 a8 0f 3c cd 8b ea 3d 72 26 cf bd 07 82 b1 3d
       0.008768275 0.11452446 -0.10114755 0.08667379
000390 b8 b3 89 bd 86 5c 10 3d 5c 1c ef bd 5e a5 5a bd
       -0.06723732 0.035244487 -0.11675331 -0.053380363
0003a0 4e 1a 9e 3c d7 1c 9f 3d 98 13 2f 3d e5 f9 4a 3d
       0.019299652 0.07769173 0.042743295 0.049554724
0003b0 65 2e f5 3c 53 95 c6 bd 36 f7 b8 3c 2b 3a dd bc
       0.02992935 -0.0969645 0.022578817 -0.027005276
0003c0 a4 0d 90 bd 0d f2 ee 3c b3 85 65 bd 7d df a0 bd
       -0.07033852 0.029168153 -0.05603571 -0.07855127
0003d0 be 5c b8 bd d6 b4 1e bd 24 3f 83 bd 5f 60 05 be
       -0.09002064 -0.038746677 -0.064085275 -0.13025044
0003e0 74 27 97 3d 3e 14 d9 3d 65 0f a3 3d d6 bf 1b 3d
       0.07380572 0.10599564 0.07961921 0.038024746
0003f0 18 fb c2 bd 79 65 e6 3c 92 2d 8c bd a2 5d c2 3d
       -0.095205486 0.028124558 -0.06844629 0.09490515

sequential_3_1/lstm_7_1/while/lstm_cell_1/add_1/ReadVariableOp f4 [200]
000000 8d 95 22 bc 97 cf 13 bc 10 3f 08 bc df 7e 1e bc
       -0.009923351 -0.009021661 -0.0083158165 -0.009673803
000010 d2 55 95 3b b1 11 82 3b 62 9c 95 bb cd 72 22 bc
       0.0045573497 0.003969394 -0.0045657614 -0.009915066
000020 52 65 45 bc fe 59 9d 3b 1a 4d 2b bc cf 9b d6 bb
       -0.012048082 0.0048019877 -0.010455394 -0.0065493356
000030 cd 93 b2 b7 bf ad c4 3b ae c5 7e 3c a0 61 0b 3b
       -2.1288079e-05 0.0060021575 0.01555006 0.0021267906
000040 1d 80 0f bc a3 a3 82 3b ee fa 37 bc a7 4e 2f bc
       -0.008758572 0.003986792 -0.01122926 -0.0106999045
000050 51 31 22 3a 7a b0 0c 3c 6a c4 e4 3b 80 75 b7 3b
       0.0006187158 0.008586997 0.006981422 0.005598724
000060 8e 3d 66 bb 1d 3f 86 bb 84 94 bc 3b f4 60 15 bc
       -0.0035131904 -0.004096879 0.005755009 -0.009117354
000070 45 42 d7 3b 11 60 3d bc 84 32 55 bc 4f 6c 2c bc
       0.0065691792 -0.011558549 -0.013012532 -0.01052387
000080 e6 cb 03 bc b9 d2 3e bb cd 63 32 bc 17 17 b1 ba
       -0.008044219 -0.00291173 -0.010888052 -0.001351091
000090 6f ae 0d bc 08 16 cf 3b a0 45 34 bc 6c ef 7f 39
       -0.008647545 0.006319765 -0.011002928 0.00024407887
0000a0 c6 dc 25 bc 4f 8b 67 3a 56 b9 51 bc 80 3f b6 39
       -0.010123437 0.0008832709 -0.012800535 0.00034761056
0000b0 b2 14 3f 3b 3a 24 1b bc 61 9c 31 bc 0f ab 3f 3b
       0.0029156622 -0.009469086 -0.010840506 0.0029246246
0000c0 b7 17 00 3a 1b 04 34 bc 74 82 7d 3f ff bc 7d 3f
       0.0004886346 -0.010987307 0.9902718 0.9911651
0000d0 37 bb 7d 3f 46 88 7d 3f 17 75 80 3f b4 66 80 3f
       0.9911379 0.9903606 1.0035733 1.0031343
0000e0 30 ca 7e 3f 9e 6b 7d 3f 06 09 7d 3f d7 72 80 3f
       0.99527264 0.98992336 0.98841894 1.0035046
0000f0 c3 43 7d 3f 9b 4f 7e 3f e6 ea 7f 3f cc 9e 80 3f
       0.9893152 0.9934022 0.999678 1.0048461
000100 c3 b8 81 3f 9a 28 80 3f cb a1 7d 3f 4f 64 80 3f
       1.013451 1.0012391 0.99075 1.0030612
000110 4a 06 7d 3f 08 53 7d 3f e3 03 80 3f 71 e7 80 3f
       0.9883772 0.9895482 1.0001186 1.007063
000120 a7 c4 80 3f a5 a4 80 3f d2 b4 7e 3f 0e d7 7e 3f
       1.0060014 1.0050246 0.9949466 0.995469
000130 9a a3 80 3f 69 9f 7d 3f 34 c2 80 3f ec 47 7d 3f
       1.0049927 0.99071366 1.0059266 0.9893787
000140 a8 a9 7c 3f fd 47 7d 3f 18 8a 7d 3f 1a 33 7f 3f
       0.98696375 0.9893797 0.9903884 0.9968735
000150 a8 47 7d 3f 34 e3 7e 3f bc 91 7d 3f 0a a7 80 3f
       0.98937464 0.99565434 0.990505 1.0050976
000160 d4 3c 7d 3f 96 d1 7f 3f 9c 52 7d 3f 83 0f 80 3f
       0.9892094 0.9992918 0.98954177 1.0004734
000170 0a d3 7c 3f 95 f9 7f 3f 80 4e 80 3f da 84 7d 3f
       0.9875952 0.99990207 1.0023956 0.9903084
000180 b7 2c 7d 3f 9f 41 80 3f 01 ff 7f 3f 64 1c 7d 3f
       0.98896354 1.0020026 0.9999848 0.98871446
000190 93 12 11 3c 52 8f ab 3b 79 b5 e8 3b 40 00 d8 bb
       0.008854526 0.005235591 0.0071017114 -0.0065918267
0001a0 13 c8 70 bb 9d 02 5d 3b 9a e4 4b 3b db 2b 24 bc
       -0.0036740347 0.0033723481 0.00311116 -0.010020222
0001b0 80 64 f3 3b 09 b9 7c bb 06 3a 11 3c 69 44 d2 3b
       0.007427752 -0.0038562438 0.0088639315 0.0064168465
0001c0 ac 4d f3 39 f3 da 35 3b 64 0e 88 bb e9 bc 31 3b
       0.00046406442 0.0027748912 -0.004152106 0.0027120656
0001d0 47 ae 20 3c ee 67 91 3b 5f a3 d9 bb df 78 d6 bb
       0.009807176 0.004437438 -0.00664179 -0.0065451707
0001e0 fa 69 31 3b 06 dc 75 bb 9f 8f 04 bb de 0f ad 3b
       0.0027071224 -0.0037515177 -0.0020227206 0.0052814325
0001f0 2d f0 1a 3c 7d d9 5a bc 39 d0 36 bb ec 74 07 bc
       0.009456676 -0.013357517 -0.0027895106 -0.008267622
000200 fe a5 3a 3b 83 27 ac 3b 9d 69 b9 bb bd 98 7d 3c
       0.0028480287 0.0052537336 -0.005658342 0.01547831
000210 16 d6 b0 3b dc 78 41 3b 0b 80 02 bc 7f 5e 79 3b
       0.005396615 0.00295215 -0.007965098 0.0038050709
000220 9d 37 d7 bb e8 de 4b 3b c5 b6 02 3c b7 d8 e6 ba
       -0.006567909 0.0031108204 0.007978146 -0.0017612193
000230 d8 1a 01 bc ba 61 29 bb 69 82 24 3c 54 0f 32 3b
       -0.007879935 -0.0025845603 0.010040858 0.002716978
000240 ec ba 8f bb 72 a1 68 3c fb 38 d9 bb 84 5a 50 3b
       -0.0043862965 0.014198648 -0.006629107 0.0031792233
000250 c4 4d 68 3b f1 b7 e3 3b f5 8e 21 bc 96 75 13 bc
       0.0035446743 0.0069494178 -0.009860744 -0.009000203
000260 4c 97 07 bc b5 13 1e bc 42 8b 89 3b 0c 2e 66 3b
       -0.008275818 -0.009648253 0.004197509 0.003512266
000270 79 3c 97 bb 8d 55 22 bc 2d 45 43 bc 06 a3 98 3b
       -0.004615363 -0.009908092 -0.011918348 0.004658106
000280 93 43 2b bc f2 ef d9 bb 0a 43 df b9 85 a9 bf 3b
       -0.010453123 -0.006650918 -0.00042583823 0.0058490657
000290 3f 20 83 3c 22 63 11 3b 2d 5a 0f bc d5 f0 6f 3b
       0.016006587 0.0022184332 -0.008749527 0.0036612053
0002a0 cf c8 37 bc 62 8e 2e bc 0b d1 9a 39 53 01 11 3c
       -0.01121731 -0.010654064 0.00029528918 0.008850413
0002b0 63 27 e5 3b fa 9f b8 3b 40 75 62 bb be 92 8a bb
       0.0069932207 0.005634305 -0.003455475 -0.004228919
0002c0 6f aa c3 3b 01 e2 15 bc e5 c5 c8 3b 27 12 3f bc
       0.005971245 -0.009148122 0.0061271065 -0.011662043
0002d0 bc 12 53 bc 85 93 2f bc 0b 30 02 bc 4c 6f 3d bb
       -0.012882885 -0.010716324 -0.007946025 -0.002890545
0002e0 2a 8c 32 bc 2b 95 86 ba bb 05 09 bc 12 f8 c1 3b
       -0.0108976755 -0.0010267844 -0.008363183 0.005919465
0002f0 3d 15 34 bc ab 10 54 39 fb 79 26 bc e5 14 6c 3a
       -0.010991392 0.00020224105 -0.010160918 0.0009005799
000300 08 12 4f bc 76 7e e2 39 80 a2 24 3b dd 04 1c bc
       -0.012638576 0.000432003 0.0025121272 -0.009522644
000310 72 f0 2e bc 5f d7 3d 3b a0 41 77 39 9b b1 34 bc
       -0.010677444 0.0028967483 0.00023580203 -0.011028673
