models/BTC_lstm_model.tflite (tflite, 145900 bytes, 8 tensors)

arith.constant4 f4 [1, 25]
-0.021332439 0.46843296 0.11192302 -0.312693 0.2315078 -0.35517347 -0.2864152 0.20160879
0.41010353 -0.13446447 -0.35542095 -0.10189049 0.30608717 0.15774271 0.34627846 -0.09263143
-0.456709 0.011013611 -0.3958153 -0.06315988 -0.23254895 0.2185906 0.06387305 0.19169918
-0.07254549
00000000: 5ec1 aebc 72d6 ef3e e537 e53d 4c19 a0be
00000010: 6110 6d3e 4cd9 b5be 03a5 92be 8972 4e3e
00000020: 17f9 d13e 0eb1 09be bcf9 b5be f6ab d0bd
00000030: 75b7 9c3e 4e87 213e 694b b13e 8cb5 bdbd
00000040: c3d5 e9be 6f72 343c 4ea8 cabe f859 81bd
00000050: 5021 6ebe 37d6 5f3e e0cf 823d ca4c 443e
00000060: bb92 94bd

arith.constant5 f4 [25, 50]
0.12341996 -0.23400216 0.20156692 0.054860014 0.14635445 0.20188965 -0.20586891 0.08566651
-0.25826696 -0.11263289 0.27600014 0.21639591 0.049262177 0.16985954 0.17277311 0.2488187
-0.15833841 0.09860019 -0.23471616 0.09688483 -0.13713425 -0.2533074 -0.24576044 -0.165303
-0.11212261 -0.2694288 -0.10034366 0.13218357 0.16441658 -0.24946493 -0.1782351 -0.07229882
-0.20781954 0.27658594 0.18438183 0.09559116 -0.008397376 0.010663273 0.08163031 0.027246624
-0.09073215 -0.21099886 0.0363882 0.072565384 0.17129296 -0.15963057 0.065255255 0.050643023
-0.14961833 0.14755291 -0.08950427 0.22168571 -0.067213 -0.14712413 0.16633907 0.11875938
-0.05659481 -0.091298476 -0.162553 -0.1807158 0.26035464 -0.24368934 -0.16364773 0.06245252
0.10436355 -0.12711741 0.052695755 -0.13258265 -0.043927126 -0.12378913 0.2728444 0.20169002
-0.12338847 0.21526386 -0.1783454 0.17644872 -0.0265624 -0.058087643 0.03702763 0.056344856
0.008708158 0.011647209 0.06489407 0.04968253 0.17227553 -0.012576832 0.14277762 -0.13913247
-0.21516202 0.069012925 -0.019145902 -0.19008888 -0.13983178 0.08244073 0.16601236 -0.24359457
-0.0543831 0.24262705 0.04109292 -0.16480623 0.0037041164 -0.17594215 -0.22649918 -0.09073557
-0.19475242 -0.095555834 -0.050561137 0.03149455 0.0012374582 0.065035746 0.24454525 -0.15848204
-0.018738626 -0.24417748 0.1510185 0.14249013 0.17373693 0.07929099 -0.044949174 0.10593569
0.043269444 -0.10626202 0.07250658 -0.053769946 -0.049907874 -0.20817906 0.27868912 -0.11419325
-0.22921401 0.10162423 0.037758194 0.23845829 -0.053516906 -0.014334175 -0.053387057 -0.15359305
0.09072133 0.0855861 -0.2721181 -0.25963768 0.06015122 -0.0053469674 0.040949166 0.25311774
-0.16775484 0.1374257 0.1121052 0.14938061 -0.24966145 0.07423242 -0.25755093 -0.1349911
0.17417534 0.120321386 0.22800916 0.28040588 0.16417408 -0.21119365 -0.19428362 0.1974263
-0.14326893 0.08651796 -0.12347038 -0.22224739 -0.13853154 0.28609827 -0.27540034 -0.28581613
-0.1834435 -0.07129541 0.14280052 -0.1571178 -0.21527648 0.17474513 -0.11527284 0.1265218
0.22025657 -0.2728215 -0.050622437 0.011518929 0.1607144 -0.13543506 0.10639663 0.14512892
-0.2671941 -0.008018716 0.16363701 0.25924674 0.08786879 0.21455634 -0.13648781 -0.20642875
0.24044096 -0.22919719 -0.25115165 0.29598132 0.15294658 0.103624195 0.009267904 0.010679199
-0.14812396 0.12334482 -0.23767151 -0.27612132 -0.035337824 -0.09908539 -0.15050495 0.261692
-0.07434322 -0.25054103 -0.04650265 -0.16128556 -0.15213794 -0.18630901 0.062403668 -0.080603234
-0.16633244 0.20237425 -0.15658842 -0.11514609 0.10268006 -0.055834368 0.19449852 -0.046027817
0.28225458 -0.24897254 -0.14729021 -0.19247301 0.2938087 0.008945494 0.13064474 -0.18593557
-0.16981837 0.20191246 0.019029263 0.07388764 0.1570696 -0.15221883 -0.038213074 0.19526312
0.22633773 -0.10872579 0.04797111 0.0080124205 0.029564064 0.030215414 0.19259985 0.21370454
-0.21625711 -0.21483351 -0.25096112 0.22585034 0.20658995 -0.013894946 0.16099969 0.1770924
00000000: 9bc3 fc3d 439e 6fbe 8f67 4e3e e5b4 603d
00000010: f1dd 153e 29bc 4e3e 4dcf 52be ec71 af3d
00000020: 913b 84be 13ac e6bd e44f 8d3e e496 5d3e
00000030: 23c7 493d a9ef 2d3e 6feb 303e 54ca 7e3e
00000040: 7723 22be e5ee c93d 6f59 70be 8e6b c63d
00000050: ec6c 0cbe 82b1 81be a0a8 7bbe 3145 29be
00000060: 8aa0 e5bd 92f2 89be fa80 cdbd 215b 073e
00000070: d25c 283e bc73 7fbe 4383 36be 6711 94bd
00000080: a5ce 54be ac9c 8d3e 97ce 3c3e 4cc5 c33d
00000090: 2695 09bc 02b5 2e3c cb2d a73d 5034 df3c
000000a0: c7d1 b9bd 1610 58be cb0b 153d 299d 943d
000000b0: 6c67 2f3e 3276 23be 8ca4 853d 0f6f 4f3d
000000c0: 8c35 19be 1c18 173e 044e b7bd 9401 633e
000000d0: f8a6 89bd b5a7 16be ca54 2a3e 1e38 f33d
000000e0: f6cf 67bd b2fa babd 4b74 26be 900d 39be
000000f0: 344d 853e b389 79be 4593 27be 37ce 7f3d
00000100: 8fbc d53d 112b 02be 81d7 573d bfc3 07be
00000110: eeec 33bd 2885 fdbd 43b2 8b3e d487 4e3e
00000120: 18b3 fcbd 216e 5c3e 2da0 36be f9ae 343e
00000130: 6499 d9bc 4fed 6dbd 49aa 173d ddc9 663d
00000140: a9ac 0e3c efd3 3e3c 2fe7 843d e97f 4b3d
00000150: ff68 303e 0f0f 4ebc 4c34 123e be78 0ebe
00000160: 6f53 5cbe a656 8d3d ded7 9cbc a9a6 42be
00000170: 1030 0fbe afd6 a83d 25ff 293e db70 79be
00000180: d0c0 5ebd 3a73 783e 0d51 283d f7c2 28be
00000190: c3c0 723b 2e2a 34be 67ef 67be 92d3 b9bd
000001a0: 2e6d 47be c7b2 c3bd 3219 4fbd 6e00 013d
000001b0: 3532 a23a 7631 853d 126a 7a3e 1e49 22be
000001c0: bf81 99bc a909 7abe 98a4 1a3e efe8 113e
000001d0: 18e8 313e 5163 a23d a01c 38bd d0f4 d83d
000001e0: 4d3b 313d e79f d9bd 547e 943d e03d 5cbd
000001f0: 336c 4cbd e42c 55be 57b0 8e3e 27de e9bd
00000200: 14b7 6abe 5d20 d03d 56a8 1a3d 692e 743e
00000210: 8b34 5bbd e3d9 6abc 63ac 5abd 7f47 1dbe
00000220: 1bcc b93d c447 af3d 1053 8bbe 3bef 84be
00000230: 2061 763d 9d35 afbb 50ba 273d a698 813e
00000240: edc7 2bbe 53b9 0c3e 6997 e53d 3bf7 183e
00000250: 40a7 7fbe 2b07 983d b7dd 83be 1b3b 0abe
00000260: 055b 323e 0f6b f63d 3c7b 693e 5c91 8f3e
00000270: 401d 283e 2643 58be 49f2 46be 1f2a 4a3e
00000280: 17b5 12be 5430 b13d 0ade fcbd d294 63be
00000290: 36db 0dbe 797b 923e 4601 8dbe 7e56 92be
000002a0: 9dd8 3bbe 5403 92bd 4d3a 123e 7de3 20be
000002b0: 7071 5cbe 63f0 323e 2b14 ecbd ee8e 013e
000002c0: f08a 613e 42af 8bbe 7959 4fbd e4b9 3c3c
000002d0: 5192 243e 7daf 0abe 7ae6 d93d ad9c 143e
000002e0: aacd 88be ef60 03bc 7690 273e fdbb 843e
000002f0: 8df4 b33d a8b4 5b3e 76c3 0bbe 0f62 53be
00000300: 2836 763e abb2 6abe f396 80be dd8a 973e
00000310: 079e 1c3e ec38 d43d 68d8 173c cff7 2e3c
00000320: cfad 17be 369c fc3d 2960 73be c65f 8dbe
00000330: 65be 10bd 48ed cabd f81d 1abe 7efc 853e
00000340: 4241 98bd ea46 80be 9079 3ebd 0b28 25be
00000350: 0cca 1bbe cac7 3ebe fd9a 7f3d 4f13 a5bd
00000360: 0d53 2abe 323b 4f3e b758 20be b7d1 ebbd
00000370: ec49 d23d 94b2 64bd 9f2a 473e aa87 3cbd
00000380: ac83 903e a8f2 7ebe 3fd3 16be a517 45be
00000390: 186e 963e 1f90 123c bcc7 053e e565 3ebe
000003a0: dee4 2dbe 24c2 4e3e 42e3 9b3c 6752 973d
000003b0: dad6 203e 41df 1bbe 5085 1cbd 0ef3 473e
000003c0: 14c5 673e a1ab debd 5b7d 443d 8746 033c
000003d0: 5630 f23c 5186 f73c e538 453e 5dd5 5a3e
000003e0: 8172 5dbe 51fd 5bbe fa7d 80be 5045 673e
000003f0: 518c 533e a1a7 63bc 1add 243e b657 353e

arith.constant17 f4 [200, 1]
0.01351986 -0.003631206 -0.13627496 0.16214146 0.023083089 -0.025612747 -0.050019898 0.10358042
0.02420371 -0.04097659 0.080414705 0.07727372 -0.007481302 -0.051441252 0.059081733 -0.01959041
0.18551543 -0.09247425 -0.08131856 0.09082595 0.054139778 0.056779247 0.1585465 -0.08521227
-0.008720795 -0.04856874 0.084971584 -0.079080515 -0.0751971 -0.0077963383 -0.036700472 0.031793576
0.09170601 -0.15085529 0.04093668 0.038745712 -0.14364423 -0.16846678 0.09581772 0.13993303
0.09250908 -0.14329003 0.082834125 0.02997267 0.13965721 0.0119272405 0.057982035 -0.13664293
0.09127087 0.03899377 -0.00047156832 0.105111085 -0.12879576 0.0051073255 0.089569665 0.0059828116
-0.09762133 -0.07987519 0.11433421 0.04080075 -0.10936981 0.09221344 0.15488045 0.0022952945
0.0990039 -0.089584485 0.013650114 0.036970414 -0.09919545 0.025473595 0.00025658493 0.12166517
0.100679345 0.012288531 0.11054738 -0.060419608 0.080856085 0.0684179 0.11071989 -0.12392892
-0.019342305 -0.005976308 0.05388695 0.022382664 0.117205486 0.13690785 -0.13529353 -0.14240134
-0.09929776 0.029176585 0.069318295 -0.07060806 0.09577861 -0.07482176 -0.1284133 0.011543223
-0.087749474 0.060451485 0.025670245 0.018815637 0.072867505 0.10290449 -0.1453466 -0.09153509
0.02150959 0.12673025 0.04019009 0.122682534 0.04366688 0.017772205 -0.117055066 -0.014636748
-0.13289541 -0.08280795 -0.07273051 0.06486265 -0.074967265 -0.10717222 -0.100766145 -0.0855562
-0.0027822524 0.077260315 0.07593129 -0.06524453 0.034474563 -0.118945085 0.031002998 -0.14048679
-0.04232082 0.04227459 0.072646156 -0.07921235 -0.101937175 -0.020697266 -0.08568073 0.11523474
-0.17270686 -0.10430576 0.109669596 -0.034310397 0.06903119 0.07353121 0.067732885 0.14497481
-0.122150615 0.16903877 -0.1420315 -0.0066404105 0.09150599 0.12837389 -0.0011611832 -0.115605
-0.14454743 0.12372002 0.16964804 -0.15271421 0.07456066 0.13936251 -0.032391183 0.006946151
0.07376153 -0.074372515 -0.12631443 -0.10101527 0.073598616 -0.10325908 0.08822592 -0.14100102
0.0006488688 -0.1350337 -0.17976111 -0.036972 0.039848395 0.061417095 0.045469303 -0.027810602
-0.122639716 0.11368643 0.024251888 0.12512301 0.009056888 0.12641764 0.07339998 0.122087084
-0.13780403 0.0073005226 0.039560586 0.13919477 0.07278672 -0.084316894 0.16650936 -0.13138957
0.17706396 -0.12392436 0.13096339 0.12875448 0.11159916 -0.1889916 0.09548994 0.017206715
00000000: 6782 5d3c 87f9 6dbb aa8b 0bbe 6908 263e
00000010: bf18 bd3c d3d1 d1bc aae1 4cbd f921 d43d
00000020: dc46 c63c 12d7 27bd 77b0 a43d af41 9e3d
00000030: b625 f5bb 10b4 52bd b0ff 713d 117c a0bc
00000040: c2f7 3d3e 2463 bdbd 588a a6bd f502 ba3d
00000050: acc1 5d3d 5b91 683d 045a 223e c583 aebd
00000060: aae1 0ebc 04f0 46bd 9505 ae3d f7f4 a1bd
00000070: f000 9abd 6d78 ffbb 3c53 16bd fb39 023d
00000080: 5cd0 bb3d cf79 1abe 38ad 273d d3b3 1e3d
00000090: 7917 13be 8e82 2cbe 153c c43d 9b4a 0f3e
000000a0: 6775 bd3d 9fba 12be f0a4 a93d 3f89 f53c
000000b0: 4d02 0f3e 796a 433c 927e 6d3d 20ec 0bbe
000000c0: 39ec ba3d eeb7 1f3d d43c f7b9 7b44 d73d
000000d0: 09e3 03be 5a5b a73b 4d70 b73d 760b c43b
000000e0: b1ed c7bd 9b95 a3bd 0e28 ea3d b01e 273d
000000f0: 47fd dfbd 66da bc3d fb98 1e3e a76c 163b
00000100: 8fc2 ca3d 1278 b7bd baa4 5f3c 4a6e 173d
00000110: fc26 cbbd 00ae d03c 3f86 8639 972b f93d
00000120: f930 ce3d d655 493c aa66 e23d 8d7a 77bd
00000130: e097 a53d af1e 8c3d 1cc1 e23d 72ce fdbd
00000140: c173 9ebc e8d4 c3bb 90b8 5c3d d95b b73c
00000150: 6e09 f03d 9231 0c3e 638a 0abe a8d1 11be
00000160: a05c cbbd bc03 ef3c c0f6 8d3d f59a 90bd
00000170: 9327 c43d 273c 99bd c77e 03be c91f 3d3c
00000180: ffb5 b3bd fa9b 773d 684a d23c 4023 9a3c
00000190: 8f3b 953d 97bf d23d bdd5 14be c076 bbbd
000001a0: e134 b03c 93c5 013e 5d9e 243d fb40 fb3d
000001b0: 0bdc 323d 0497 913c 91ba efbd f8ce 6fbc
000001c0: bc15 08be 3797 a9bd bcf3 94bd b6d6 843d
000001d0: 7088 99bd 1c7d dbbd 7b5e cebd 1738 afbd
000001e0: 7356 36bb a83a 9e3d dd81 9b3d ed9e 85bd
000001f0: 3335 0d3d 7b99 f3bd 00fa fd3c c5db 0fbe
00000200: 9958 2dbd 1f28 2d3d 82c7 943d 163a a2bd
00000210: 70c4 d0bd 508d a9bc 6179 afbd 3100 ec3d
00000220: 11da 30be 429e d5bd 749a e03d 0f89 0cbd
00000230: 3960 8d3d 8897 963d 8ab7 8a3d 4774 143e
00000240: 1a2a fabd 8018 2d3e b570 11be cd97 d9bb
00000250: 7e67 bb3d 7274 033e d832 98ba 50c2 ecbd
00000260: 3e04 14be ec60 fd3d 37b8 2d3e 1d61 1cbe
00000270: 42b3 983d 0cb5 0e3e 9eac 04bd 8a9c e33b
00000280: 4910 973d 9e50 98bd 9258 01be 18e1 cebd
00000290: dfba 963d 7f79 d3bd cbaf b43d 9262 10be
000002a0: d918 2a3a 4646 0abe 4c13 38be f46f 17bd
000002b0: 1238 233d 7e90 7b3d 053e 3a3d 0fd3 e3bc
000002c0: 882a fbbd 6ed4 e83d e5ab c63c 3f20 003e
000002d0: 5763 143c a073 013e bb52 963d cb08 fa3d
000002e0: 801c 0dbe 3939 ef3b 480a 223d 1389 0e3e
000002f0: 3411 953d 56ae acbd 6e81 2a3e fd8a 06be
00000300: 4150 353e 0ecc fdbd 441b 063e 37d8 033e
00000310: 1a8e e43d 0487 41be 3b90 c33d 19f5 8c3c

arith.constant18 f4 [200, 50]
0.0037453922 0.01934559 0.0017120189 0.011081609 -0.06787152 0.10145818 0.038894787 0.10558306
0.016609991 -0.07241488 0.061099112 -0.056622945 -0.107732266 0.06440078 0.026433224 -0.10103698
0.042515833 0.012199436 -0.03562767 -0.094260275 0.065982506 0.013532932 0.026197309 -0.09249386
0.095869675 0.09907931 -0.1695147 0.08507222 0.11185133 0.011613787 -0.017783783 0.00015303951
-0.103182 0.017809218 -0.01171203 0.02481004 0.0040850937 0.03552869 0.02370885 0.04328119
0.029369773 -0.05517683 -0.04217327 0.08436566 -0.040560137 0.003518627 -0.04130693 -0.062642366
0.021172006 -0.06193818 0.05234729 0.0014445041 -0.04518685 -0.025544774 0.024951832 -0.12742274
-0.14279549 -0.023909524 0.02724715 -0.050244723 -0.040650416 0.03772997 -0.09527288 0.0397056
-0.104329176 -0.09135551 0.015774203 -0.050909694 -0.050399203 -0.1571976 0.02433417 0.07524049
0.077239886 0.02099329 0.074107476 -0.018414935 -0.14138393 -0.035022434 -0.035384655 0.05148613
0.10359822 -0.0689994 -0.10428228 -0.09044015 0.0022771992 0.16480918 0.025914093 -0.031236732
-0.040305108 -0.042182636 0.0347679 -0.021971723 0.08477408 0.04706745 0.0072913417 0.004865558
0.10294683 -0.0784133 0.04459934 0.056507863 -0.07226347 0.0024880522 0.102656744 -0.09901236
0.06430525 0.02027906 -0.08228913 0.06861393 -0.011478067 -0.07139819 -0.07565575 0.06938626
0.10141131 -0.031196607 -0.067080975 0.063110456 -0.15048385 -0.06145947 -0.038548484 -0.043968525
-0.062955976 0.02669964 -0.12213354 -0.018238556 0.012317224 0.035029337 -0.0007491212 -0.027287718
-0.048420377 -0.009479565 0.025859136 0.09979822 -0.07591626 -0.03232086 -0.046304807 0.14270487
0.10069607 0.0048185466 -0.049711354 -0.06340135 0.039721187 -0.07025349 -0.036952835 0.03218682
-0.009758774 0.063756265 -0.07448028 -0.06116036 -0.045938805 -0.13082509 -0.008726985 0.07229824
0.0371179 -0.042753037 0.05541133 0.035317667 0.03763591 -0.006211591 -0.060321264 -0.051427737
0.05922707 -0.003689669 -0.06409431 0.10109493 -0.029930338 -0.019131618 -0.03778463 0.015668642
0.055651132 -0.03138729 0.16643097 -0.044543706 -0.039679874 -0.07115889 0.024738977 -0.048695978
0.026941411 0.06899336 0.065416805 0.006762372 -0.037822504 0.008599282 0.012799985 -0.040700752
0.12645769 0.080454804 -0.036205914 0.086585745 0.045447834 -0.1042746 -0.060657047 -0.033494778
-0.026666665 -0.0585026 -0.008534266 0.030431494 -0.019564463 -0.037369758 0.082241416 -0.13583872
-0.091079764 -0.058658365 -0.002370517 -0.0021861657 0.016541148 0.006149896 -0.045918945 -0.02075048
-0.05357227 -0.10423714 -0.0035191218 0.05219951 0.02378964 -0.053675916 0.0645113 -0.08536127
0.02365505 0.059876624 -0.031497266 -0.08022927 0.00030114825 -0.018573927 0.048959985 -0.0524651
-0.038514573 -0.114422485 0.06836975 0.030327383 -0.05344157 0.011082669 -0.011680196 -0.00612533
0.19210827 0.0025411232 0.08486713 -0.23327784 0.04628725 -0.016566785 -0.021069963 0.054880533
-0.11067179 -0.010181003 0.046738066 -0.039081216 -0.06589871 -0.092357874 0.056144837 0.063182056
0.022552904 -0.013055995 -0.08234486 -0.11140281 -0.019479038 -0.070502706 0.10632606 -0.07838009
00000000: 4175 753b a57a 9e3c d265 e03a a38f 353c
00000010: 3900 8bbd 4ec9 cf3d 2450 1f3d ee3b d83d
00000020: ad11 883c 414e 94bd 1043 7a3d 76ed 67bd
00000030: bca2 dcbd 8ee4 833d 7d8a d83c 7aec cebd
00000040: 1525 2e3d 25e0 473c 52ee 11bd 880b c1bd
00000050: d621 873d 3bb9 5d3c bd9b d63c 6c6d bdbd
00000060: 5257 c43d 18ea ca3d 4395 2dbe 583a ae3d
00000070: 4f12 e53d c147 3e3c 4caf 91bc 3b79 2039
00000080: 1651 d3bd a3e4 913c d0e3 3fbc 6d3e cb3c
00000090: 40dc 853b 8886 113d 1039 c23c 9e47 313d
000000a0: e198 f03c 1a01 62bd e1bd 2cbd e7c7 ac3d
000000b0: 6322 26bd c498 663b 7531 29bd a44a 80bd
000000c0: ea70 ad3c e4b2 7dbd 1d6a 563d 8455 bd3a
000000d0: d915 39bd 4643 d1bc c967 cc3c 1b7b 02be
000000e0: fb38 12be e8dd c3bc 6a35 df3c 69cd 4dbd
000000f0: 0d81 26bd be8a 1a3d 6d1e c3bd 57a2 223d
00000100: 89aa d5bd 9918 bbbd e738 813c af86 50bd
00000110: 656f 4ebd 68f8 20be 7458 c73c b017 9a3d
00000120: f22f 9e3d 1ffa ab3c a9c5 973d ebda 96bc
00000130: f3c6 10be af73 0fbd 80ef 10bd 1fe3 523d
00000140: 4e2b d43d 8f4f 8dbd f391 d5bd af38 b9bd
00000150: 103d 153b bdc3 283e cb49 d43c 2de4 ffbc
00000160: f816 25bd b3c7 2cbd c968 0e3d 0bfe b3bc
00000170: 089e ad3d ccc9 403d 35ec ee3b 426f 9f3b
00000180: cad5 d23d 2797 a0bd ccad 363d ca74 673d
00000190: dffe 93bd 970e 233b b33d d23d fec6 cabd
000001a0: 79b2 833d 4520 a63c 3487 a8bd 7685 8c3d
000001b0: 810e 3cbc 3739 92bd 67f1 9abd 621a 8e3d
000001c0: bcb0 cf3d 0790 ffbc c061 89bd 0e40 813d
000001d0: 7018 1abe edbc 7bbd 04e5 1dbd 5718 34bd
000001e0: 10ef 80bd 34b9 da3c 2621 fabd 0669 95bc
000001f0: 2fce 493c ec7a 0f3d ac60 44ba 7e8a dfbc
00000200: 7254 46bd 2d50 1bbc 8ad6 d33c 0263 cc3d
00000210: fc79 9bbd e162 04bd 1caa 3dbd 3a21 123e
00000220: be39 ce3d e6e4 9d3b 229e 4bbd 91d8 81bd
00000230: afb2 223d 10e1 8fbd db5b 17bd 54d6 033d
00000240: 44e3 1fbc a592 823d 1e89 98bd 4983 7abd
00000250: 542a 3cbd 03f7 05be a1fb 0ebc 1a11 943d
00000260: f008 183d cf1d 2fbd fef6 623d 42a9 103d
00000270: 1d28 1a3d 9a8a cbbb 6e13 77bd e4a5 52bd
00000280: 1698 723d 60ce 71bb e143 83bd dc0a cf3d
00000290: 7830 f5bc e9b9 9cbc 0ec4 1abd 865b 803c
000002a0: 71f2 633d f68f 00bd e16c 2a3e 7673 36bd
000002b0: 5d87 22bd c1bb 91bd 65a9 ca3c 6f75 47bd
000002c0: 3cb4 dc3c 644c 8d3d 3ff9 853d e396 dd3b
000002d0: c5eb 1abd 01e4 0c3c 07b7 513c d5b5 26bd
000002e0: 207e 013e 7dc5 a43d a74c 14bd de53 b13d
000002f0: 8227 3a3d ec8d d5bd 8673 78bd d231 09bd
00000300: 0d74 dabc 6ca0 6fbd 4ed3 0bbc 784b f93c
00000310: a745 a0bc 0811 19bd 306e a83d 4e19 0bbe
00000320: 0788 babd c143 70bd ad5a 1bbb c645 0fbb
00000330: 4d81 873c 1185 c93b 8115 3cbd e9fc a9bc
00000340: 996e 5bbd 487a d5bd 11a1 66bb 27cf 553d
00000350: 7ee2 c23c 47db 5bbd 801e 843d e4d1 aebd
00000360: 3cc8 c13c 3141 753d 4703 01bd 3e4f a4bd
00000370: 6fe3 9d39 5928 98bc 448a 483d a5e5 56bd
00000380: 75c1 1dbd 5656 eabd 7105 8c3d 2271 f83c
00000390: 8ce5 5abd 1594 353c 4b5e 3fbc feb6 c8bb
000003a0: 08b8 443e f988 263b d1ce ad3d 63e0 6ebe
000003b0: b397 3d3d 11b7 87bc ea9a acbc 69ca 603d
000003c0: e4a7 e2bd 39ce 26bc 6a70 3f3d a013 20bd
000003d0: e7f5 86bd 2026 bdbd 21f8 653d 9865 813d
000003e0: dec0 b83c d0e8 55bc 6ca4 a8bd 2827 e4bd
000003f0: 8192 9fbc b963 90bd 7ac1 d93d be85 a0bd

sequential_1_1/lstm_2_1/while/lstm_cell_1/add_1/ReadVariableOp f4 [200]
0.00648586 0.010597549 -0.0037944068 -0.009328522 0.0010117961 0.006427591 -0.009078885 0.0075154966
0.018785626 0.0058542616 -0.0034513674 -0.016703164 0.00441481 -0.0045584994 0.0055576395 -0.0133439535
0.011061133 -0.006616554 0.0067085754 -0.001377009 -0.012837257 -0.0077450587 0.008975745 0.011294863
-0.005887206 0.010139812 0.0015352464 -0.010354819 -0.005632143 0.013518771 -0.0080339415 -0.0007289642
-0.009100761 0.004308225 0.004162056 -0.0116066495 0.012654622 -0.01236264 0.008459492 0.0073441165
-0.006707648 0.00838232 0.0031215772 0.018295366 0.01275717 0.015080098 0.010453631 -0.015715342
-0.0018245678 0.014983704 1.0044281 1.0070381 0.9923427 0.9893455 0.99722046 1.0049704
0.98885894 1.0053043 1.0116779 1.004327 0.99346125 0.9832562 1.0020483 0.99272156
1.0044653 0.9872947 1.0084538 0.99130225 1.0025965 0.9955446 0.9869905 0.99026024
1.006527 1.00683 0.9912168 1.0012407 0.9997887 0.98915726 0.9918066 1.0098628
0.99106646 0.9941248 0.98959875 1.0026069 1.0030631 0.9883429 1.0089198 0.987809
1.0063828 1.0044365 0.9911645 1.0056003 1.0013716 1.0112591 1.0094912 1.0118517
1.0093296 0.98435116 0.99487525 1.0005522 -0.000893051 0.00056151254 0.017853778 0.014768513
0.00038975646 0.0044274735 0.008295523 0.0018743264 0.008853008 0.0025643103 0.015670557 0.0053814445
0.004442906 0.010435595 -0.0014167019 -0.009795684 -0.00432954 0.01229082 0.0037520076 0.014555279
-0.0083328765 -0.016610213 0.0022358503 -0.0014317895 -0.01491753 0.016115 -0.01028343 0.008064142
-0.0041266917 0.0011347618 -0.014206822 0.012938522 0.010471939 -0.0050250413 -0.00051677396 -0.0121795675
0.000809557 0.008394553 0.00031362055 0.0008956823 -0.015561208 -0.0006151123 -0.0035872883 -0.0038467587
-0.00086777983 0.0047896607 -0.0104501145 -0.010496622 -0.014033367 -0.02420981 0.0065490967 0.01091647
-0.0036971422 -0.009331415 0.0005135357 0.006606489 -0.009271432 0.007457859 0.019098418 0.005701424
-0.003412196 -0.016614355 0.0048135393 -0.004616397 0.005635556 -0.013383265 0.011194539 -0.006649566
0.0065565538 -0.0015670446 -0.01278334 -0.007769496 0.009190285 0.010885124 -0.0059389374 0.010122643
0.0006306389 -0.0103529915 -0.005827561 0.013365053 -0.008031053 -0.0006323594 -0.009109461 0.003702853
0.0044649667 -0.011585904 0.012415719 -0.01235766 0.008545728 0.007645956 -0.006798119 0.00832777
0.00280084 0.01946588 0.01268216 0.015126728 0.010392132 -0.015840244 -0.0018498248 0.014966823
00000000: 5687 d43b 58a1 2d3c 95ab 78bb a8d6 18bc
00000010: 3e9e 843a 8b9e d23b 9bbf 14bc 8e44 f63b
00000020: 50e4 993c 1bd5 bf3b 5630 62bb 13d5 88bc
00000030: 1caa 903b 775f 95bb dc1c b63b 99a0 5abc
00000040: c139 353c aecf d8bb 9cd3 db3b c17c b4ba
00000050: 5c53 52bc 43ca fdbb 010f 133c 170e 393c
00000060: 77e9 c0bb 7421 263c 523a c93a 42a7 29bc
00000070: d78d b8bb d67d 5d3c cba0 03bc f617 3fba
00000080: 5c1b 15bc 032c 8d3b db61 883b d129 3ebc
00000090: 5555 4f3c ac8c 4abc ae99 0a3c eaa6 f03b
000000a0: d4cb dbbb 0056 093c 6093 4c3b 2ae0 953c
000000b0: 7303 513c 8412 773c b545 2b3c 76bd 80bc
000000c0: 5626 efba 367e 753c 1a91 803f a0e6 803f
000000d0: 2c0a 7e3f bf45 7d3f d749 7f3f dfa2 803f
000000e0: dc25 7d3f d0ad 803f a97e 813f ca8d 803f
000000f0: 7a53 7e3f aeb6 7b3f 1e43 803f 0023 7e3f
00000100: 5292 803f 58bf 7c3f 0415 813f fcc5 7d3f
00000110: 1555 803f 03dc 7e3f 69ab 7c3f b281 7d3f
00000120: e0d5 803f cedf 803f 62c0 7d3f a828 803f
00000130: 27f2 7f3f 6939 7d3f 0ae7 7d3f 2f43 813f
00000140: 88b6 7d3f f77e 7e3f 5856 7d3f 6c55 803f
00000150: 5f64 803f 0a04 7d3f 4924 813f 0de1 7c3f
00000160: 27d1 803f 6091 803f f5bc 7d3f 83b7 803f
00000170: f22c 803f f070 813f 0237 813f 5b84 813f
00000180: b631 813f 70fe 7b3f 25b0 7e3f 1812 803f
00000190: a31b 6aba 7832 133a 1642 923c a2f7 713c
000001a0: 3a58 cc39 5714 913b f2e9 073c f5ab f53a
000001b0: 350c 113c fd0d 283b 8a5f 803c d456 b03b
000001c0: cc95 913b 0ffa 2a3c a1b0 b9ba 147e 20bc
000001d0: d0de 8dbb 6f5f 493c 3ee4 753b 4479 6e3c
000001e0: 9e86 08bc 2412 88bc 5887 123b e2aa bbba
000001f0: a868 74bc 9b03 843c d57b 28bc 771f 043c
00000200: 3339 87bb 4abc 943a bbc3 68bc 18fc 533c
00000210: 7f92 2b3c 1aa9 a4bb 1d78 07ba cf8c 47bc
00000220: 7338 543a 4f89 093c 706d a439 39cc 6a3a
00000230: 70f4 7ebc 7d3f 21ba b618 6bbb e719 7cbb
00000240: b87b 63ba 96f2 9c3b f536 2bbc 06fa 2bbc
00000250: 35ec 65bc a753 c6bc ce99 d63b feda 323c
00000260: c14b 72bb cbe2 18bc cc9e 063a 3f7b d83b
00000270: 34e7 17bc 0e61 f43b 4974 9c3c 03d3 ba3b
00000280: 269f 5fbb d41a 88bc e5ba 9d3b 2545 97bb
00000290: 78aa b83b 7b45 5bbc 4d69 373c 9ae4 d9bb
000002a0: 5cd8 d63b 4b65 cdba 3771 51bc 4297 febb
000002b0: d992 163c 8557 323c 6b9b c2bb 71d9 253c
000002c0: 7651 253a 989f 29bc 20f5 bebb 18f9 5a3c
000002d0: ad94 03bc ecc4 25ba d93f 15bc 91ab 723b
000002e0: db4e 923b ced2 3dbc 4d6b 4b3c c877 4abc
000002f0: 6203 0c3c ed8a fa3b c1c2 debb 3371 083c
00000300: 4c8e 373b e976 9f3c d6c8 4f3c 19d6 773c
00000310: c343 2a3c 66c3 81bc d275 f2ba 6837 753c

arith.constant22 f4 [200, 50]
-0.14850469 -0.07635666 0.13655593 0.011316125 -0.1090213 0.003813675 -0.14807087 -0.07954167
-0.07294152 -0.0050199875 0.10365997 -0.016049251 0.1576208 0.07537696 -0.06912178 -0.15799412
0.052216314 -0.07296724 0.1626807 -0.09869309 -0.12166121 -0.14045161 0.08896582 0.13028726
-0.06790431 0.13133588 0.030562557 0.11995668 -0.07804849 0.10753848 -0.0063717407 0.02962927
0.09107941 0.062374342 -0.119847186 -0.0447846 0.11603654 -0.10974788 -0.036003646 0.11355464
-0.03938884 -0.08872819 0.09523381 -0.08268407 0.13030252 -0.07608233 0.12267888 -0.030286288
-0.052992467 0.0094660465 -0.06756391 0.045670494 -0.0022185366 -0.13450901 -0.0653465 0.109918274
-0.066654235 0.13201462 0.0026993158 0.09377736 -0.035300326 0.045875594 -0.04464911 0.11946024
-0.11561061 -0.1385392 0.12490998 0.09299894 -0.06429376 -0.048517033 -0.082798794 -0.021866484
0.11294423 0.11323713 -0.09230159 -0.12834707 -0.049113806 0.08770813 -0.13473839 0.10735899
-0.043185018 0.032265913 -0.09224772 -0.09232805 -0.08763642 0.044263203 0.06719737 0.002334779
-0.02083361 -0.060406685 -0.058471605 0.117670015 0.122509524 0.08053539 0.023461744 0.04442946
0.02286573 0.11087798 -0.1022832 0.15205042 0.060475405 -0.07661441 0.03160264 -0.14037168
0.08220285 0.10525929 -0.08739372 0.086885504 0.054644927 0.14966625 -0.14435503 -0.12030049
0.043759335 -0.026177377 -0.015730597 0.06978026 0.14670952 -0.10694566 0.10064608 -0.07211606
-0.0007229054 0.033380654 0.0358787 0.08287507 -0.056346904 -0.04757591 -0.12259697 -0.12211445
-0.10465048 0.1478768 0.024952596 0.056618948 0.00032283668 -0.07288559 0.02571389 -0.12414902
-0.027392872 -0.0054861326 0.06327686 -0.04369345 0.14984837 -0.029196976 -0.1138937 -0.0009947324
-0.092839785 0.10001638 -0.059203036 0.018004958 -0.08325259 0.13391352 0.03414906 -0.13897331
-0.07150531 -0.031000333 0.007951684 0.0706969 0.12141579 -0.10008761 0.064704746 -0.1552229
0.00010894802 -0.078101486 0.15242594 -0.0064315437 0.019263975 0.03251361 -0.1252583 0.03600747
0.133019 -0.14589211 -0.05293152 0.0034354033 -0.044379067 -0.050263636 -0.00511392 -0.06951334
-0.09089096 0.090058215 -0.15541504 -0.11622937 -0.15884767 -0.052147962 -0.11224173 0.027199589
0.13488343 -0.07797238 -0.06787716 -0.12808369 -0.16415675 0.0036393697 -0.026638385 -0.031168103
0.020942932 -0.13512711 -0.042100646 -0.14519757 0.013957755 -0.092126444 -0.12591246 0.12689608
-0.05421931 -0.015310627 -0.05823817 0.15532312 0.0061587035 -0.016675036 -0.09493642 -0.03198377
0.12426963 -0.028476588 0.07052173 -0.011002959 -0.030064663 0.11200974 0.14727126 0.024811676
0.05893732 -0.04825495 -0.09538838 -0.08236852 -0.09079224 -0.16142924 -0.028377699 0.03073231
-0.029602936 -0.050551683 0.021169113 -0.09541033 0.10534572 0.108404756 0.1274295 0.011023309
-0.13646504 0.110951275 -0.13182609 0.056278676 0.15662287 0.055427354 -0.10099712 -0.12518151
0.047264792 0.13389765 -0.065785706 -0.048695367 -0.03385847 -0.12893371 -0.03787678 0.07857307
-0.079062864 0.1087378 0.1361103 0.12468913 -0.09722976 -0.0022809042 0.049592823 0.044990327
00000000: 9d11 18be e160 9cbd 51d5 0b3e 4567 393c
00000010: 8f46 dfbd d9ee 793b e49f 17be bee6 a2bd
00000020: 5d62 95bd b57e a4bb ae4b d43d b879 83bc
00000030: 5967 213e 3c5f 9a3d b88f 8dbd 36c9 21be
00000040: c6e0 553d d96f 95bd c595 263e 9a1f cabd
00000050: 8329 f9bd 8cd2 0fbe b633 b63d 066a 053e
00000060: 6a11 8bbd ea7c 063e 545e fa3c d9ab f53d
00000070: e3d7 9fbd 223d dc3d 09ca d0bb 15b9 f23c
00000080: d787 ba3d 3d7c 7f3d 7172 f5bd 0f70 37bd
00000090: 91a4 ed3d 7fc3 e0bd 8f78 13bd 568f e83d
000000a0: 3156 21bd 20b7 b5bd f209 c33d 4456 a9bd
000000b0: 066e 053e 0dd1 9bbd 113f fb3d f31a f8bc
000000c0: a10e 59bd 7a17 1b3c f25e 8abd fc10 3b3d
000000d0: de64 11bb bbbc 09be 63d4 85bd d51c e13d
000000e0: 0482 88bd d72e 073e 01e7 303b 580e c03d
000000f0: 1397 10bd 0ce8 3b3d fce1 36bd 92a7 f43d
00000100: 41c5 ecbd 38dd 0dbe ced0 ff3d 3a76 be3d
00000110: 72ac 83bd ccb9 46bd 6a92 a9bd 5721 b3bc
00000120: 4e4f e73d dee8 e73d 9e08 bdbd 6a6d 03be
00000130: 8f2b 49bd 52a0 b33d dcf8 09be 08df db3d
00000140: c6e2 30bd 4329 043d 5fec bcbd 7d16 bdbd
00000150: b97a b3bd 554d 353d c69e 893d 1703 193b
00000160: 3fab aabc 006d 77bd ec7f 6fbd fafc f03d
00000170: 46e6 fa3d bdef a43d d832 c03c aafb 353d
00000180: e950 bb3c ff13 e33d db79 d1bd 1bb3 1b3e
00000190: 0fb5 773d 04e8 9cbd c571 013d 98bd 0fbe
000001a0: f859 a83d 2f92 d73d 7bfb b2bd 07f1 b13d
000001b0: 5cd3 5f3d 1c42 193e ced1 13be 1a60 f6bd
000001c0: fd3c 333d f071 d6bc 74dd 80bc f4e8 8e3d
000001d0: 053b 163e 5406 dbbd 881f ce3d 96b1 93bd
000001e0: 5c81 3dba 27ba 083d 8bf5 123d 68ba a93d
000001f0: 03cc 66bd f5de 42bd 1f14 fbbd 2417 fabd
00000200: fe52 d6bd 046d 173e 6369 cc3c 45e9 673d
00000210: 6842 a939 0a45 95bd f0a5 d23c d741 febd
00000220: 0467 e0bc 04c5 b3bb 4c97 813d e7f7 32bd
00000230: da71 193e 7f2e efbc 1a41 e9bd ae61 82ba
00000240: c922 bebd 63d5 cc3d e27e 72bd 227f 933c
00000250: 5580 aabd a020 093e e2df 0b3d 054f 0ebe
00000260: 6071 92bd 69f4 fdbc c847 023c 89c9 903d
00000270: d7a8 f83d bcfa ccbd ec83 843d c0f2 1ebe
00000280: 067b e438 acf3 9fbd 8c15 1c3e b3bf d2bb
00000290: 7ccf 9d3c fe2c 053d b643 00be 927c 133d
000002a0: 2236 083e be64 15be b9ce 58bd 8124 613b
000002b0: d3c6 35bd 3ee1 4dbd ac92 a7bb 035d 8ebd
000002c0: 0a25 babd 7170 b83d 1f25 1fbe aa09 eebd
000002d0: f7a8 22be 1a99 55bd fede e5bd acd1 de3c
000002e0: e21e 0a3e fcaf 9fbd 2e03 8bbd 5f28 03be
000002f0: b518 28be 7e82 6e3b be38 dabc 4054 ffbc
00000300: 8390 ab3c c35e 0abe ba71 2cbd acae 14be
00000310: 11af 643c caac bcbd 32ef 00be 0cf1 013e
00000320: 1115 5ebd 6dd9 7abc 268b 6ebd 060d 1f3e
00000330: f3ce c93b 169a 88bc 076e c2bd 6a01 03bd
00000340: 1381 fe3d bc47 e9bc b26d 903d c145 34bc
00000350: 2b4a f6bc 5d65 e53d 47ce 163e db41 cb3c
00000360: 4268 713d fca6 45bd fc5a c3bd d4b0 a8bd
00000370: 48f1 b9bd b54d 25be 5978 e8bc 53c2 fb3c
00000380: db81 f2bc 480f 4fbd d96a ad3c 7e66 c3bd
00000390: 7fbf d73d 5003 de3d e17c 023e 1c9b 343c
000003a0: 7ebd 0bbe 6c3a e33d 6bfd 06be 7884 663d
000003b0: bf61 203e cb07 633d 94d7 cebd 952f 00be
000003c0: ba98 413d 771c 093e a8ba 86bd cb74 47bd
000003d0: 2eaf 0abd 3307 04be af24 1bbd ebea a03d
000003e0: b6eb a1bd ecb1 de3d 8060 0b3e 045d ff3d
000003f0: 6520 c7bd 397b 15bb d821 4b3d c747 383d

arith.constant23 f4 [200, 50]
0.06387146 0.11345263 0.0044037816 0.049070198 -0.22318378 0.038573556 -0.051395997 0.14631477
-0.06183715 -0.013466521 0.085934944 0.024942707 0.024744019 0.051514957 -0.020234669 0.031517882
0.11837116 0.051562212 -0.18996593 -0.07831158 -0.0528802 0.06837962 -0.05071485 -0.03045096
0.09498743 -0.04774247 0.024612691 0.03881562 -0.07244108 -0.12884063 -0.10007216 0.0021908246
0.11794121 -0.054089542 0.12258294 0.006320321 -0.033389583 0.116131894 -0.017651947 0.044015586
0.04431063 -0.038911566 -0.007285157 -0.024644751 0.04959583 0.0111618275 -0.030019406 -0.033513557
0.06683398 0.06645084 -0.002629679 -0.06456481 0.010293203 0.10144704 -0.061700933 -0.02592568
0.022158753 -0.08395811 0.040491283 0.05567231 -0.20584188 0.09313285 0.11146878 -0.01602695
0.09356068 0.09971739 -0.042964116 -0.14254859 -0.011046354 -0.11651801 0.011746037 -0.05362061
-0.059588693 -0.024638426 0.056345817 0.046433847 -1.9762e-05 0.07805861 -0.06705484 -0.057790786
0.06160564 0.08438941 -0.053116996 -0.008268121 -0.10617207 -0.05193161 0.08261226 0.053961545
0.06719249 0.07745678 -0.00422897 -0.04053547 -0.087447226 0.14858027 0.007148052 0.091447145
0.019524692 -0.013670809 -0.064421125 -0.024896733 0.056290496 0.038314693 -0.08709498 -0.16106506
-0.07294785 -0.052603047 -0.045448285 0.029678797 0.032912076 0.034097824 -0.04615415 0.05352588
0.102079526 -0.047006514 -0.042561274 -0.008856683 -0.109237134 0.02912083 0.06139372 -0.1058366
0.004345858 0.07692556 0.009306776 0.06676996 0.08563571 0.0042156777 0.085935645 0.07178251
0.01369348 -0.066193305 0.15004969 -0.019016698 0.04300734 -7.210024e-05 0.027362764 -0.023306442
-0.011974822 -0.08317754 0.07255873 0.12837264 -0.07009184 -0.08335925 -0.014940246 -0.026702777
0.01219718 0.119948216 0.06433841 0.076669216 0.01320478 0.06955532 0.014039049 -0.06656054
-0.07592154 -0.0049030017 0.015566971 0.048644163 0.04519719 0.13402943 -0.019371545 -0.1662942
-0.1317898 0.052024074 -0.012735334 -0.06353017 -0.0003168296 0.12927718 0.008528557 -0.0065435544
-0.08103681 -0.07411801 -0.047667492 -0.084353074 0.107389405 0.11362821 0.1237861 -0.0025091334
0.06981177 0.07819163 0.024400277 -0.012123204 -0.12271903 0.07276364 0.073368445 -0.036223494
0.04726915 -0.1497398 0.04769467 0.12009463 0.057491865 -0.033089176 0.014898588 -0.006727487
0.05422095 0.057408027 -0.05347306 0.10102111 0.037125006 0.006151555 0.026118366 -0.09427689
0.06129386 0.14989679 -0.055094767 -0.07802834 0.009603114 0.02089443 -0.026617566 0.014806591
0.0121973045 -0.017069338 0.077850744 -0.022921983 -0.028330795 0.035516817 0.006176608 0.088149294
0.096995406 -0.116826676 -0.04605607 0.08773627 -0.12742293 -0.051608022 0.04434126 0.026443612
-0.05976483 -0.024520654 -0.01424297 0.026985915 0.1730009 0.10634589 -0.017007817 0.017036676
-0.111305594 -0.008450401 0.01123635 0.08326113 -0.006478903 0.057163253 0.0084099695 0.11175401
-0.040389184 -0.05147748 0.066241175 0.040106054 -0.08604017 -0.03955483 0.012932097 0.024682024
0.14374378 -0.054232113 -0.051662296 -0.012613435 0.14190623 -0.06284578 0.01932122 -0.035147045
00000000: 0acf 823d da59 e83d 994d 903b d5fd 483d
00000010: 4a8a 64be 4eff 1d3d 9c84 52bd 8ad3 153e
00000020: f448 7dbd afa2 5cbc a9fe af3d a654 cc3c
00000030: f8b3 ca3c 5901 533d 2dc3 a5bc e518 013d
00000040: 946c f23d e632 533d 6e86 42be d261 a0bd
00000050: e998 58bd 9d0a 8c3d 60ba 4fbd 4b74 f9bc
00000060: c588 c23d 9c8d 43bd 8ea0 c93c 21fd 1e3d
00000070: fd5b 94bd ccee 03be a2f2 ccbd f093 0f3b
00000080: 298b f13d ff8c 5dbd c40c fb3d b21a cf3b
00000090: 84c3 08bd 8fd6 ed3d d19a 90bc b049 343d
000000a0: 107f 353d bc61 1fbd 54b8 eebb cae3 c9bc
000000b0: ff24 4b3d 19e0 363c 42eb f5bc 8345 09bd
000000c0: 41e0 883d 6117 883d b156 2cbb 8e3a 84bd
000000d0: d3a4 283c 77c3 cf3d 1eba 7cbd 1762 d4bc
000000e0: 4686 b53c 3bf2 abbd 30da 253d a608 643d
000000f0: 37c8 52be 70bc be3d be49 e43d f34a 83bc
00000100: be9c bf3d a238 cc3d 24fb 2fbd 42f8 11be
00000110: c4fb 34bc ffa0 eebd 7372 403c 49a1 5bbd
00000120: 4613 74bd 86d6 c9bc dfca 663d 6b31 3e3d
00000130: 92c6 a5b7 31dd 9f3d 0c54 89bd 08b6 6cbd
00000140: 3256 7c3d 5bd4 ac3d 3591 59bd 0377 07bc
00000150: be70 d9bd 3db6 54bd 9e30 a93d c806 5d3d
00000160: 379c 893d a9a1 9e3d 2c93 8abb 8508 26bd
00000170: 8817 b3bd 6d25 183e 353a ea3b a448 bb3d
00000180: 3ff2 9f3c 87fb 5fbc 39ef 83bd 3cf4 cbbc
00000190: dd90 663d deef 1c3d da5e b2bd 3dee 24be
000001a0: af65 95bd 4b76 57bd fb27 3abd f320 f33c
000001b0: d0ce 063d 29aa 0b3d 220c 3dbd f43d 5b3d
000001c0: 120f d13d e789 40bd bb54 2ebd 9f1b 11bc
000001d0: b8b7 dfbd cf8e ee3c fb77 7b3d dcc0 d8bd
000001e0: b367 8e3b 268b 9d3d 737b 183c b0be 883d
000001f0: c661 af3d ab23 8a3b 07ff af3d b502 933d
00000200: 9e5a 603c 5b90 87bd a0a6 193e e8c8 9bbc
00000210: 7728 303d 8634 97b8 e027 e03c 27ed bebc
00000220: 0b32 44bc fc58 aabd ac99 943d 1e74 033e
00000230: 508c 8fbd 41b8 aabd efc7 74bc c8bf dabc
00000240: aed6 473c 69a7 f53d dbc3 833d c004 9d3d
00000250: dd58 583c 0573 8e3d 0a04 663c e450 88bd
00000260: c17c 9bbd 5ca9 a0bb 9c0c 7f3c 1a3f 473d
00000270: b020 393d 033f 093e 13b1 9ebc 0749 2abe
00000280: e8f3 06be 3217 553d dda7 50bc 1b1c 82bd
00000290: 261c a6b9 3d61 043e 5cbb 0b3c 506b d6bb
000002a0: a1f6 a5bd 2fcb 97bd fd3e 43bd 4ec1 acbd
000002b0: faee db3d e8b5 e83d 9183 fd3d 4670 24bb
000002c0: 79f9 8e3d ef22 a03d 17e3 c73c 67a0 46bc
000002d0: 1d54 fbbd 1a05 953d 3242 963d 165f 14bd
000002e0: 4c9d 413d 6455 19be 7c5b 433d 2cf4 f53d
000002f0: 977c 6b3d 8488 07bd 3519 743c 4072 dcbb
00000300: c916 5e3d ae24 6b3d 9106 5bbd 28e4 ce3d
00000310: 6410 183d fc92 c93b 2ff6 d53c 3e14 c1bd
00000320: 450f 7b3d 8b7e 193e 0dab 61bd 53cd 9fbd
00000330: 6156 1d3c cc2a ab3c 150d dabc 5897 723c
00000340: 34d7 473c ffd4 8bbc 3670 9f3d e2c6 bbbc
00000350: fc15 e8bc 157a 113d 2565 ca3b 9e87 b43d
00000360: 87a5 c63d d342 efbd 4aa5 3cbd 13af b33d
00000370: 287b 02be ef62 53bd 2e9f 353d 46a0 d83c
00000380: f7cb 74bd 8adf c8bc 595b 69bc 9111 dd3c
00000390: 2627 313e e0cb d93d fa53 8bbc 8090 8b3c
000003a0: 30f4 e3bd 8d73 0abc ab18 383c d084 aa3d
000003b0: fa4c d4bb 0424 6a3d f8c9 093c 49df e43d
000003c0: 216f 25bd 0dda 52bd 74a9 873d 3f46 243d
000003d0: d435 b0bd 3f04 22bd 25e1 533c f531 ca3c
000003e0: 9231 133e 7e22 5ebd d89b 53bd 95a8 4ebc
000003f0: de4f 113e 4ab5 80bd 8947 9e3c 59f6 0fbd

sequential_1_1/lstm_3_1/while/lstm_cell_1/add_1/ReadVariableOp f4 [200]
-0.012127979 0.0027134723 0.0039257226 -0.013500381 -0.011610915 0.015305795 -0.0037669262 0.0046010967
5.226401e-05 0.0037914566 -0.0030879742 0.0065439227 0.008428957 0.0046694065 -0.0082720015 0.003196538
0.012480096 -0.0018768469 -0.01501957 -0.011313454 0.0071156756 0.0033844993 -0.013887768 -0.0052851844
-0.016131544 -0.01103067 -0.0016694275 -0.011902965 -0.0017994653 -0.010709174 -0.014945797 0.0024145672
0.007326556 -0.007558798 -0.009288425 0.0027879898 -0.0019892384 0.012006438 -0.00845979 -0.0024045715
0.008786168 -0.006886106 0.007289409 0.006965118 0.0064990018 0.008270537 0.0067627784 0.006632033
-0.01520011 -0.0053550703 0.98819935 1.0010314 1.002436 0.9863561 0.9884444 1.0091027
0.9901296 1.0029416 0.99984515 1.0018225 0.99716944 1.0044141 1.001846 1.0030655
0.98799837 0.9998611 1.0092384 0.9971575 0.9798201 0.9889074 1.0050672 1.0016134
0.9865985 0.9938216 0.982737 0.98765856 0.9960604 0.9859001 0.9968645 0.98773015
0.98440284 1.0008593 1.004848 0.99078125 0.99026966 0.9983703 0.98581797 1.0101489
0.98943084 0.9969598 1.0061723 0.99105245 1.0043598 1.0042505 1.0046118 1.0057731
1.0040498 1.0041815 0.9847984 0.9943933 0.008582727 0.0049728495 -0.0024174287 0.0075998786
-0.009926952 -0.0022852425 -0.007320554 0.0050824494 0.00453136 -0.0036868842 0.012423757 0.0042818612
0.006071962 -0.003341202 0.009881299 -0.0045652143 0.0044054543 -0.0010967127 -0.010930913 0.010700772
0.002473493 0.0032454613 0.008718384 0.011128791 -0.007921798 0.006574132 -0.004739529 -0.0043680966
-0.013240109 -0.00909887 -0.006864589 0.0006215021 0.004441014 0.005683808 -0.01228261 0.000940645
0.007213231 -0.00480604 -0.0072124065 0.0033090587 -0.0059190844 -0.008884213 -0.0038920224 -0.0026201713
0.0053173024 -0.002862374 -0.006235644 0.0065904073 -0.0077181337 -0.009586033 -0.0120998835 0.0027004632
0.00401132 -0.01357636 -0.011584948 0.015661271 -0.0035698826 0.0046621677 2.9326828e-05 0.0036848343
-0.002818221 0.00649318 0.008414734 0.0045619276 -0.008101946 0.0034159063 0.01231389 -0.0018802212
-0.014990097 -0.0113851065 0.0071284096 0.0033590253 -0.013867526 -0.005331126 -0.016120344 -0.010919754
-0.0015990754 -0.01178914 -0.0014712975 -0.010740531 -0.014976311 0.0024021699 0.007183295 -0.0077308742
-0.0092288675 0.0027409068 -0.0020390523 0.012004301 -0.008336569 -0.0024072102 0.0087924795 -0.0066478006
0.0071746563 0.007002168 0.006376183 0.008300019 0.0070105433 0.0063888934 -0.015219076 -0.0054249275
00000000: 6eb4 46bc 83d4 313b 59a3 803b b430 5dbc
00000010: b53b 3ebc 28c5 7a3c 89de 76bb ccc4 963b
00000020: 0e36 5b38 167a 783b 9c5f 4abb 676e d63b
00000030: 9c19 0a3c d201 993b 4a87 07bc 027d 513b
00000040: 5179 4c3c 8800 f6ba a414 76bc 115c 39bc
00000050: 9d2a e93b 7ace 5d3b 8589 63bc 572f adbb
00000060: 4d26 84bc fcb9 34bc b1d0 daba a704 43bc
00000070: 09dc ebba 8875 2fbc 37df 74bc b73d 1e3b
00000080: 9b13 f03b cbaf f7bb 7a2e 18bc b5b6 363b
00000090: e25d 02bb a7b6 443c ee9a 0abc 0496 1dbb
000000a0: dcf3 0f3c d8a4 e1bb ffdb ee3b a53b e43b
000000b0: 94f5 d43b 2581 073c 4c9a dd3b 8651 d93b
000000c0: e209 79bc 9679 afbb a2fa 7c3f cc21 803f
000000d0: d34f 803f d581 7c3f b10a 7d3f 472a 813f
000000e0: 2279 7d3f 6460 803f daf5 7f3f b83b 803f
000000f0: 7f46 7f3f a490 803f 7d3c 803f 7364 803f
00000100: 76ed 7c3f e6f6 7f3f b92e 813f b745 7f3f
00000110: 7dd5 7a3f 0929 7d3f 0ba6 803f de34 803f
00000120: b891 7c3f 186b 7e3f a794 7b3f 31d7 7c3f
00000130: d0fd 7e3f f363 7c3f 8332 7f3f e2db 7c3f
00000140: d301 7c3f 281c 803f dc9e 803f d7a3 7d3f
00000150: 5082 7d3f 3295 7f3f 915e 7c3f 8f4c 813f
00000160: 574b 7d3f c238 7f3f 41ca 803f 9db5 7d3f
00000170: dd8e 803f 488b 803f 1f97 803f 2cbd 803f
00000180: b484 803f 0589 803f bf1b 7c3f 8f90 7e3f
00000190: 919e 0c3c 49f3 a23b b96d 1ebb 6708 f93b
000001a0: a8a4 22bc 02c4 15bb 42e1 efbb ad8a a63b
000001b0: ce7b 943b a79f 71bb 048d 4b3c db4e 8c3b
000001c0: 4ff7 c63b 11f8 5abb 2ce5 213c cb97 95bb
000001d0: a15b 903b 92bf 8fba 9217 33bc 4a52 2f3c
000001e0: 541a 223b ceb1 543b 8ed7 0e3c 8855 363c
000001f0: 6eca 01bc d16b d73b 0d4e 9bbb 4022 8fbb
00000200: 0bed 58bc 6d13 15bc 59f0 e0bb 4dec 223a
00000210: ed85 913b 3d3f ba3b 003d 49bc 9e95 763a
00000220: f85c ec3b fc7b 9dbb 0d56 ecbb cbdc 583b
00000230: e1f4 c1bb 178f 11bc 4d11 7fbb 2eb7 2bbb
00000240: c43c ae3b ab96 3bbb 6054 ccbb 58f4 d73b
00000250: 66e8 fcbb bd0e 1dbc 973e 46bc 41fa 303b
00000260: 6471 833b 626f 5ebc cbce 3dbc 114c 803c
00000270: b1f4 69bb 19c5 983b e202 f637 437d 713b
00000280: e7b1 38bb bec4 d43b f4dd 093c 397c 953b
00000290: 06be 04bc 66dd 5f3b 33c0 493c c171 f6ba
000002a0: 0699 75bc 9988 3abc 6f95 e93b 1823 5c3b
000002b0: 9f34 63bc bab0 aebb d00e 84bc c5e8 32bc
000002c0: 1198 d1ba 3d27 41bc 8dd8 c0ba 0df9 2fbc
000002d0: 335f 75bc b96d 1d3b d961 eb3b 4653 fdbb
000002e0: ad34 17bc c9a0 333b 9fa1 05bb b0ad 443c
000002f0: 1b96 08bc 49c2 1dbb 550e 103c cbd5 d9bb
00000300: 6119 eb3b 7172 e53b 4def d03b cefc 073c
00000310: b3b8 e53b ec59 d13b 6e59 79bc 97c3 b1bb
