models/ETH_lstm_model.tflite (tflite, 145652 bytes, 8 tensors)

arith.constant4 f4 [1, 25]
-0.39228654 -0.44817415 -0.080635026 -0.47517538 0.06395518 0.20897792 0.33027807 0.43338642
0.33612847 -0.17381668 0.04748703 0.44387436 -0.38015777 -0.19178456 0.06647265 -0.3645758
0.15451375 0.39327928 0.1958036 0.13464092 0.43234968 0.4653569 -0.41524544 -0.38490227
-0.2072022
00000000: c8d9 c8be 1577 e5be fa23 a5bd 304a f3be
00000010: effa 823d 4ffe 553e 351a a93e d3e4 dd3e
00000020: 0819 ac3e 00fd 31be c381 423d 8043 e33e
00000030: 0aa4 c2be 2c63 44be d022 883d aea9 babe
00000040: da38 1e3e e75b c93e bd80 483e 4fdf 093e
00000050: f05c dd3e 4243 ee3e 0d9b d4be e911 c5be
00000060: d02c 54be

arith.constant5 f4 [25, 50]
0.22240967 -0.20447198 -0.27494475 0.16549613 -0.10398736 0.21769844 0.0782403 0.24017002
-0.23328893 -0.13839772 -0.24514681 0.2538975 -0.17169397 -0.22675239 -0.10916091 0.12711346
-0.1690233 0.27895707 0.2647701 -0.09493514 0.04050912 0.17107663 0.1337345 0.07665177
-0.04106121 -0.18704848 -0.012671483 -0.09169802 -0.017727178 0.21742496 -0.17234467 0.086933345
-0.27897483 -0.2497542 0.2153366 0.19845344 -0.21254742 0.06719447 0.2725213 -0.11760517
0.25562805 -0.24005793 0.11726522 0.2684738 -0.03087769 -0.16399407 -0.20122184 0.005406429
0.07329185 -0.0922781 -0.011470883 -0.15490331 -0.13437766 -0.10386992 0.03400761 -0.104305565
0.054736506 -0.14002882 0.16067573 -0.07957585 0.23273173 -0.060958292 0.11963888 0.21145944
-0.17031346 0.14039682 -0.15303376 -0.10381764 -0.118430465 0.024605395 0.14149496 -0.29142505
-0.24063703 -0.21667343 -0.22702542 0.08373428 -0.079376616 0.21983734 0.25671485 -0.22698139
-0.07653702 -0.015816813 -0.00076282525 0.2633685 0.13149042 0.20485795 -0.2074489 0.20981167
0.25749257 -0.13295165 -0.14377463 -0.18983598 -0.28348774 -0.25691032 -0.25762528 0.029548062
-0.058041584 0.052288588 -0.2224443 -0.2859722 -0.05465683 0.24950682 -0.19698285 0.02459274
0.27172714 -0.1644906 -0.088103086 0.24513358 0.1607831 0.12048077 0.18137127 -0.2846371
0.17409714 -0.28774348 -0.17205945 0.13987148 -0.14863658 0.2783775 0.1774529 -0.09802846
0.18805829 -0.19505301 0.023081964 -0.20130067 -0.022829302 -0.120543495 -0.039970044 0.2156206
-0.050474443 0.11535672 0.11788375 0.24851705 -0.07443527 0.055362064 0.09799602 -0.10679715
-0.19037686 0.050231677 0.18453258 0.23440993 -0.002426808 0.17009906 -0.010362487 -0.25905845
0.24784386 0.13811514 0.23907585 0.02559151 -0.16556749 0.1757815 -0.14593105 0.03675273
-0.26123402 -0.15093702 -0.19179676 0.12045953 -0.25596488 -0.13735223 0.008589985 0.16064617
0.20538296 -0.28685623 -0.029975003 -0.04217347 0.009879262 0.12608199 -0.03510155 -0.13059114
-0.23443131 0.2736486 0.09614567 0.11441434 0.23542431 0.23880512 -0.20581028 -0.23239513
-0.06633593 0.2661092 0.16399282 -0.014408736 -0.0715737 -0.1320464 0.002944502 0.17219801
-0.19282728 -0.10734777 0.025095642 0.13913237 0.06387215 0.070990264 0.09177166 0.24845152
0.2426947 -0.03414961 0.17347278 -0.25921527 0.19036031 -0.09647375 -0.24494942 0.13488309
0.104938716 -0.18961671 -0.119354 -0.17278086 0.12775744 -0.17520382 0.07234603 0.025561756
0.16234873 -0.13817133 -0.19011235 -0.10550535 0.23285921 0.028456397 0.13091551 -0.121980935
-0.26458642 0.22236201 0.17032826 -0.19270115 -0.06022158 0.109662384 0.19094804 -0.03273606
-0.15818776 0.15512371 -0.18204933 0.1934255 0.21931832 0.03175374 -0.19522429 0.21159223
-0.03795287 0.053976037 0.08701902 -0.17352906 -0.072707 0.118288115 -0.013730728 -0.06055017
-0.04239481 0.09725116 -0.06848412 0.082249545 0.26593432 0.1445671 0.09836354 -0.08597546
0.096263595 0.034798227 0.25058585 -0.022840941 -0.15138754 0.05872459 0.22407798 0.2482536
00000000: 5cbf 633e 1a61 51be 8fc5 8cbe d177 293e
00000010: 53f7 d4bd 57ec 5e3e 733c a03d 21ef 753e
00000020: 4be3 6ebe 22b8 0dbe c407 7bbe dafe 813e
00000030: 8bd0 2fbe c731 68be c18f dfbd 082a 023e
00000040: 7214 2dbe 76d3 8e3e f28f 873e 5b6d c2bd
00000050: e4ec 253d b62e 2f3e b2f1 083e 9afb 9c3d
00000060: cd2f 28bd a389 3fbe 0d9c 4fbc 2ccc bbbd
00000070: 9638 91bc a6a4 5e3e 1f7b 30be 1c0a b23d
00000080: cad5 8ebe 91bf 7fbe 3381 5c3e 6137 4b3e
00000090: 08a6 59be 419d 893d e987 8b3e fbda f0bd
000000a0: aee1 823e bfd1 75be bf28 f03d 6675 893e
000000b0: 36f3 fcbc 10ee 27be 190d 4ebe 6a28 b13b
000000c0: 0a1a 963d 4dfc bcbd 5ff0 3bbc f99e 1ebe
000000d0: 4c9a 09be c1b9 d4bd 904b 0b3d 289e d5bd
000000e0: 6333 603d b763 0fbe 2e88 243e aaf8 a2bd
000000f0: 3a51 6e3e 67af 79bd 3b05 f53d d388 583e
00000100: a766 2ebe 2fc4 0f3e e2b4 1cbe 589e d4bd
00000110: ac8b f2bd 4191 c93c 0ee4 103e aa35 95be
00000120: 8e69 76be a4df 5dbe 5a79 68be e17c ab3d
00000130: 3590 a2bd 0a1d 613e 2170 833e cf6d 68be
00000140: 71bf 9cbd 4392 81bc 56f8 47ba 3cd8 863e
00000150: 6da5 063e 48c6 513e 7c6d 54be dfd8 563e
00000160: 11d6 833e 7a24 08be a839 13be 5d64 42be
00000170: 4e25 91be c089 83be 76e7 83be c70e f23c
00000180: 03bd 6dbd 8f2c 563d 70c8 63be f36a 92be
00000190: d7df 5fbd b77e 7f3e dfb5 49be b776 c93c
000001a0: d21f 8b3e 3970 28be 646f b4bd 4c04 7b3e
000001b0: 53a4 243e 9fbe f63d 64b9 393e f4bb 91be
000001c0: 8546 323e 1d53 93be 5a30 30be 783a 0f3e
000001d0: 3034 18be 7f87 8e3e 37b6 353e 25c3 c8bd
000001e0: 5a92 403e fabb 47be 6316 bd3c c321 4ebe
000001f0: 8404 bbbc 82df f6bd a1b7 23bd a6cb 5c3e
00000200: 4abe 4ebd 2540 ec3d 096d f13d 417b 7e3e
00000210: 8571 98bd 55c3 623d 23b2 c83d 77b8 dabd
00000220: 27f2 42be bbbf 4d3d 1cf6 3c3e 2809 703e
00000230: 150b 1fbb 732e 2e3e 6cc7 29bc 4fa3 84be
00000240: c8ca 7d3e 0e6e 0d3e 4dd0 743e 49a5 d13c
00000250: 868a 29be 1100 343e f36e 15be 088a 163d
00000260: 77c0 85be 3c8f 1abe 5f66 44be 7cb3 f63d
00000270: d40d 83be 10a6 0cbe 02bd 0c3c 6e80 243e
00000280: e94f 523e d2de 92be 238e f5bc 17be 2cbd
00000290: a1dc 213c a31b 013e a5c6 0fbd afb9 05be
000002a0: c30e 70be ab1b 8c3e 05e8 c43d 1152 ea3d
000002b0: 1213 713e 5489 743e eebf 52be fdf8 6dbe
000002c0: 22db 87bd 773f 883e bced 273e 9e12 6cbc
000002d0: 3b95 92bd 2c37 07be 8cf8 403b ad54 303e
000002e0: 8474 45be 26d9 dbbd 6095 cd3c b778 0e3e
000002f0: 67cf 823d 5863 913d c8f2 bb3d 136a 7e3e
00000300: f684 783e 76e0 0bbd d9a2 313e ddb7 84be
00000310: d0ed 423e 0894 c5bd 05d4 7abe cb1e 0a3e
00000320: 1cea d63d e22a 42be df6f f4bd 77ed 30be
00000330: d9d2 023e a168 33be 282a 943d e366 d13c
00000340: bf3e 263e c97c 0dbe d0ac 42be 3013 d8bd
00000350: a572 6e3e 641d e93c b70e 063e 24d1 f9bd
00000360: df77 87be deb2 633e 886a 2e3e 7353 45be
00000370: e7aa 76bd ac96 e03d e287 433e 3f16 06bd
00000380: f9fb 21be c0d8 1e3e 246b 3abe 5611 463e
00000390: fb94 603e 3610 023d e0e8 47be a2ab 583e
000003a0: 7874 1bbd fa15 5d3d 0737 b23d 9ab1 31be
000003b0: 68e7 94bd 0a41 f23d d9f6 60bc 7403 78bd
000003c0: 2ea6 2dbd 9e2b c73d 6741 8cbd 7372 a83d
000003d0: 8b28 883e 6609 143e d372 c93d e713 b0bd
000003e0: d925 c53d 9688 0e3d ca4c 803e ed1c bbbc
000003f0: 5605 1bbe 3289 703d b374 653e 3136 7e3e

arith.constant17 f4 [200, 1]
0.09882177 -0.057561107 0.15775639 -0.0067250845 -0.06863632 0.008276886 -0.10298477 0.09760905
-0.0457969 0.06763577 -0.17904688 -0.10049437 0.08861077 -0.1261747 0.14704 0.11639916
0.12934195 0.03017309 -0.050397627 -0.14972831 -0.008822215 -0.035474367 -0.071928404 0.010283567
-0.12911251 -0.11616659 -0.10637237 0.0719328 0.032714378 0.00032387357 0.13435164 -0.030013988
-0.04965201 -0.13925 0.001907994 -0.16700925 -0.17559737 -0.05781702 -0.16269642 0.035710048
0.060549907 -0.09143085 -0.0029771707 -0.03490413 -0.04754119 0.06894774 -0.02302399 -0.11154405
0.10040303 0.07347845 -0.041030314 -0.11886841 0.14086756 0.12801193 -0.0715284 -0.0726839
0.12315428 -0.1799343 0.070386745 -0.09336781 -0.08331798 0.07823076 0.061852634 -0.066049166
-0.034393493 -0.14972584 -0.05966965 0.025986593 0.17836308 -0.12520742 0.15119481 -0.020739313
0.043839548 0.0833085 -0.071480244 -0.16382152 0.18339407 -0.098280415 -0.14741926 0.12497763
0.041001543 -0.052768715 -0.01109563 0.11368119 0.024226094 0.12348392 -0.096880645 -0.07272363
-0.1463336 0.079550706 0.15254457 0.054935373 -0.04478929 0.13525456 0.14555597 -0.1302518
-0.026464451 -0.1725463 0.037743326 -0.12905532 0.08662348 0.041024312 0.16671021 -0.05447718
0.0332509 -0.14797486 0.08326706 0.1266212 -0.12984201 0.08957081 -0.1422118 0.021866135
0.03131335 0.05165622 0.05938835 -0.052502483 -0.1587849 0.1467161 -0.10513507 -0.086802505
-0.10515625 0.16538784 -0.036702603 0.08899197 -0.12442506 0.03799715 -0.09311253 -0.15800545
0.090556785 -0.022806924 0.09105398 -0.14014493 -0.061258625 -0.066927224 0.062438354 -0.101785146
0.12744218 0.10714759 -0.04812077 -0.031789873 -0.13281748 0.0512623 -0.02615108 0.03500267
-0.027833391 -0.10404244 0.1668395 0.12483987 -0.13328588 0.062194698 -0.13272761 0.004589887
0.07684404 0.14490248 0.054274518 0.049631502 -0.17036967 -0.09687694 -0.07516995 0.15672411
-0.038489096 0.15796302 -0.07534385 -0.055877533 0.034956187 -0.017952176 -0.017682124 0.067502454
-0.1240433 -0.011219239 0.11741312 -0.052713726 0.0045668283 -0.16647296 0.1547533 0.026225468
-0.15747195 -0.10283717 0.06141856 0.061895803 -0.07190051 -0.1288124 0.14407054 -0.031159982
0.116018645 0.12738873 -0.09682097 -0.08650859 -0.15149502 -0.121513344 -0.12837452 0.033518624
-0.05116854 0.14025553 0.01657565 0.15773162 -0.07158505 -0.104249835 0.05190992 0.016276749
00000000: 1163 ca3d 32c5 6bbd e48a 213e 195e dcbb
00000010: 3391 8cbd c79b 073c aee9 d2bd 41e7 c73d
00000020: 8895 3bbd 9f84 8a3d 1158 37be fecf cdbd
00000030: 9079 b53d f133 01be a791 163e af62 ee3d
00000040: 3772 043e 8e2d f73c be6d 4ebd 6152 19be
00000050: 0d8b 10bc 924d 11bd 334f 93bd 687c 283c
00000060: 1236 04be c0e8 edbd c2d9 d9bd 8151 933d
00000070: 83ff 053d 93cd a939 7a93 093e e5df f5bc
00000080: e85f 4bbd 8d97 0ebe a815 fa3a 7904 2bbe
00000090: cccf 33be 8ad1 6cbd e499 26be b344 123d
000000a0: 2e03 783d 1940 bbbd a31c 43bb a2f7 0ebd
000000b0: 8dba 42bd 7934 8d3d cf9c bcbc 3571 e4bd
000000c0: 1ba0 cd3d df7b 963d 670f 28bd 4871 f3bd
000000d0: 963f 103e 8f15 033e 7b7d 92bd 4cdb 94bd
000000e0: 5038 fc3d b240 38be ed26 903d 9f37 bfbd
000000f0: 9ea2 aabd 7337 a03d 3059 7d3d c944 87bd
00000100: 31e0 0cbd bb51 19be 2a68 74bd d6e1 d43c
00000110: d0a4 363e 6036 00be d0d2 1a3e 7ee5 a9bc
00000120: 1991 333d a69d aa3d 3c64 92bd d4c0 27be
00000130: a8cb 3b3e 3e47 c9bd 13f5 16be 46f4 ff3d
00000140: 3cf1 273d 0224 58bd 72ca 35bc afd1 e83d
00000150: cd75 c63c 23e5 fc3d 5c69 c6bd 20f0 94bd
00000160: 7ad8 15be 7beb a23d a534 1c3e ea03 613d
00000170: f974 37bd 2c80 0a3e a00c 153e ba60 05be
00000180: facb d8bc faaf 30be bf98 1a3d 1427 04be
00000190: a767 b13d 1c09 283d 15b6 2a3e 7723 5fbd
000001a0: 1932 083d b986 17be ec87 aa3d fda8 013e
000001b0: 4ef5 04be e770 b73d f89f 11be 9c20 b33c
000001c0: 6d42 003d 7995 533d 3341 733d d80c 57bd
000001d0: 8298 22be bf3c 163e 0e51 d7bd 83c5 b1bd
000001e0: 295c d7bd 6e5b 293e 7855 16bd 6c41 b63d
000001f0: 91d2 febd e6a2 1b3d c8b1 bebd 2ecc 21be
00000200: d675 b93d 96d5 babc 827a ba3d 2782 0fbe
00000210: 53ea 7abd 2411 89bd 5cbf 7f3d bb74 d0bd
00000220: 3480 023e 3270 db3d 491a 45bd 1936 02bd
00000230: 4e01 08be 6bf8 513d ca3a d6bc f65e 0f3d
00000240: da02 e4bc 3414 d5bd f9d7 2a3e 0cac ff3d
00000250: 187c 08be debf 7e3d bfe9 07be c366 963b
00000260: 6860 9d3d 5161 143e f54e 5e3d 674a 4b3d
00000270: 6375 2ebe 6b67 c6bd b4f2 99bd 497c 203e
00000280: bea6 1dbd 0fc1 213e e04d 9abd d7df 64bd
00000290: 382e 0f3d 7110 93bc 1ada 90bc ba3e 8a3d
000002a0: 6a0a febd e6d0 37bc 4a76 f03d 59ea 57bd
000002b0: 55a5 953b e377 2abe a677 1e3e cbd6 d63c
000002c0: 5440 21be 4b9c d2bd 0792 7b3d 7486 7d3d
000002d0: 9340 93bd 66e7 03be 3a87 133e 3843 ffbc
000002e0: 2f9b ed3d 3172 023e 134a c6bd 6a2b b1bd
000002f0: 8321 1bbe fddb f8bd 9c74 03be d34a 093d
00000300: 1a96 51bd 259f 0f3e a8c9 873c 6684 213e
00000310: 2f9b 92bd f080 d5bd 7f9f 543d d156 853c

arith.constant18 f4 [200, 50]
0.010776698 0.17337897 -0.005340695 0.10639367 -0.027252065 0.071262665 0.031689987 -0.0072386507
-0.06849835 0.010388775 -0.02077434 0.046780076 -0.026649471 -0.069012776 0.035406042 -0.09428936
0.016836679 0.112541124 -0.00962333 -0.12322092 0.027304094 -0.036218163 -0.045132108 0.17968996
0.04466557 0.061545834 0.11715377 0.120684594 -0.016592951 0.14571406 0.053109936 -0.0003773238
0.05590278 0.0331453 -0.0010564877 0.052568913 0.045435753 0.07540635 0.0047771637 -0.026697883
-0.031437047 0.020598305 0.041261308 0.079130836 -0.09249276 -0.036401957 -0.0035714204 -0.11746336
-0.029177008 0.06494707 -0.032418784 0.02618548 -0.07134512 0.10178635 -0.150854 0.07508361
-0.07429375 -0.088650286 0.050646234 0.052320696 0.025280051 -0.11538316 -0.09734442 0.0053582303
-0.037224185 0.007893718 -0.003565404 0.014849708 0.037486516 0.03543466 0.065423176 0.0043612868
-0.08997694 0.034853626 0.030409774 0.0080877915 0.015076509 -0.082773715 -0.07740603 0.01863669
-0.082663484 0.13874096 -0.04194143 0.093777984 0.05009348 0.00944109 -0.039489333 0.04015917
0.05857857 0.007953789 0.06787496 -0.11400189 0.06428048 -0.10368522 -0.025043873 0.0796007
0.11442066 -0.07035572 0.059285555 -0.08637974 0.112128004 0.030981267 0.12574293 -0.18702684
-0.1379687 0.08815245 0.039616205 0.067032725 0.045590986 -0.1190743 -0.07169721 0.08004336
0.0199099 0.06059349 0.06820658 -0.13880394 -0.0062873517 0.09529206 -0.002437455 -0.038668368
-0.07992179 0.015414888 0.19715187 0.030408852 -0.010137523 0.018071365 -0.07235545 -0.13018401
-0.04396367 -0.039655335 -0.014116396 -0.059920512 -0.20027292 0.012745216 0.07835325 -0.011720817
0.054900438 0.011887707 -0.071504265 -0.048698828 -0.009795526 0.050184745 1.480669e-05 0.059777483
-0.16860092 0.057299547 0.015629048 0.012840422 -0.04450434 0.0062468783 0.05733402 -0.1013401
-0.08134285 0.10750226 -0.041280672 0.028880559 -0.06772107 -0.07679054 0.10161462 0.14525498
0.04412702 -0.09831034 0.02391852 0.089555085 0.05670282 0.010428783 -0.01996237 -0.028174339
-0.0239487 0.05440654 -0.1102656 -0.09831919 -0.011516153 -0.0293806 0.011907124 -0.081602044
0.13654256 0.050216313 -0.01674556 0.095019326 0.0011831219 -0.06282198 0.04466478 -0.050175764
-0.052415077 0.05443168 0.106991574 -0.006078733 -0.070561066 0.032578416 0.05328277 0.08008483
0.0013700568 -0.040575627 -0.015531855 -0.08226293 -0.14795686 -0.13849656 -0.05081981 0.037095327
0.035774965 0.04705623 -0.05961563 -0.02008081 -0.013603585 -0.12720716 0.079052016 -0.053175427
0.047811408 -0.12733565 0.08710727 0.016590964 -0.09423121 -0.027214797 -0.018419055 0.039206706
-0.023693476 0.09646291 0.067090705 0.13614883 0.011718394 -0.00070060143 0.06165186 0.068167426
0.026805388 -0.13394554 0.07013446 -0.014730528 -0.008922494 0.094480254 -0.07823036 0.056757323
-0.08552951 -0.0064864513 -0.019068394 0.060006358 -0.017437387 0.015006403 0.06409148 -0.0122128595
0.08557807 0.011969696 0.09698269 0.112716466 -0.062202357 0.023570694 0.03705108 -0.018714452
0.115843095 0.034805186 0.042184718 0.008264901 0.029765252 0.07136404 0.061234128 0.12654035
00000000: bf90 303c 428a 313e ff00 afbb ede4 d93d
00000010: b93f dfbc 29f2 913d 5ccd 013d 3432 edbb
00000020: dd48 8cbd ae35 2a3c f32e aabc 779c 3f3d
00000030: fe4f dabc 9256 8dbd ed05 113d c81a c1bd
00000040: 13ed 893c f67b e63d 2cab 1dbc 405b fcbd
00000050: d6ac df3c 7f59 14bd 72dc 38bd a500 383e
00000060: 3ff3 363d 7c17 7c3d 51ee ef3d 7c29 f73d
00000070: f1ed 87bc 1136 153e ce89 593d 8bd3 c5b9
00000080: 50fa 643d 5ec3 073d d879 8aba 8052 573d
00000090: d71a 3a3d a56e 9a3d c189 9c3b 85b5 dabc
000000a0: 22c4 00bd c7bd a83c 9e01 293d 590f a23d
000000b0: d86c bdbd 381a 15bd 7e0e 6abb a190 f0bd
000000c0: 9f04 efbc f802 853d 8fc9 04bd ef82 d63c
000000d0: 641d 92bd 5d75 d03d 7979 1abe 70c5 993d
000000e0: 5227 98bd 488e b5bd 6d72 4f3d 3a4e 563d
000000f0: 1c18 cf3c 024e ecbd 835c c7bd 1894 af3b
00000100: 6378 18bd a754 013c 8ea9 69bb 314c 733c
00000110: 768b 193d ef23 113d 96fc 853d 20e9 8e3b
00000120: d445 b8bd adc2 0e3d eb1d f93c a882 043c
00000130: 7603 773c 4485 a9bd 0d87 9ebd f9ab 983c
00000140: 794b a9bd 1c12 0e3e c7ca 2bbd ac0e c03d
00000150: d22e 4d3d cdae 1a3c 91bf 21bd f17d 243d
00000160: 15f0 6f3d 9c50 023c 0702 8b3d d379 e9bd
00000170: 7ca5 833d eb58 d4bd cf28 cdbc b105 a33d
00000180: 6155 ea3d a916 90bd 69d5 723d dce7 b0bd
00000190: 5ea3 e53d 6dcc fd3c c1c2 003e f783 3fbe
000001a0: ab47 0dbe 4689 b43d 9a44 223d 7448 893d
000001b0: 9dbd 3a3d 3add f3bd fdd5 92bd c6ed a33d
000001c0: 161a a33c e130 783d e4af 8b3d 9f22 0ebe
000001d0: 2106 cebb 7c28 c33d b6bd 1fbb b962 1ebd
000001e0: 09ae a3bd ba8e 7c3c 2ee2 493e fc1b f93c
000001f0: da17 26bc 660a 943c 182f 94bd f54e 05be
00000200: 4013 34bd a26d 22bd 7548 67bc 366f 75bd
00000210: 5814 4dbe 4fd1 503c ab77 a03d ab08 40bc
00000220: 48df 603d a8c4 423c d470 92bd 6c78 47bd
00000230: 6a7d 20bc 858e 4d3d 406a 7837 3cd9 743d
00000240: b8a5 2cbe eeb2 6a3d 7d08 803c a260 523c
00000250: 2f4a 36bd 9db2 cc3b 14d7 6a3d 668b cfbd
00000260: 1597 a6bd 252a dc3d ec15 29bd ec96 ec3c
00000270: 58b1 8abd 5c44 9dbd 531b d03d b9bd 143e
00000280: 89be 343d ee56 c9bd c6f0 c33c a868 b73d
00000290: 3741 683d 7cdd 2a3c 2088 a3bc dfcd e6bc
000002a0: 1030 c4bc 64d9 5e3d eed2 e1bd 925b c9bd
000002b0: 3fae 3cbc 96af f0bc 1916 433c f91e a7bd
000002c0: d0d1 0b3e 9faf 4d3d fc2d 89bc 7e99 c23d
000002d0: fc12 9b3a cfa8 80bd 6bf2 363d 1a85 4dbd
000002e0: 31b1 56bd c1f3 5e3d 661e db3d 1c30 c7bb
000002f0: 5282 90bd f270 053d 093f 5a3d 8403 a43d
00000300: 7a93 b33a a132 26bd 5279 7ebc 7879 a8bd
00000310: 0182 17be 0bd2 0dbe 6f28 50bd 45f1 173d
00000320: c588 123d 09be 403d 852f 74bd 8380 a4bc
00000330: 92e1 5ebc 9842 02be 06e6 a13d 7ace 59bd
00000340: e5d5 433d 4764 02be 4c65 b23d c6e9 873c
00000350: 4bfc c0bd 91f1 debc 8fe3 96bc 3697 203d
00000360: d218 c2bc 598e c53d da66 893d 996a 0b3e
00000370: 82fe 3f3c 91a8 37ba a986 7c3d 5d9b 8b3d
00000380: f996 db3c 0529 09be a8a2 8f3d 5058 71bc
00000390: a72f 12bc dd7e c13d 3d37 a0bd 5e7a 683d
000003a0: 192a afbd 4c8c d4bb 5235 9cbc 3ac9 753d
000003b0: dad8 8ebc 6bdd 753c 6542 833d 7218 48bc
000003c0: 8e43 af3d 8b1c 443c dc9e c63d e4d7 e63d
000003d0: e6c7 7ebd 5417 c13c e0c2 173d 0d4f 99bc
000003e0: 253f ed3d e28f 0e3d e2c9 2c3d 8269 073c
000003f0: 42d6 f33c 4f27 923d a3d0 7a3d cb93 013e

sequential_1/lstm_1/while/lstm_cell_1/add_1/ReadVariableOp f4 [200]
-0.0015427287 -0.009508218 0.005835819 0.001794699 -0.011832639 -0.0029918717 -0.009869178 -0.009279982
0.0051538656 -0.012297745 -0.010547295 0.004840781 0.00366886 0.007335942 -0.018641194 -0.0014904221
0.0037237906 0.009346707 0.007647191 0.0005671746 0.0019005964 -0.006199545 -0.008073995 -0.0029352317
-0.009870076 0.00078422425 0.0061043394 0.0054108943 -0.010051472 -0.011938521 0.010249169 -0.010795724
0.010533913 0.0025394233 -0.010353789 -0.01129083 -0.005984479 0.0013510387 -0.0031751243 -0.00058990443
-0.009917625 -0.0015730216 0.003469857 0.010127758 0.002292914 0.0071807154 0.0038744514 -0.009025671
0.006540993 -0.010887945 0.9961744 0.990708 1.0046823 1.000895 0.98727417 0.9945923
0.98910004 0.9894838 1.003793 0.9876481 0.98913395 1.0042424 1.0033364 1.0058303
0.981848 0.99719703 1.0018626 1.0080717 1.0052879 0.99986094 0.99989927 0.9933554
0.99138594 0.99562854 0.99007654 1.000528 1.0049354 1.003913 0.9897341 0.98807675
1.0088235 0.98929983 1.0090495 1.0019627 0.9895755 0.9890648 0.9934238 0.9996461
0.99389666 0.9981309 0.9897827 0.9983652 1.0027356 1.0067936 1.0017151 1.0058663
1.0025506 0.99039644 1.0054684 0.9892338 -0.015805233 0.013389999 -0.002340459 0.0009427668
-0.008774232 0.017115083 -0.007896211 -0.018586485 0.0036420936 -0.009922566 0.015108627 0.003803708
0.006090239 0.00530481 -0.0033177757 0.0009502862 0.008340474 0.0026857287 0.005022387 0.0047626793
0.009993656 -0.012574148 0.016938273 -0.014039135 0.008785501 0.004251486 -0.0014021733 0.0012814208
-0.010664049 0.008908595 0.0066991285 0.0065643904 -0.006838441 0.0009254655 -0.0094638355 0.006754402
-0.011281503 -0.009045504 0.014703531 -0.0019501798 0.011759056 -0.014703186 -0.0024856399 0.00812444
-0.00023668246 -0.0008678524 -0.0038623305 -0.012649201 0.0011792023 -0.008897237 -0.001110345 -0.009447951
0.0063112145 0.0013539889 -0.011772478 -0.003020383 -0.009852699 -0.009171582 0.0056573385 -0.012303756
-0.010555078 0.004437845 0.003640105 0.0072554396 -0.018694047 -0.0012362006 0.004113653 0.009306638
0.007862659 0.0005244702 0.0017177229 -0.0060463776 -0.008008734 -0.0025305501 -0.009851343 0.00065745984
0.00641293 0.0059887753 -0.010043398 -0.0118998 0.010658608 -0.010816347 0.010221503 0.0025237282
-0.010348185 -0.011226484 -0.0060735946 0.0013727917 -0.003336081 -0.0001208633 -0.009821249 -0.0011560242
0.0036685003 0.009243726 0.0021224392 0.006952284 0.004178888 -0.00904205 0.0069909063 -0.010908466
00000000: 6335 caba 5bc8 1bbc 663a bf3b 1b3c eb3a
00000010: afdd 41bc 4713 44bb 55b2 21bc 110b 18bc
00000020: c2e1 a83b 7b7c 49bc 90ce 2cbc 6a9f 9e3b
00000030: 4271 703b 5762 f03b 6bb5 98bc 445a c3ba
00000040: d70a 743b ee22 193c 4a95 fa3b 71ae 143a
00000050: 6f1d f93a 8e25 cbbb ca48 04bc 045d 40bb
00000060: 19b6 21bc 6694 4d3a e906 c83b df4d b13b
00000070: eeae 24bc c999 43bc 21ec 273c 8ce0 30bc
00000080: 6f96 2c3c 746c 263b f0a2 29bc 2cfd 38bc
00000090: 7319 c4bb 5615 b13a bf15 50bb d1a3 1aba
000000a0: 897d 22bc d92d ceba 8a66 633b e5ee 253c
000000b0: b744 163b 354c eb3b 82ea 7d3b 68e0 13bc
000000c0: d455 d63b 5a63 32bc 4905 7f3f 0a9f 7d3f
000000d0: 6e99 803f 541d 803f 00be 7c3f 9a9d 7e3f
000000e0: a935 7d3f cf4e 7d3f 4a7c 803f 82d6 7c3f
000000f0: e237 7d3f 048b 803f 546d 803f 0cbf 803f
00000100: 645a 7b3f 4e48 7f3f 093d 803f 7e08 813f
00000110: 46ad 803f e3f6 7f3f 66f9 7f3f 8a4c 7e3f
00000120: 78cb 7d3f 83e1 7e3f a875 7d3f 4d11 803f
00000130: b9a1 803f 3980 803f 375f 7d3f 99f2 7c3f
00000140: 2121 813f c142 7d3f 8928 813f 5040 803f
00000150: d254 7d3f 5a33 7d3f 0651 7e3f cfe8 7f3f
00000160: 0370 7e3f 8285 7f3f 6662 7d3f dd94 7f3f
00000170: a459 803f 9dde 803f 3338 803f 3ac0 803f
00000180: 9453 803f 9f8a 7d3f 30b3 803f 6d3e 7d3f
00000190: fa79 81bc ba61 5b3c 6362 19bb 0224 773a
000001a0: ccc1 0fbc ee34 8c3c 1c5f 01bc af42 98bc
000001b0: 31b0 6e3b 4292 22bc 2d8a 773c a147 793b
000001c0: a190 c73b f9d3 ad3b 0a6f 59bb a11c 793a
000001d0: 7ca6 083c 0d03 303b d692 a43b 4010 9c3b
000001e0: 6ebc 233c cd03 4ebc 22c2 8a3c 6604 66bc
000001f0: 10f1 0f3c 0d50 8b3b 21c9 b7ba 59f5 a73a
00000200: 43b8 2ebc 5bf5 113c 5d84 db3b 191a d73b
00000210: 0015 e0bb f09a 723a 340e 1bbc 0854 dd3b
00000220: 0ed6 38bc 9833 14bc 14e7 703c 2d9d ffba
00000230: 0ea9 403c a2e5 70bc 1ee6 22bb 5f1c 053c
00000240: f72d 78b9 9780 63ba 271f 7dbb 983e 4fbc
00000250: 778f 9a3a b7c5 11bc ff88 91ba 94cb 1abc
00000260: 4ece ce3b 5478 b13a 5ae1 40bc 9ef1 45bb
00000270: 376d 21bc 6744 16bc 3261 b93b b195 49bc
00000280: 35ef 2cbc 586b 913b d48e 6e3b 0abf ed3b
00000290: 4224 99bc 0208 a2ba d3cb 863b de7a 183c
000002a0: 62d2 003c 997c 093a 3725 e13a b120 c6bb
000002b0: 1137 03bc 96d7 25bb 8767 21bc 6259 2c3a
000002c0: 8e23 d23b 7d3d c43b 108d 24bc 61f7 42bc
000002d0: 71a1 2e3c 0c37 31bc 1778 273c 2265 253b
000002e0: 6f8b 29bc 49ef 37bc 0105 c7bb 3fef b33a
000002f0: 27a2 5abb fd77 fdb8 4ee9 20bc bc85 97ba
00000300: 396b 703b ff72 173c 9f18 0b3b fccf e33b
00000310: 0eef 883b 1b25 14bc f913 e53b 6cb9 32bc

arith.constant22 f4 [200, 50]
-0.0058248574 0.12693864 0.08518132 -0.07102085 0.12523611 0.10787104 0.11160859 -0.008839502
0.057202224 0.16223115 -0.11233276 -0.09248263 0.04917538 0.04800492 0.11007287 -0.095752195
0.019214334 -0.10107069 -0.09933878 -0.13000184 0.11845361 -0.012912431 0.09354928 -0.11069801
-0.103292614 -0.059276927 -0.037054572 0.10176075 -0.08906735 0.13207027 -0.00027865445 -0.07903873
0.083720915 -0.040641002 0.06566777 -0.033970717 -0.009043918 0.107113086 0.03623503 -0.11437445
-0.11296327 -0.09068791 0.058850087 -0.07401127 0.08734947 0.11741317 0.14460707 -0.08113397
-0.07336763 -0.09558861 0.10140435 0.05938404 -0.07604381 0.108510375 0.035351347 -0.1003841
0.08196992 -0.05022511 0.10101253 -0.10890899 0.118926436 0.03552436 -0.027986258 0.10112375
0.033644 -0.14905511 0.14620906 0.0077030677 -0.043372404 0.10940866 -0.040902145 -0.057108693
-0.044268455 0.018723741 -0.13848987 0.07741135 -0.007541531 -0.08858441 -0.14513335 0.03724694
0.07999787 0.08694121 -0.14038154 -0.08520176 -0.11129754 -0.15080872 -0.029325584 0.07923403
-0.05290748 -0.11174728 -0.03546068 -0.13965204 -0.023739155 0.07244387 0.12004949 -0.05888476
-0.05499797 -0.03543174 0.075588465 0.05591011 -0.10437599 -0.013441566 0.01934347 0.07589339
-0.09391868 0.072723076 -0.08505653 0.058877874 -0.014177058 0.023152554 -0.011484897 -0.032093883
0.055757508 0.061236266 0.14004311 -0.03985903 -0.12022585 -0.007933549 -0.049024075 -0.103161104
0.07260057 0.12202333 -0.030015944 0.1401042 0.018284611 -0.059613146 -0.047700822 -0.11052334
0.0010093008 0.024546456 -0.064319104 -0.086401336 0.11962053 0.13389403 0.002732544 0.027715072
0.02644766 -0.08538126 -0.08706433 -0.009940392 0.10045197 0.11573031 0.017100977 0.010742473
-0.1466127 -0.02393096 0.057559848 -0.12774193 -0.0699072 0.09301026 -0.111966595 0.13895097
-0.109235846 0.11799946 0.006578976 0.044159986 0.1029052 0.0899178 0.16393824 0.11223991
0.048086215 -0.16161977 -0.03146086 0.07868042 -0.16010225 -0.13259983 0.13491529 -0.045744855
0.14958945 0.017391315 -0.050392278 -0.008872034 -0.10267645 0.1066595 -0.05313411 0.0017387253
-0.04578744 -0.07276918 0.052688003 0.059838437 0.08154407 0.013494826 -0.10492889 -0.07436862
-0.054451507 -0.09737734 -0.038608387 -0.12113955 0.009197391 -0.041664265 0.03865241 0.027872967
-0.03461278 -0.06429533 0.11543949 0.11502704 -0.014755874 0.01975572 -0.12737663 0.018116828
-0.08244897 -0.028576301 -0.10506552 -0.083021924 -0.082008965 -0.024770806 0.04592412 -0.14811607
0.0063104536 0.015174638 0.08420849 0.06059712 0.11030199 0.091280624 -0.104719155 0.104463436
-0.05160001 0.1185291 -0.12089805 0.02058295 0.094780475 -0.15027568 -0.13192509 -0.13478145
-0.0908411 -0.0033967304 -0.1310591 0.077933274 -0.015712244 -0.058388818 0.05760861 -0.0737648
0.14436726 0.1250602 0.14841923 -0.026822824 0.079690985 -0.14706187 -0.078917086 -0.10976918
0.086399235 0.1519207 0.104411185 -0.15019602 0.11989514 0.009260155 0.008182746 -0.08482155
0.061768055 0.11501667 0.058985826 -0.07161539 -0.13689126 -0.069852084 0.1034624 -0.08452304
00000000: 72de bebb 34fc 013e 8b73 ae3d 6173 91bd
00000010: e53d 003e 7eeb dc3d 0b93 e43d 8fd3 10bc
00000020: e14c 6a3d ec1f 263e b80e e6bd 8867 bdbd
00000030: 206c 493d cfa0 443d e36d e13d ba19 c4bd
00000040: 6167 9d3c 26fe cebd 2172 cbbd 341f 05be
00000050: ce97 f23d a98e 53bc c496 bf3d a3b5 e2bd
00000060: 148b d3bd 5dcc 72bd 89c6 17bd f167 d03d
00000070: f168 b6bd 6e3d 073e 5e18 92b9 0fdf a1bd
00000080: df75 ab3d 2e77 26bd d37c 863d e124 0bbd
00000090: f12c 14bc 1b5e db3d 2f6b 143d 273d eabd
000000a0: 4959 e7bd 95ba b9bd ca0c 713d 3993 97bd
000000b0: 47e4 b23d 5176 f03d e013 143e 9129 a6bd
000000c0: c541 96bd f6c3 c3bd 15ad cf3d ae3c 733d
000000d0: dbbc 9bbd b03a de3d 93cc 103d 2e96 cdbd
000000e0: d8df a73d d8b8 4dbd a8df ce3d ad0b dfbd
000000f0: b48f f33d fe81 113d 7043 e5bc f819 cf3d
00000100: 4ace 093d e7a1 18be d4b7 153e 046a fc3b
00000110: 43a7 31bd a611 e03d 0289 27bd ceea 69bd
00000120: d752 35bd 8862 993c 4ad0 0dbe d889 9e3d
00000130: f31e f7bb be6b b5bd d69d 14be 3f90 183d
00000140: ecd5 a33d 3c0e b23d 2ec0 0fbe 437e aebd
00000150: f7ef e3bd 9a6d 1abe 353c f0bc 7345 a23d
00000160: 84b5 58bd c2db e4bd 383f 11bd f200 0fbe
00000170: 9e78 c2bc 745d 943d 82dc f53d 2531 71bd
00000180: 8d45 61bd df20 11bd 20ce 9a3d 0002 653d
00000190: 14c3 d5bd 043a 5cbc 3276 9e3c fe6d 9b3d
000001a0: 7058 c0bd d6ef 943d 1e32 aebd ed29 713d
000001b0: e446 68bc 6daa bd3c 262b 3cbc e074 03bd
000001c0: fc61 643d e1d2 7a3d 7667 0f3e 3943 23bd
000001d0: f838 f6bd b7fb 01bc 78cd 48bd 2146 d3bd
000001e0: 9caf 943d 5ee7 f93d ffe3 f5bc 7a77 0f3e
000001f0: 9cc9 953c ea2c 74bd f061 43bd 105a e2bd
00000200: 844a 843a a615 c93c bcb9 83bd 2ff3 b0bd
00000210: 9cfb f43d 841b 093e 7b14 333b b80a e33c
00000220: c3a8 d83c 5fdc aebd c94e b2bd 07dd 22bc
00000230: c3b9 cd3d 0304 ed3d 5917 8c3c 3301 303c
00000240: a421 16be dc0a c4bc e0c3 6b3d c8ce 02be
00000250: 822b 8fbd 2a7c be3d be4e e5bd 2a49 0e3e
00000260: 0bb7 dfbd b3a9 f13d 7394 d73b 1ae1 343d
00000270: f6bf d23d d326 b83d 6ddf 273e 0ade e53d
00000280: 0df6 443d a77f 25be 1add 00bd 3323 a13d
00000290: d8f1 23be 40c8 07be 3c27 0a3e f55e 3bbd
000002a0: fa2d 193e 3b78 8e3c 2268 4ebd 025c 11bc
000002b0: 0848 d2bd 4c70 da3d 27a3 59bd f1e5 e33a
000002c0: 9c8b 3bbd 0208 95bd 60cf 573d 2619 753d
000002d0: 9400 a73d 6719 5d3c f5e4 d6bd 934e 98bd
000002e0: 8b08 5fbd c56d c7bd d423 1ebd 0318 f8bd
000002f0: a7b0 163c 26a8 2abd fd51 1e3d d955 e43c
00000300: 21c6 0dbd 45ad 83bd 8a6b ec3d 4c93 eb3d
00000310: 9fc2 71bc bfd6 a13c 056f 02be be69 943c
00000320: 01db a8bd d918 eabc 972c d7bd 6607 aabd
00000330: 51f4 a7bd 25ec cabc ee1a 3c3d bdab 17be
00000340: ecc7 ce3b 0b9f 783c 8075 ac3d b034 783d
00000350: 02e6 e13d 56f1 ba3d ff76 d6bd edf0 d53d
00000360: 885a 53bd 63bf f23d 6699 f7bd 939d a83c
00000370: 441c c23d dee1 19be 5f17 07be 2604 0abe
00000380: e60a babd ae9b 5ebb 5b34 06be 7b9b 9f3d
00000390: f7b6 80bc 1d29 6fbd 01f7 6b3d 0012 97bd
000003a0: 03d5 133e c80f 003e 36fb 173e 8abb dbbc
000003b0: 0735 a33d 6397 16be 489f a1bd aace e0bd
000003c0: 15f2 b03d 1a91 1b3e 88d5 d53d fccc 19be
000003d0: 958b f53d e8b7 173c ed10 063c ecb6 adbd
000003e0: 8000 7d3d dc8d eb3d 1f9b 713d 17ab 92bd
000003f0: 392d 0cbe 9c0e 8fbd 18e4 d33d 6a1a adbd

arith.constant23 f4 [200, 50]
-0.020155052 -0.09712655 0.019921998 0.028435145 -0.08961691 0.04252708 -0.07420458 -0.094633915
-0.09668312 0.09019182 -0.05856213 0.123054534 0.12820603 -0.055069234 -0.020331983 0.014499631
-0.020301573 0.054781873 -0.024046978 -0.06788038 0.02525542 -0.016393172 0.019840065 0.047507215
0.032590676 -0.013680873 0.09699987 0.036441825 -0.008502485 -0.14346343 -0.013213658 0.0038407182
0.019893607 0.03246806 0.07551889 0.021388056 -0.065337956 0.044353902 -0.1263278 -0.031034987
-0.048014183 0.04049869 0.048856523 -0.048867833 0.11637059 0.059978336 -0.10431487 -0.13448961
-0.04182486 0.062911645 0.073911116 0.029710209 0.0047829384 -0.019834124 -0.024963971 -0.08986651
0.0068922713 0.09348312 0.028738076 -0.052579533 -0.09177522 0.052166697 0.023554152 0.0009562433
-0.010373166 0.034130376 0.07501129 -0.0055953977 0.05027458 -0.043239906 0.044442445 0.17569749
-0.12541229 -0.017244134 -0.04425169 -0.05220922 -0.032791052 -0.06038673 0.040543772 0.04401523
-0.0056120446 -0.025627948 0.002721544 -0.0828964 0.105620965 0.017286649 0.03787987 0.052391786
0.01576006 -0.058678843 0.085079186 0.17078656 0.0024578236 -0.15896676 0.11876439 -0.09975929
-0.03637023 -0.010045333 0.23376472 -0.07315412 -0.069888145 -0.06910908 0.094674915 0.07347617
0.018371297 0.010885075 0.06539147 -0.05380804 0.13468415 0.032565646 -0.018839914 -0.08066724
-0.042962607 -0.048079737 0.04635115 0.017035792 0.105050854 0.07195541 -0.030696016 -0.023493607
-0.00011405581 -0.042459276 0.00830707 0.009640144 0.042691454 0.041184206 -0.03976625 -0.11890015
0.06939051 -0.02612457 0.06267019 -0.038112674 0.009022344 -0.151738 0.10950905 -0.06158892
0.0749105 0.12846982 0.141159 -0.081017695 0.05206368 -0.05255121 0.04471806 0.038094405
-0.06422032 0.11279225 0.013997576 -0.0262413 0.045321904 0.014348286 -0.015388512 -0.017702408
0.01604535 0.09436904 -0.03381814 0.12716608 -0.048863918 -0.03698844 0.014609323 -0.03602636
-0.011861632 0.004861711 -0.042089354 0.10331929 -0.105376616 -0.094764836 -0.02002045 -0.008695272
0.08370126 -0.031078994 0.044772636 0.021235855 0.031408306 0.14134148 0.04783659 -0.08015482
0.07304744 -0.023783522 -0.074183956 0.06993938 0.023790943 -0.038617287 -0.04109937 0.0114443265
-0.0600683 0.05783483 0.07081657 0.019208206 0.023433212 0.1933808 -0.02471407 0.103283696
0.06854757 0.029573545 0.03655243 -0.0057697413 0.05102769 0.02401715 0.1415021 -0.088632375
-0.007868275 0.10753806 0.1533506 -0.014303511 -0.11632655 -0.011866396 0.081360295 0.011798649
0.06689044 -0.06845953 -0.07242497 -0.04689128 -0.043046925 0.06398254 0.07322599 -0.15192339
0.045068067 -0.045239873 0.013476452 0.17512026 -0.098707415 -0.008619288 0.0871939 0.020998783
0.0063658715 0.024345431 0.047559142 -0.013454952 -0.09998133 -0.10426278 -0.08195267 0.05877761
0.042196758 0.07168667 -0.027177388 -0.09839529 -0.01184522 0.0047670016 -0.0015988689 0.105742164
-0.067142755 0.1368811 -0.031043231 0.07441534 0.05569004 -0.008406204 0.062841915 0.0069375844
0.07229335 0.004357301 0.14593863 -0.04442653 0.0005303547 -0.061059117 0.14328848 -0.017668845
00000000: 351c a5bc 49ea c6bd 7533 a33c d2f0 e83c
00000010: 1289 b7bd e030 2e3d 92f8 97bd 6dcf c1bd
00000020: cd01 c6bd 7db6 b83d d8de 6fbd 0404 fc3d
00000030: 7148 033e 4790 61bd 428f a6bc dc8f 6d3c
00000040: 7c4f a6bc f562 603d 2bfe c4bc de04 8bbd
00000050: 74e4 ce3c f94a 86bc a287 a23c ed96 423d
00000060: cd7d 053d be25 60bc dea7 c63d 0644 153d
00000070: 024e 0bbc 14e8 12be 197e 58bc 8fb4 7b3b
00000080: ebf7 a23c 3afd 043d a6a9 9a3d 0136 af3c
00000090: e8cf 85bd 70ac 353d 135c 01be 163d febc
000000a0: 85aa 44bd f4e1 253d c71d 483d a329 48bd
000000b0: b453 ee3d d8ab 753d 09a3 d5bd a5b7 09be
000000c0: 8b50 2bbd d2d7 803d b65e 973d d362 f33c
000000d0: 32ba 9c3b 2c7b a2bc 3e81 ccbc ef0b b8bd
000000e0: 90d8 e13b 1474 bf3d 1d6c eb3c a35d 57bd
000000f0: a6f4 bbbd bfac 553d a3f4 c03c 67ac 7a3a
00000100: 36f4 29bc 4bcc 0b3d 859f 993d 9959 b7bb
00000110: b8ec 4d3d 541c 31bd 4809 363d 0bea 333e
00000120: 146c 00be 9243 8dbc 4341 35bd 56d9 55bd
00000130: e94f 06bd 1358 77bd 3a11 263d 5049 343d
00000140: 3ee5 b7bb b4f1 d1bc ee5b 323b 96c5 a9bd
00000150: ce4f d83d bb9c 8d3c ec27 1b3d c598 563d
00000160: 3e1b 813c 3a59 70bd ff3d ae3d ace2 2e3e
00000170: 7013 213b 2fc8 22be bf3a f33d 994e ccbd
00000180: f3f8 14bd 2e95 24bc 0560 6f3e d4d1 95bd
00000190: 8421 8fbd 1089 8dbd ece4 c13d ad7a 963d
000001a0: 677f 963c 5057 323c f7eb 853d d265 5cbd
000001b0: a4ea 093e 8e63 053d 2a56 9abc de34 a5bd
000001c0: 8ff9 2fbd 42ef 44bd b4da 3d3d a58e 8b3c
000001d0: e724 d73d 5c5d 933d 3676 fbbc aa75 c0bc
000001e0: 3f31 efb8 c7e9 2dbd 601a 083c b2f1 1d3c
000001f0: 3cdd 2e3d c5b0 283d efe1 22bd ec81 f3bd
00000200: 9d1c 8e3d 3203 d6bc 3b59 803d 091c 1cbd
00000210: 74d2 133c 3561 1bbe 4846 e03d aa44 7cbd
00000220: ad6a 993d 988d 033e fc8b 103e 9bec a5bd
00000230: ba40 553d f03f 57bd 492a 373d e108 1c3d
00000240: f185 83bd a0ff e63d 1756 653c fff7 d6bc
00000250: 76a3 393d 1315 6b3c 1920 7cbc a404 91bc
00000260: 8a71 833c 8e44 c13d e484 0abd d337 023e
00000270: 8825 48bd 3181 17bd f15b 6f3c 6090 13bd
00000280: 4a57 42bc fd4e 9f3b e365 2cbd 1099 d33d
00000290: b2cf d7bd 1114 c2bd ed01 a4bc 9d76 0ebc
000002a0: 916b ab3d 6099 febc 8363 373d d1f6 ad3c
000002b0: ffa5 003d d2bb 103e 4df0 433d 3628 a4bd
000002c0: e599 953d a9d5 c2bc c2ed 97bd 613c 8f3d
000002d0: 39e5 c23c 292d 1ebd d057 28bd fc80 3b3c
000002e0: 2e0a 76bd 37e4 6c3d 4708 913d 875a 9d3c
000002f0: 02f7 bf3c 9e05 463e 2975 cabc 6786 d33d
00000300: ab62 8c3d 3844 f23c 00b8 153d 1910 bdbb
00000310: 6902 513d 9dbf c43c ede5 103e e484 b5bd
00000320: f0e9 00bc ea3c dc3d f107 1d3e 4659 6abc
00000330: 9d3c eebd 466b 42bc 3aa0 a63d 1f4f 413c
00000340: dbfd 883d 8334 8cbd 8b53 94bd 1211 40bd
00000350: f951 30bd 4709 833d 82f7 953d ce91 1bbe
00000360: 4b99 383d 724d 39bd 56cc 5c3c ba52 333e
00000370: 1d27 cabd ea37 0dbc b792 b23d a405 ac3c
00000380: cd98 d03b 1270 c73c 60cd 423d 2972 5cbc
00000390: 03c3 ccbd b987 d5bd cdd6 a7bd cbc0 703d
000003a0: 82d6 2c3d 76d0 923d 1da3 debc 7883 c9bd
000003b0: 7412 42bc 8234 9c3b 2391 d1ba 598f d83d
000003c0: 2482 89bd 8f2a 0c3e 604e febc 1267 983d
000003d0: 3d1b 643d 2dba 09bc 43b3 803d ad54 e33b
000003e0: 890e 943d b1c7 8e3b f070 153e 98f8 35bd
000003f0: 8007 0b3a 2019 7abd 37ba 123e 41be 90bc

sequential_1/lstm_1_2/while/lstm_cell_1/add_1/ReadVariableOp f4 [200]
0.0073417686 -0.0071003423 -0.008846862 -0.010810608 -0.009683358 -0.0002901362 -0.01220724 0.00034205962
-0.011190557 -0.007239796 -0.01420658 -0.009432717 -0.011395548 -0.012445991 0.0048122997 -0.009683278
0.005728345 0.00077132945 0.005740342 -0.013403327 0.0027204487 -0.012306614 -0.012796632 -0.012925371
0.005642062 0.0016831016 -0.004715674 -0.008590589 -0.007995039 0.00456088 0.014258314 0.0038368087
-0.003643683 -0.004836395 -0.0072980765 0.0040063825 -0.01169114 -0.0125186695 0.006884585 -0.0009634269
-0.012947684 -0.01047808 -0.011168438 0.0014493212 -0.00034395757 0.0023895965 0.025507526 0.0133598205
0.007255042 0.004799707 1.0061378 0.9917764 0.99111855 0.9892946 0.9894437 0.9991234
0.9876123 0.9997512 0.9883148 0.9922297 0.9858366 0.9906439 0.9882694 0.98738605
1.0033487 0.9900882 1.0045252 1.0005462 1.0044705 0.98618436 1.0015872 0.9882557
0.9869561 0.98438543 1.0045968 1.0009402 0.9944441 0.99097586 0.9900084 1.0037134
1.0112082 1.0024583 0.99630994 0.9951815 0.9920507 0.9963507 0.9846083 0.98751986
1.005484 0.9979465 0.9869192 0.9893615 0.9888623 1.0004407 0.9993761 1.0015489
1.0191942 1.0100863 1.005957 1.0033841 -0.0034724316 0.0063310117 0.0028266292 0.011269852
-0.004792671 0.0025393388 0.008216085 -0.003696415 0.005517555 0.0027455585 0.006182353 -0.010354561
-0.006750164 -0.011883571 0.001972981 0.009390602 -0.0039066756 -0.002351882 0.0023352664 0.015817167
-0.0028403723 -0.008533983 -0.009066691 0.010776893 0.003393382 0.0028666537 -0.004413591 -0.00981157
-0.008791872 -0.004121952 -0.0031481236 0.00049762044 0.006845395 0.0015908477 -0.006016124 0.008381768
0.007981994 -0.007918468 -0.0045925374 0.0039973217 0.0065253 0.006930528 -0.011585336 -0.0041816738
-0.0022898149 0.0010765913 -0.0044357115 0.0018252052 0.002594833 0.0045061107 0.007085352 -0.00672782
-0.008998105 -0.01080249 -0.009696932 -0.00042721885 -0.012290108 0.0002721156 -0.011152441 -0.007307047
-0.014101246 -0.009461377 -0.011314288 -0.012467498 0.0046438375 -0.0096950205 0.0054979604 0.0006903953
0.0055653937 -0.013472753 0.0023287057 -0.012301792 -0.012544078 -0.013061688 0.005824823 0.0015800486
-0.004741436 -0.008352918 -0.008245305 0.004392515 0.0145469755 0.0038648248 -0.0037108853 -0.0048535615
-0.0073733926 0.0043056677 -0.011791981 -0.012390528 0.0068390984 -0.0008914312 -0.012830887 -0.010390032
-0.011199905 0.0017379463 -0.00039563284 0.0022549524 0.025391113 0.013368467 0.007391288 0.004639329
00000000: 3893 f03b fda9 e8bb 6ef2 10bc fa1e 31bc
00000010: f2a6 1ebc 6c1d 98b9 e000 48bc 7756 b339
00000020: 9958 37bc d03b edbb b7c2 68bc af8b 1abc
00000030: 64b4 3abc 45ea 4bbc 7fb0 9d3b 9da6 1ebc
00000040: d7b4 bb3b 0b33 4a3a 7b19 bc3b a199 5bbc
00000050: 8e49 323b aea1 49bc f7a8 51bc efc4 53bc
00000060: 0ce1 b83b 859b dc3a f185 9abb 8bbf 0cbc
00000070: a0fd 02bc 6f73 953b b49b 693c f872 7b3b
00000080: dbca 6ebb 9f7a 9ebb b424 efbb f947 833b
00000090: 328c 3fbc 1b1b 4dbc 1698 e13b 7c8e 7cba
000000a0: 8622 54bc 41ac 2bbc d3fb 36bc 26f7 bd3a
000000b0: 3455 b4b9 c79a 1c3b 29f5 d03c 26e3 5a3c
000000c0: b4bb ed3b dc46 9d3b 20c9 803f 0fe5 7d3f
000000d0: f2b9 7d3f 6942 7d3f 2f4c 7d3f 8dc6 7f3f
000000e0: 29d4 7c3f b2ef 7f3f 3302 7d3f c402 7e3f
000000f0: ca5f 7c3f d79a 7d3f 39ff 7c3f 55c5 7c3f
00000100: bb6d 803f 6c76 7d3f 4894 803f e611 803f
00000110: 7d92 803f 9476 7c3f 0234 803f 53fe 7c3f
00000120: 28a9 7c3f af00 7c3f a196 803f cf1e 803f
00000130: e393 7e3f 98b0 7d3f 3171 7d3f ae79 803f
00000140: 456f 813f 8e50 803f 2b0e 7f3f 37c4 7e3f
00000150: 09f7 7d3f d710 7f3f 4a0f 7c3f 1ace 7c3f
00000160: b3b3 803f 6c79 7f3f bda6 7c3f cc46 7d3f
00000170: 1426 7d3f 710e 803f 1dd7 7f3f c132 803f
00000180: f574 823f 824a 813f 33c3 803f e46e 803f
00000190: bc91 63bb 6074 cf3b f83e 393b 2fa5 383c
000001a0: d70b 9dbb 096b 263b c29c 063c 8e3f 72bb
000001b0: 9bcc b43b d4ee 333b 5695 ca3b 2da6 29bc
000001c0: 7b30 ddbb 4fb3 42bc 214d 013b 0adb 193c
000001d0: 9203 80bb 0822 1abb 450b 193b 0193 813c
000001e0: 8a25 3abb 1ed2 0bbc 758c 14bc 9191 303c
000001f0: 8163 5e3b 78de 3b3b e39f 90bb b5c0 20bc
00000200: c90b 10bc 7111 87bb c050 4ebb be72 023a
00000210: 564f e03b fe83 d03a e822 c5bb af53 093c
00000220: e9c6 023c 76bc 01bc ff7c 96bb f7fb 823b
00000230: 2fd2 d53b 7c19 e33b 6cd0 3dbc 6c06 89bb
00000240: b810 16bb 691c 8d3a 7259 91bb b93b ef3a
00000250: 130e 2a3b ffa7 933b 3e2c e83b 0b75 dcbb
00000260: ca6c 13bc edfc 30bc e1df 1ebc 58fc dfb9
00000270: 735c 49bc bdaa 8e39 bab8 36bc f46f efbb
00000280: ea08 67bc e403 1bbc 905f 39bc 7a44 4cbc
00000290: 552b 983b ddd7 1ebc 3c28 b43b a5fb 343a
000002a0: e85d b63b d2bc 5cbc 339d 183b 758d 49bc
000002b0: ad85 4dbc b100 56bc 28de be3b a219 cf3a
000002c0: 0c5e 9bbb adda 08bc 5117 07bc 16ef 8f3b
000002d0: 7056 6e3c 0049 7d3b 5332 73bb a00a 9fbb
000002e0: 809c f1bb 8f16 8d3b 2733 41bc a401 4bbc
000002f0: 841a e03b efae 69ba a438 52bc f43a 2abc
00000300: ce7f 37bc cdcb e33a f16c cfb9 d3c7 133b
00000310: 0601 d03c 6a07 5b3c 9e32 f23b 8305 983b
