models/SOL_lstm_model.tflite (tflite, 145900 bytes, 8 tensors)

arith.constant4 f4 [1, 25]
000000 5f 9d 76 bd 88 f2 93 3d 21 c7 07 bd af c2 84 3e
       -0.060208675 0.072239935 -0.03314889 0.25929782
000010 2b 3b 9a be 09 7f a9 3e 1c 27 9e 3e 33 77 06 3e
       -0.30123267 0.33104733 0.30889213 0.13131408
000020 09 e0 b8 3e 94 cc e5 3e 78 f8 d7 be c7 17 34 3e
       0.36108425 0.44882643 -0.42181754 0.17587195
000030 28 ae 7d 3d 40 9c c1 be 5b a5 df 3e f7 31 ba be
       0.061933666 -0.37814522 0.43680844 -0.36366245
000040 39 83 92 bd 0f b6 ef bc 66 f0 b5 be b9 54 c1 3d
       -0.07153935 -0.029261617 -0.35534972 0.09439988
000050 5e 8d 0b 3e 1b e4 be 3e a5 95 a7 bc d8 a5 a4 bc
       0.13628146 0.37283406 -0.020457098 -0.020098612
000060 49 20 93 3c
       0.01795973

arith.constant5 f4 [25, 50]
000000 f6 7c 28 3e 75 8d 64 be 1a 5a 99 3d b2 49 d0 3d
       0.16453919 -0.22319587 0.07487889 0.10170306
000010 ba c5 a4 3d d4 79 81 be 05 c6 5b 3e f5 19 6e be
       0.08045526 -0.2528826 0.21462257 -0.2325209
000020 36 b7 87 3d 67 a8 4d 3e 46 cf 77 be d3 2c 2d bd
       0.066267416 0.20083772 -0.24200162 -0.042279076
000030 77 93 05 be d2 bc 89 be e8 b7 ad 3d 83 5b 2f 3d
       -0.13044535 -0.2690187 0.08482343 0.04281188
000040 c8 4c 32 3e e9 82 9c 3d e5 87 2f 3e 10 34 56 be
       0.17412102 0.07642157 0.17141683 -0.20918298
000050 62 92 86 be ea a7 03 be 94 53 bc 3d 55 c2 d1 bd
       -0.26283556 -0.12857023 0.09195629 -0.10242144
000060 4a d4 6d 3e 80 e4 3d be c7 fb 1d 3e 3e d4 40 3e
       0.23225513 -0.18544197 0.15428077 0.18830964
000070 a9 37 a2 3d 26 34 35 bd 21 cb 34 3c 77 d2 f2 3d
       0.079207726 -0.044239186 0.011034758 0.11856549
000080 87 c5 d0 bd 10 66 1c be ee 12 3a be 40 09 b1 bd
       -0.10193925 -0.15273309 -0.18171284 -0.086443424
000090 96 5a 65 be 1f cc 85 be 6c 81 94 3e 17 e7 2f be
       -0.22397837 -0.26132295 0.2900499 -0.17177998
0000a0 23 2a 0e 3e 88 fd fa bd 62 d6 0a 3d 37 87 4b be
       0.13883261 -0.122553885 0.033895858 -0.19875799
0000b0 3a 35 71 3e d9 62 59 bc 21 48 6a be 63 11 0f be
       0.2355546 -0.013268196 -0.22879077 -0.13971476
0000c0 d3 9b 84 be c8 70 8b be fa 2c 35 3e 21 49 53 3e
       -0.25900134 -0.27234483 0.17692938 0.20633365
0000d0 56 3c f2 bd 36 1d 29 3e 61 79 2d 3c 41 09 86 bd
       -0.118279144 0.1651505 0.010588021 -0.06544734
0000e0 e7 7a 56 3e fd 69 88 be 9b 0d e4 3c c0 05 3e bd
       0.20945321 -0.26643363 0.027838519 -0.046392202
0000f0 33 48 24 bd 82 07 0e 3e 8f 0e 92 3e 52 10 39 be
       -0.040107917 0.13870052 0.28526732 -0.18072632
000100 b0 33 dd 3b e3 37 b9 bd 3d c7 86 3e 1e 80 31 be
       0.0067505464 -0.09043863 0.26323882 -0.17334029
000110 a1 e8 68 3e 01 49 20 3e 28 36 c7 bc c4 6b ee 3d
       0.22744991 0.15652849 -0.024317816 0.116416484
000120 db 7d 20 3e 79 5a cf bd 77 eb 95 bd 0f 8a 93 3d
       0.1567301 -0.10124678 -0.07320302 0.07204067
000130 cb 76 30 3e bd 4a 81 3e c8 af 50 3d 53 36 5e be
       0.17232816 0.25252333 0.050948888 -0.2170041
000140 91 14 11 3e c6 85 1b 3d 61 9f 53 3d 2f df 93 3d
       0.14168002 0.037969373 0.051665667 0.07220303
000150 79 ac 86 3e 68 08 47 be 36 a2 f4 bc 51 65 85 3e
       0.2630346 -0.194368 -0.029862504 0.2605386
000160 ea cf 77 be d2 b4 83 3e 06 26 49 3e e7 ec 90 bd
       -0.24200407 0.25723892 0.19643411 -0.070764355
000170 55 b3 bd 3d 94 80 5d 3e 88 cd 2e be 3a 6c d8 bc
       0.092627205 0.2163108 -0.17070591 -0.026418794
000180 52 72 b2 3d d0 51 89 3e 14 a8 70 3e 98 e5 68 3e
       0.08713211 0.2682023 0.23501617 0.22743833
000190 8a 33 44 3e a9 7f 1f 3e 78 7f 1e 3e 74 ef 71 3e
       0.19160286 0.15576042 0.15478313 0.236265
0001a0 e8 3a 5e be 4c f8 34 3e f1 92 2f be df 66 b6 3d
       -0.21702158 0.17672843 -0.17145897 0.0890634
0001b0 e7 c9 8c be 6a 5a 3e 3e ba e7 88 be d0 b2 79 be
       -0.2749779 0.18589178 -0.26739293 -0.24384618
0001c0 0b 81 54 bd 2a e0 3d 3e 3a 72 45 3e 6c 2b ea 3d
       -0.051880877 0.18542543 0.19281855 0.11434063
0001d0 9f 05 67 be 48 4d 61 bd 54 8c bf 3c 51 12 79 bd
       -0.22560738 -0.05500534 0.023382343 -0.060808484
0001e0 55 0f 58 3d 50 b4 4b 3e a6 ca 10 3d e8 d6 32 3e
       0.052748997 0.19893003 0.03534951 0.17464793
0001f0 4a 31 d4 3c 7c 55 80 bd 12 12 43 3e a2 7e 74 3e
       0.02590241 -0.06266305 0.19049862 0.23876432
000200 65 c6 8e 3e e5 35 70 3c 9a 32 80 be 9f ef 0a 3d
       0.27885738 0.014661287 -0.25038606 0.033919927
000210 f5 09 ff 3d 8d a5 48 be 3b 05 3a 3e 57 b6 32 be
       0.12453071 -0.19594403 0.18166058 -0.1745237
000220 9f f1 52 3e 59 31 91 be 62 d6 2c be a1 ee 29 bd
       0.20599984 -0.28357962 -0.16878656 -0.04148734
000230 86 d0 81 be fc 49 8d be 54 59 0b 3e cf 48 86 3e
       -0.25354403 -0.27595508 0.13608295 0.26227424
000240 b6 6d 6d be f2 34 7c 3e d3 ca 92 be b8 a8 44 3e
       -0.23186383 0.24629572 -0.28670368 0.19204986
000250 3c 7a 28 be bc 03 ee bd fe 67 ff 3d 27 ea 32 be
       -0.16452879 -0.11621806 0.12471007 -0.17472135
000260 8b 0c e6 bd c6 c4 77 bd f0 17 72 be 4b 6a 5e bd
       -0.11232861 -0.060490392 -0.23641944 -0.054300588
000270 d9 89 75 be 14 68 3b 3c f8 08 50 3e ed 3c 43 3e
       -0.23978366 0.011438388 0.20315921 0.1906621
000280 8f 30 7b 3d 74 bc c5 bc eb 8b 43 be 78 33 5c bd
       0.061325606 -0.024137713 -0.19096343 -0.053760022
000290 c8 2b 80 bb 38 f2 3e bd 1d 73 03 3c 7c da 94 3d
       -0.003911469 -0.046617717 0.008023051 0.07268235
0002a0 25 8c af bd 35 1c 75 3d 3e 69 a9 3d 0b ed 58 be
       -0.08571652 0.059841353 0.082720265 -0.21184175
0002b0 27 88 62 bd 61 f4 b7 3d 44 47 0a 3e 8a 89 f7 bd
       -0.055305626 0.089821585 0.13503748 -0.1208678
0002c0 84 12 8a bc 74 6f 41 be 2e d0 3c 3e ef 44 13 be
       -0.016854532 -0.18890172 0.18438789 -0.14381765
0002d0 d0 04 54 3e 6a 68 6a 3e a9 bd 37 3e 72 d6 4e be
       0.20704961 0.22891393 0.17943443 -0.20198992
0002e0 24 4a d3 bb 3b 49 15 3d b5 bc 10 3d 13 0c d4 bd
       -0.0064480472 0.03644679 0.035336215 -0.103538655
0002f0 f6 5c 7c 3e 49 6a 01 3e 94 c7 07 bd c8 be 09 bd
       0.24644837 0.12638201 -0.033149317 -0.03362921
000300 b8 0b 88 be 67 06 6f bd da 29 5b bd eb f1 8f be
       -0.2657144 -0.058355715 -0.05350671 -0.28114256
000310 05 6b 60 bc 59 56 88 be 77 34 8b 3e 33 8f 1f be
       -0.01369739 -0.26628378 0.27188465 -0.1558197
000320 9c b4 a3 3d 20 2d ad 3d 22 61 e9 3c 57 f4 73 be
       0.07993433 0.084558725 0.0284887 -0.23823677
000330 14 92 92 3b bd 13 89 be a0 a1 80 be 67 57 1a 3e
       0.0044729803 -0.26772872 -0.2512331 0.15072404
000340 cf be 6c bd 6e 15 1b bc 40 b4 80 bc f0 12 78 3c
       -0.057799157 -0.009465558 -0.01571095 0.015141234
000350 c7 a5 85 3e cc 66 4b 3e 9c 75 4b 3e de 56 47 bc
       0.2610304 0.19863433 0.19869083 -0.012166707
000360 36 3b 13 be 0a 2f 8c be 44 79 21 be 82 bd 3a 3e
       -0.14378056 -0.27379638 -0.15768915 0.18236354
000370 f4 84 8c 3e 6a bd 77 3e a6 70 d0 bd 03 e5 9f be
       0.27445185 0.2419335 -0.10177736 -0.3122941
000380 f0 31 80 3e 25 e8 45 3e 2d 9d 3a 3e ef f8 f6 3d
       0.250381 0.19326837 0.1822402 0.12059199
000390 85 5a 78 be bf 51 63 3e 5a 00 a0 3d dc 65 84 3e
       -0.2425328 0.22199152 0.07812567 0.25858963
0003a0 43 f4 89 3d 6e c1 97 bd d1 f0 a7 bd e5 fe 7b be
       0.06736042 -0.07409941 -0.08200229 -0.24608953
0003b0 97 ad 84 3c 2c 4a c0 3d 76 55 5b be cb 69 60 bd
       0.016196055 0.09389147 -0.2141932 -0.054788392
0003c0 50 b0 7b be ef 28 a6 bd 91 29 42 be 6a 71 20 3e
       -0.24578977 -0.08113276 -0.18961169 0.15668264
0003d0 cd 7b 03 3d e3 b6 a6 3c ef 5c e7 ba 5e 2a 35 3e
       0.032100488 0.020350879 -0.0017651598 0.17691943
0003e0 2c 3f 11 be 73 0b 1d 3e db 1b 93 be 7c 22 3b 3e
       -0.14184254 0.15336399 -0.2873219 0.18274873
0003f0 42 3d c1 bc fb 98 10 3e 66 f4 0a bd 1e b3 83 be
       -0.02358878 0.14120857 -0.033924483 -0.25722593

arith.constant17 f4 [200, 1]
000000 b1 e2 13 be b6 0c a7 3d 9f 35 e2 bd 2d 5b 7d bd
       -0.14441945 0.08156721 -0.11045384 -0.06185453
000010 fe 56 fd bc 87 db 19 be d0 b6 1c 3d da a4 34 be
       -0.03092527 -0.1502515 0.03826028 -0.17641011
000020 3e 9b 93 bc ba 84 80 3d 7c bb 0c be 45 e8 56 3d
       -0.018018361 0.062753156 -0.13743395 0.052467603
000030 26 84 e8 3d bc 9c eb bd 9c 48 02 be d9 11 12 3d
       0.1135333 -0.11504504 -0.12723011 0.035661552
000040 b2 79 0f be 5e c3 23 bb 1d 14 13 bd 39 02 df 3c
       -0.14011267 -0.0024988274 -0.035907853 0.02722274
000050 b1 63 47 3d 39 51 8c 3d 37 10 24 be 2a 33 b4 bd
       0.048679058 0.068514295 -0.1602181 -0.08798821
000060 0d ba b4 bc 7f 3c 69 3d 9c d0 9d 3d 94 bd 67 3d
       -0.022061372 0.05694246 0.07705805 0.05657728
000070 43 7f d2 3d 86 b0 f4 bd 04 44 68 3d e0 63 3b 3d
       0.102781795 -0.11947732 0.05670549 0.045749545
000080 5d 24 0e be ed a3 2b 3e 03 0b 96 bb 00 a7 a6 bd
       -0.13881059 0.16761751 -0.0045789494 -0.081373215
000090 a6 a3 10 3e 6a 98 0b 3e c5 55 ef 3c 63 15 02 3e
       0.14124927 0.1363236 0.029215703 0.12703471
0000a0 78 ca d5 3d 63 e2 86 3d 07 3d e9 3d 4e 8a 12 3e
       0.104390085 0.065861486 0.11388593 0.14310572
0000b0 81 27 b3 b9 99 0d 0e 3e ee cc 7c 3d 11 b9 23 be
       -0.00034170973 0.13872375 0.061718874 -0.15988566
0000c0 67 20 ac bd 9d 79 16 be 47 36 77 bd 12 1e df 3d
       -0.08404618 -0.1469483 -0.060354497 0.10894407
0000d0 3e 5b 30 bc 96 a8 80 bc 57 5f 6a 3d a9 64 17 be
       -0.010763941 -0.015705388 0.05721983 -0.14784493
0000e0 c3 4f 84 bd ed d8 ac bd 56 25 3d 3e 91 d5 3d bd
       -0.06460526 -0.08439813 0.18471274 -0.04634625
0000f0 b6 d8 2d bc 78 a8 2c 3e 29 74 33 bd 82 44 0c 3e
       -0.01061075 0.1686114 -0.04381195 0.13698009
000100 49 6a 25 3e 96 cf 0f 3e 43 59 1f 3d ba a7 cf 3d
       0.16153826 0.14044032 0.038903486 0.10139413
000110 b9 90 0b 3e 97 86 b4 3d cc d4 24 3b 04 ee 27 bc
       0.13629426 0.088147335 0.002515125 -0.010249618
000120 e5 29 bb 3d 67 df 9a bd 55 06 d5 3b cf 27 a3 bc
       0.0913885 -0.07562142 0.006500999 -0.019916443
000130 3f 64 0f 3e 8b 2e cb 3d 41 62 59 3d 47 0d 1d be
       0.14003085 0.09920987 0.053072218 -0.15337096
000140 ad b0 1e 3e 10 8b 3a bd 1d b3 23 3d b3 b4 1a be
       0.15497084 -0.045542777 0.039965738 -0.15107994
000150 c7 a3 a8 bd 8f 77 32 3e 41 3b de 3d e3 c5 10 3c
       -0.08234363 0.1742842 0.108511455 0.008836242
000160 42 15 0f 3e 6f c3 c6 bd c7 23 02 be 0f fb 3d bd
       0.13972953 -0.09705245 -0.1270896 -0.046382006
000170 23 e5 ad bd f1 19 93 bd 89 12 34 be ff 7b cd bd
       -0.0849097 -0.07182682 -0.17585196 -0.10033416
000180 8c 97 9b 3d 3e 18 9c bd bd 27 ed bd 42 9e 81 3d
       0.07597265 -0.07621811 -0.11579845 0.063290134
000190 88 85 fc 3d 24 bc 1d 3e af aa 2b bd 6e f4 0e be
       0.123301566 0.15403801 -0.041910823 -0.1396043
0001a0 24 a5 f2 3c 37 86 93 3d 4d 82 0a 3e b4 5d f6 3d
       0.02961976 0.07203334 0.13526268 0.12029591
0001b0 8f 73 2f be 1f 41 fd 3d 78 c1 2d be f4 d3 de bd
       -0.17133926 0.123659365 -0.16968334 -0.108802706
0001c0 fd 6c c0 3c 13 43 e1 3d a8 4e 5c 3d 28 2e 59 bd
       0.02348947 0.109991215 0.05378595 -0.053022534
0001d0 b2 35 a6 3c 5e 13 1a be 30 b9 29 3e 11 e7 87 3c
       0.020289276 -0.1504645 0.1657455 0.016589673
0001e0 aa 46 0f bd 5b 24 07 be fb a3 2b 3e 08 8a 8e 3d
       -0.0349795 -0.13197462 0.16761772 0.06959921
0001f0 5c e9 8c bd 05 f2 08 bd f7 0e cd 3d 22 b3 14 bc
       -0.06880447 -0.033433933 0.1001262 -0.009075912
000200 bf 1e d8 bd ba aa 7c bd 98 5f a3 bd 6d 7f d2 bc
       -0.10552739 -0.061686255 -0.079772174 -0.025695527
000210 6d 77 cc bd 71 ff f1 bb e2 e2 4a bd 3b 07 55 3c
       -0.09983716 -0.0073851873 -0.04953278 0.013002212
000220 3c ef 07 be d8 05 09 bd 21 d6 ab bd 2b ac 82 bd
       -0.13274854 -0.03345284 -0.08390451 -0.06380495
000230 aa 2b 67 3d 1a c4 97 bd c9 f1 c9 bd 63 d7 53 bc
       0.056438126 -0.0741045 -0.0986057 -0.01292977
000240 ff b1 8b 3c f4 dc 11 be d0 04 b3 3d 9e 5c 27 bd
       0.017052649 -0.14244443 0.08741152 -0.04085981
000250 09 b8 fe 3c 64 e3 36 3d f8 dc 25 3d 8c 7c a6 3d
       0.031093614 0.04465045 0.040493935 0.08129224
000260 38 dd 06 3e be 2a 28 bd 23 d1 34 be a1 b2 12 3d
       0.13170326 -0.041056387 -0.17657904 0.035814885
000270 d3 4c 61 3b a3 5e fd 3c 8e 71 35 bd 94 5b bb 3d
       0.0034378066 0.030928915 -0.044297747 0.091483265
000280 60 71 19 3e 69 58 bb bd ec 0d 6f 3d 9b d8 bc bd
       0.14984655 -0.09147722 0.058362886 -0.09221002
000290 ec 40 8f bd ef 50 0f 3d e5 c7 c7 3c 53 d4 92 bd
       -0.06994805 0.034989294 0.02438731 -0.07169404
0002a0 33 e5 09 3d e3 96 f2 bc ac 78 cd 3d d4 73 3b 3a
       0.033665847 -0.029612964 0.10032782 0.00071507436
0002b0 bd fc 18 be 73 0d e7 bd 8a bf 1d be 53 d4 3e 3c
       -0.14940162 -0.11281862 -0.15405098 0.011647302
0002c0 64 7a 3d 3d 29 2b 69 3d 7d 91 dd bd f7 93 01 be
       0.0462593 0.056925926 -0.10818765 -0.126541
0002d0 6a 05 d9 3d 17 a2 0c 3d d1 bd 1a 3e ab 74 0e 3c
       0.10596736 0.03433427 0.15111472 0.008694808
0002e0 d2 0a 99 3d 4e b5 98 bb 69 44 ba 3c a7 ba fc 3d
       0.07472767 -0.004660285 0.022737699 0.123402886
0002f0 f8 54 24 3c 94 42 a2 bd 1a 5a 91 bd 21 8c bd bd
       0.010030024 -0.07922855 -0.07097264 -0.09255243
000300 d9 82 31 be 17 71 21 3d 16 81 43 be 44 67 89 3d
       -0.1733507 0.03941449 -0.19092211 0.067091495
000310 40 15 bf 3d 16 c6 bd bd f5 12 e1 bd 65 65 1b be
       0.09330225 -0.092662975 -0.10989944 -0.15175398

arith.constant18 f4 [200, 50]
000000 2f f2 af bd 46 d1 b2 3c 0c ff 8a bd a3 66 35 3d
       -0.08591115 0.021828305 -0.067869276 0.044287335
000010 15 7c ef 3d 44 c8 4b bd 2f 7d be 3c ca 9b 18 b9
       0.11693589 -0.049751535 0.023253052 -0.00014553886
000020 e1 21 8c bd 00 73 8d bb 3b fa fa 3b 3e a2 1c 3d
       -0.068423994 -0.0043166876 0.0076592243 0.038240664
000030 e9 09 77 bc 4c 30 ea 3c f3 c4 fa 3c 3f 84 44 bc
       -0.015078046 0.028587483 0.03061149 -0.011994421
000040 62 b2 1a 3e aa 38 1d bd 56 bd a6 bc f2 d5 64 bd
       0.1510711 -0.038384117 -0.020353954 -0.055868097
000050 fe a8 4d 3d 5e 34 28 3d 33 a1 03 bd 12 d7 1c be
       0.05020999 0.041065566 -0.032136153 -0.15316418
000060 dc 87 e0 3c 4f 28 cd bd 3d b7 e1 3d 28 c2 c1 bc
       0.027408533 -0.10017454 0.11021278 -0.023652151
000070 09 01 75 3d 11 9e 2c 3e 86 cc 12 3d fb 09 d9 bc
       0.05981544 0.16857173 0.03583958 -0.026494017
000080 f4 ea 8c bd 70 c4 96 3c 65 eb 5d bc ff 2d 27 3d
       -0.06880751 0.018404216 -0.013544892 0.04081535
000090 f5 3d c0 3d 1b 99 43 be d6 be 59 be 88 47 25 bc
       0.09386817 -0.19101374 -0.21264204 -0.010087855
0000a0 35 0e bd bd b5 ea 8d 3d 6d 3e 83 bd 57 3c f3 3d
       -0.092312254 0.069295324 -0.06408391 0.11876743
0000b0 9a 5f 0e bc 80 28 08 3d 80 f8 12 3e f1 1c 89 bd
       -0.008689785 0.03324175 0.14352608 -0.06694973
0000c0 23 1f 0b 3b 91 3e 3e bd 56 d8 ab bd cd 6e 0c 3e
       0.0021228276 -0.046446387 -0.08390872 0.13714142
0000d0 71 7b 03 3d 1b d3 3b be 81 2d 24 bd 43 89 1b 3e
       0.032100145 -0.18342249 -0.04008246 0.1518908
0000e0 31 40 13 3d 10 69 b2 bd f7 ed 72 bd 21 1e 2e bd
       0.03594989 -0.08711445 -0.059308972 -0.042509202
0000f0 a3 1e f9 bc 97 a3 c1 3c 1a cb 1b be 00 56 8e 3d
       -0.030410117 0.023637576 -0.15214196 0.06949997
000100 0d be cb 3d f9 96 36 3c e6 12 88 bb e1 0c e8 3a
       0.09948359 0.011144393 -0.0041526435 0.0017704034
000110 b3 7a 92 3d 75 40 95 bd 77 10 0d be d7 42 f2 bd
       0.07152309 -0.07287685 -0.13775812 -0.11829155
000120 05 3a 32 bd 37 6d 0d 3c e8 8b ba 3c 09 cf f4 ba
       -0.043512363 0.008631996 0.02277179 -0.0018677424
000130 71 8f d2 bc 6e 99 22 bd 87 71 91 3b 48 28 c0 3d
       -0.025703164 -0.039697103 0.0044385823 0.09382683
000140 32 fd b2 bc 56 99 c9 bd b6 b2 5e bd 3c da 3c 3d
       -0.021849249 -0.098437 -0.05436965 0.046106562
000150 64 59 0c bd 3a 6d 26 bc bd ab 6b bd 46 79 14 3d
       -0.034264937 -0.010157878 -0.05753683 0.036248468
000160 07 ab a8 bd 77 27 8e bd 7d 54 50 bb 8d 3b 6a be
       -0.08235746 -0.06941121 -0.003178864 -0.2287428
000170 fc ef ed 3d be 0c 99 3d 27 b8 a0 bd cc e2 0c be
       0.11618039 0.074731335 -0.07847624 -0.13758391
000180 5a 6b 0d be fc b8 32 3c 01 46 29 bd 31 86 87 3c
       -0.13810483 0.0109083615 -0.041326527 0.01654348
000190 c8 f2 94 3d a3 a8 2a be ef a2 7b bb 60 fd d4 bd
       0.07272869 -0.16665892 -0.0038396677 -0.1039989
0001a0 80 48 ab bd ae fb 41 bd 92 4c b4 bd cb 92 c0 3c
       -0.08363438 -0.04735916 -0.08803667 0.023507496
0001b0 0d a7 a0 3d ed cf f1 3d ba dc 89 3c 7c 1a a2 3d
       0.078443624 0.11807237 0.016828883 0.07915208
0001c0 ad 00 fc 3d 45 eb a5 3d c8 71 3c 3d 92 db 8a 3c
       0.123048164 0.08101515 0.046006948 0.016950402
0001d0 0c ff c3 bd 83 90 b6 bc 9b ef 36 bd 34 ca 26 3d
       -0.09570131 -0.022285705 -0.0446621 0.04072018
0001e0 0d e5 4b bd b5 49 f7 3d ff 80 b5 b8 57 27 b9 3d
       -0.049778987 0.120746054 -8.65478e-05 0.090407066
0001f0 d0 ea 73 be 1d 29 81 bd d9 d6 a3 3b da ea 8d bc
       -0.23820043 -0.0630667 0.004999977 -0.0173239
000200 41 53 06 3e a7 68 b0 3b f8 f9 0c bd 87 9f 16 3d
       0.13117696 0.0053835693 -0.034418076 0.03677323
000210 b8 f0 77 3d 34 9f 22 3c 9b 34 6e bd ed c7 a6 bd
       0.0605323 0.009925652 -0.058155637 -0.081436016
000220 cb ba 9b bd 76 3f f7 bd 5a 70 a0 bc 72 d2 e7 3d
       -0.07603987 -0.12072651 -0.019584823 0.11319436
000230 6e 51 ed bc b1 b1 43 bd f7 a4 53 bc c8 e9 7a 3d
       -0.028969493 -0.04777688 -0.012917749 0.061258107
000240 d8 8c fa 3d ef 75 c8 bc a0 71 9b bb 92 1d 3e bd
       0.12233895 -0.024470298 -0.0047437698 -0.04641492
000250 90 28 40 3d f4 09 cc bb 9d bc 84 bd ab 35 dc 3c
       0.046913683 -0.0062267724 -0.06481288 0.02688106
000260 13 fd 54 bc 7a 44 75 3d 31 ae c8 bd 46 0b 63 3d
       -0.012999791 0.059879757 -0.097988494 0.055430673
000270 93 ee cf bd 06 7b 1a be a9 c6 ba 3d 59 c9 3a 3c
       -0.10152926 -0.15085992 0.09119923 0.011400544
000280 c1 e6 bb bb a7 fd 4e bd d2 4c 29 3d 1c c8 d1 3c
       -0.005734295 -0.05053487 0.041333027 0.025608115
000290 53 0c 07 bc 11 51 75 bc 69 11 16 bd 70 2a 65 bd
       -0.008242684 -0.014972941 -0.036637697 -0.055948675
0002a0 5d 85 19 3d ce af f0 bc 52 c1 57 3d 0a 2a 6e bd
       0.0374807 -0.029380705 0.0526746 -0.05814556
0002b0 59 8a 18 3e ae 9f ae 3d 35 6b b2 3d 3f 0f 12 be
       0.14896525 0.0852655 0.08711854 -0.14263628
0002c0 77 cf 57 3d ba fa f1 3c 41 00 37 bd 97 6d 54 bd
       0.05268809 0.029538501 -0.044677977 -0.051862326
0002d0 68 bb cc bd c0 0f 11 3d ae d3 ce 3d a7 8c 1e bd
       -0.099966824 0.03541541 0.100989684 -0.038708355
0002e0 17 05 0d be 8b fd 3e 3d c4 bd e7 bd 6f c9 e5 3c
       -0.13771473 0.046628516 -0.11315492 0.028050153
0002f0 31 7a dc 3d 12 5a b8 bd 28 e2 96 3b 26 01 d4 bd
       0.10765494 -0.090015545 0.0046045966 -0.103517815
000300 7e 55 38 be 4e 23 4d 3d d7 17 58 3d bc 75 4c bd
       -0.18001363 0.050082497 0.05275711 -0.049916968
000310 75 e4 b7 3d 6b 22 46 bd f3 15 fd 3d 66 b9 3b bd
       0.089791216 -0.048372667 0.12357702 -0.045831107
000320 ce f8 a9 3c 48 3e f9 bc 44 90 3a bd 3e 28 86 bd
       0.020748522 -0.030425206 -0.04554774 -0.06550644
000330 17 a8 a7 3d 84 9e ca 3b 6b df eb 3c e1 08 b5 3d
       0.081863575 0.0061834473 0.028793057 0.08839584
000340 38 75 6e bd c6 b1 5c 3d 5b 5a b2 3b 8a 4e f4 bc
       -0.058217257 0.053880475 0.0054429 -0.029822607
000350 dc de 17 bc f7 e1 ef 3c dd d9 eb bd 98 8b 23 3e
       -0.009269442 0.029282553 -0.115161635 0.1597122
000360 56 fc f4 3c ca 38 51 3d 8f 03 02 bd 06 5f 83 39
       0.02990548 0.05107955 -0.031741675 0.00025057065
000370 ab 48 c1 3d ee 91 8c bc 96 cd 74 ba b4 4b 8f bc
       0.094376884 -0.017159428 -0.0009338496 -0.017492153
000380 0d 1a d2 ba 66 22 08 3d c3 77 f0 3c d4 b1 eb bd
       -0.0016029492 0.03323593 0.029353982 -0.115085274
000390 87 28 2e 3d 7e 65 9d 3c 0e e5 6d 3d fd 58 02 bd
       0.04251912 0.019213434 0.05807977 -0.031823147
0003a0 45 4a 61 bd 65 e5 58 3d 62 99 99 3d 9d a4 13 bd
       -0.05500247 0.052953143 0.074999586 -0.03604566
0003b0 43 f2 93 3c df 88 e8 bd 85 b6 f2 3c 00 bc 63 be
       0.018059855 -0.11354231 0.029628048 -0.22239685
0003c0 9d 2d cc bc 58 85 0d bd 4a 03 6b bb 69 36 6b bc
       -0.024924094 -0.034550995 -0.0035860115 -0.014356234
0003d0 5d 0f ed bd 03 2f 69 3d eb 54 4a bd f2 55 eb 3c
       -0.11575196 0.0569296 -0.04939739 0.028727505
0003e0 03 41 5a be 01 9c 50 3b 62 8c 95 bd 9b 88 62 bc
       -0.21313863 0.0031831267 -0.073021665 -0.013826515
0003f0 b2 31 ac bd 61 9d 93 3d 0a 6f 13 bd 2f 24 9e bd
       -0.08407916 0.07207752 -0.035994567 -0.07721745

sequential_2_1/lstm_4_1/while/lstm_cell_1/add_1/ReadVariableOp f4 [200]
000000 ee 44 93 3a e4 e7 d9 3b b4 6f a5 ba 82 48 61 ba
       0.0011235753 0.006649958 -0.0012621791 -0.00085938734
000010 a8 38 8b bb f2 26 26 3b 56 dd e3 3b 3b 54 29 bc
       -0.0042486973 0.0025352803 0.0069538755 -0.0103350235
000020 f5 b2 db 3b a2 0f a0 3c de d9 6a 3b 45 74 f6 3b
       0.006704683 0.019538704 0.0035835425 0.0075211846
000030 f7 7e e6 3b df 80 bf 3b 60 e2 63 3b 10 4d 25 bb
       0.0070341784 0.00584422 0.0034772381 -0.0025222935
000040 a8 eb 36 bb d4 82 9b 3a d3 f3 8f 3b b9 d4 24 3b
       -0.0027911458 0.0011864551 0.00439308 0.0025151207
000050 15 5d 54 bc 33 df 55 bc 9c 85 8c bb 95 16 0f 3c
       -0.012961646 -0.013053703 -0.0042883884 0.008733411
000060 89 89 81 bc 8a 9a 3b bc fb 91 03 3c b1 9c 4d bc
       -0.015812652 -0.011450419 0.00803041 -0.012549565
000070 37 f1 f8 3b f3 e4 c1 3b 5c 85 49 bc e6 95 9e 3b
       0.0075971144 0.0059171855 -0.012299862 0.0048396466
000080 84 80 f7 b8 4c 37 cc 3b 67 ae 1a bc e1 2d 66 3b
       -0.00011801816 0.006232178 -0.009440995 0.003512256
000090 a9 9e 9c ba dc 8b 21 bc 07 72 49 bc f8 4f 8b 3b
       -0.001194914 -0.009860005 -0.012295253 0.0042514764
0000a0 bc 32 64 ba 85 4d 7b 3b b9 4a 7a bc 99 15 54 bc
       -0.000870507 0.0038345766 -0.015276604 -0.012944602
0000b0 52 5f 62 bc a9 05 50 bc 26 94 ad 3a 71 9b 86 3b
       -0.013816671 -0.012696662 0.0013243004 0.0041078855
0000c0 df 6b 2d 3c 97 4a c5 3b dc 0a 80 3f 24 b6 80 3f
       0.0105848005 0.0060208547 1.0003314 1.0055585
0000d0 5d 98 7f 3f 80 8a 7f 3f 6d f1 7e 3f 55 2a 80 3f
       0.9984186 0.9982071 0.99587137 1.0012919
0000e0 ac b4 80 3f 12 19 7d 3f e4 b9 80 3f 21 c6 81 3f
       1.0055137 0.9886638 1.0056729 1.0138589
0000f0 27 41 80 3f 5a bf 80 3f 68 bc 80 3f ad 94 80 3f
       1.0019883 1.0058396 1.0057497 1.0045372
000100 f7 5a 80 3f 42 50 7f 3f 61 4a 7f 3f 40 ed 7f 3f
       1.002776 0.9973184 0.9972287 0.9997139
000110 85 5a 80 3f 07 35 80 3f b7 bb 7c 3f 26 a4 7c 3f
       1.0027624 1.0016183 0.9872393 0.9868797
000120 4a 64 7e 3f d3 b4 80 3f 74 fa 7b 3f 9c 08 7d 3f
       0.9937178 1.0055183 0.98429036 0.9884126
000130 b8 db 80 3f 7d cc 7c 3f 1a cc 80 3f 19 9c 80 3f
       1.0067053 0.98749524 1.0062287 1.0047637
000140 88 e9 7c 3f f6 7d 80 3f 04 92 7f 3f fa b7 80 3f
       0.9879384 1.003844 0.9983218 1.0056145
000150 47 79 7d 3f ca 58 80 3f 83 86 7f 3f f5 65 7d 3f
       0.9901318 1.0027096 0.99814624 0.989837
000160 d0 ec 7c 3f c4 79 80 3f 9b 71 7e 3f c0 6b 80 3f
       0.9879885 1.003716 0.993921 1.0032883
000170 59 44 7c 3f 5d 8f 7c 3f 8b 9f 7c 3f be da 7c 3f
       0.9854179 0.98656255 0.98680943 0.98771274
000180 19 a4 7f 3f f4 62 80 3f a4 2c 81 3f a1 65 80 3f
       0.9985977 1.0030198 1.0091748 1.0031015
000190 c6 da 14 bb a3 07 25 3a 33 15 7f bb a4 66 ef 3b
       -0.0022713407 0.00062953884 -0.0038922548 0.007305937
0001a0 20 10 32 3c ee cd 0b bb c1 04 02 ba b1 2e 8b bc
       0.010868102 -0.002133246 -0.0004959815 -0.016990038
0001b0 c9 60 5f ba 3b 19 4e 3a f5 78 a1 3b d0 e7 b9 b9
       -0.0008521197 0.0007862036 0.0049277493 -0.00035458663
0001c0 38 00 d2 3a 11 e1 8c b8 3d 41 fa 3a d9 80 76 bb
       0.0016021794 -6.717642e-05 0.0019092929 -0.003761342
0001d0 60 5c ff 3a 4a b4 0a 3c 61 ae d0 bb a8 8c 42 bb
       0.0019482486 0.008465836 -0.006368444 -0.0029685888
0001e0 ba 45 7c bc 8e b7 59 3c 4d 52 70 bc 5c 30 1b 3b
       -0.0153974835 0.013288392 -0.01466806 0.0023679947
0001f0 48 ea ce 3b 0d 88 07 3c 34 96 34 3b 36 00 c2 3b
       0.0063145496 0.008272183 0.0027555348 0.0059204353
000200 ef 1b 4a bb bf 26 bb ba ce f2 1c 3c 9a a9 54 bb
       -0.0030839404 -0.0014278515 0.0095793735 -0.0032449723
000210 2c 5e 0c 3c e8 f3 c6 3b af 5c 31 3c e4 81 7c 3b
       0.008567374 0.0060715564 0.01082532 0.003852957
000220 bf 25 03 3c 6f 5f 7c 3c fd 44 26 3c 62 53 15 bb
       0.008004605 0.0154036125 0.010148284 -0.0022785296
000230 3a 5a 1a bc cb 6c d7 ba 73 4b 5b 3c 12 de cd bb
       -0.009420926 -0.0016435621 0.013384688 -0.0062825764
000240 2f 98 2a bc 8f 07 1d 3c 79 1c 94 bc cd e2 c9 b9
       -0.01041226 0.009584322 -0.018079983 -0.00038506687
000250 0e e3 69 ba 4a 1f 3f bb c6 29 63 3a a4 b5 f0 3b
       -0.00089220784 -0.0029162937 0.00086655875 0.007345872
000260 13 2b c6 ba df 3b dd b9 69 b2 9b bb 6e dd 09 3b
       -0.0015119038 -0.00042197012 -0.0047514928 0.0021036523
000270 40 01 e9 3b d3 51 2b bc 82 72 f7 3b ab 6d 9e 3c
       0.0071107447 -0.01045652 0.007551492 0.019339403
000280 92 c2 36 3b be 46 09 3c de 6f eb 3b 5e ca c0 3b
       0.002788697 0.008378683 0.0071849665 0.005883499
000290 71 fc 60 3b 38 41 28 bb 90 62 38 bb 7b bc c6 3a
       0.0034330154 -0.002567364 -0.002813492 0.0015162373
0002a0 11 d6 b5 3b df db 2a 3b 64 c3 53 bc eb 15 56 bc
       0.0055492003 0.0026070995 -0.012925003 -0.013066749
0002b0 f7 9b 85 bb df e6 0f 3c 41 33 80 bc 6a d5 3b bc
       -0.0040774303 0.008783071 -0.01564944 -0.011464456
0002c0 c9 96 08 3c 9e e7 4d bc 61 19 09 3c 64 d8 c2 3b
       0.008336731 -0.012567429 0.008367867 0.005946206
0002d0 f7 32 49 bc d5 e7 a1 3b 04 73 71 ba ff f1 d5 3b
       -0.012280217 0.0049409666 -0.0009210559 0.0065290923
0002e0 ae e1 1a bc 87 4e 52 3b 60 29 d5 b6 a9 1b 21 bc
       -0.00945322 0.0032090263 -6.3527114e-06 -0.009833255
0002f0 ea 33 49 bc 98 d2 98 3b 66 f8 68 ba 70 b6 87 3b
       -0.012280444 0.0046637766 -0.0008887112 0.0041416213
000300 60 ef 7a bc a0 8f 4f bc e1 6d 67 bc f1 25 50 bc
       -0.0153158605 -0.01266852 -0.014125318 -0.012704358
000310 b0 73 ca 3a 94 ab 81 3b 5d 68 2e 3c a3 eb bf 3b
       0.0015445855 0.0039572213 0.010644999 0.0058569475

arith.constant22 f4 [200, 50]
000000 57 77 4a 3d 4c 5f 1a be 7f be 8f 3d 5d 08 aa 3d
       0.049430218 -0.15075415 0.07018756 0.083023764
000010 92 2c 25 be 6a 03 10 bd 52 6f 07 3c 41 26 9f bc
       -0.16130283 -0.035159506 0.008266287 -0.01942742
000020 d3 ba b2 bc 72 59 62 bd bd c2 62 3d cf 83 1c 3e
       -0.0218176 -0.055261083 0.0553615 0.15284656
000030 ff 28 23 be 44 8d 0a 3e 31 a3 9e bd 05 5a e8 bd
       -0.15933608 0.13530451 -0.0774597 -0.11345295
000040 64 21 c2 bd ab c9 b5 bd 0f f1 b3 3c bc 2a bb bd
       -0.09479025 -0.08876356 0.021965532 -0.0913901
000050 dc 19 a3 bd 62 e2 87 3d e8 f2 ae bd 6f a3 04 3d
       -0.07963917 0.06634976 -0.085424244 0.032382425
000060 d4 14 d1 bd 41 81 03 be f4 26 3b bd b9 1a c5 bd
       -0.10209051 -0.12842275 -0.045691445 -0.096242376
000070 b7 9c d8 3c f1 0b 98 3d 66 a3 58 3c 4e c9 0f 3e
       0.026441915 0.07424153 0.013222551 0.14041635
000080 ae 7f 17 bd d7 fb 0a bd 68 17 00 3e 04 1a 92 3d
       -0.036987 -0.03393158 0.12508929 0.07133868
000090 3b be a7 bd 9b 95 91 3d db b2 d3 bc 61 4d a9 bd
       -0.081905805 0.07108613 -0.02584212 -0.08266712
0000a0 90 b7 ef 3b 0c ca e1 3d 8b 87 03 3d f6 11 63 3d
       0.0073155835 0.110248655 0.032111686 0.05543705
0000b0 70 7e 91 3d fd 3c 48 bc 70 88 68 bd db 22 e7 3c
       0.07104194 -0.012221572 -0.056770742 0.028214863
0000c0 e3 46 17 bc c5 0c e6 3c b4 02 6b 3d cf d6 cc bd
       -0.009233209 0.02808226 0.057375625 -0.10001909
0000d0 70 f5 8d 3d de 81 77 3d 60 95 03 3e 1f 42 5f bd
       0.06931579 0.060426585 0.12849951 -0.054506417
0000e0 86 4d 96 bd 9a 5f 0e bd f7 ca 8d bd 49 2d 1d 3e
       -0.07339005 -0.03475914 -0.06923478 0.15349306
0000f0 9e 29 29 be b4 7d 8b 3d 77 f2 d4 3d 65 bd 0e 3e
       -0.16519782 0.06811085 0.10397809 0.13939436
000100 24 4f 83 bd 73 28 11 be 56 37 a0 3b a9 27 25 be
       -0.06411579 -0.14175586 0.004889409 -0.1612841
000110 6e 55 0c be 8b 9c dc 3d 32 73 04 3e 31 3d f6 bd
       -0.13704464 0.10772046 0.12934569 -0.1202339
000120 15 1b 5f bd 78 8c 2a 3e 5b 80 47 3d 35 f8 b0 bc
       -0.054469187 0.16655147 0.048706394 -0.02160273
000130 11 e1 2c 3e c1 e8 40 3d 7c 5b b4 3d 0d 86 6b 3b
       0.16882731 0.04709697 0.08806512 0.0035938055
000140 9b af 8c 3c ae 1b f3 3d ff f9 02 be e3 21 53 3d
       0.017173579 0.11870514 -0.12790678 0.05154599
000150 6a 3f 94 bd d8 8c 91 bc 8b 27 90 bd d3 fc a1 bc
       -0.07238658 -0.017767355 -0.07038792 -0.019773876
000160 74 0f eb 3d 07 1a ee bd d1 6f 85 bd 86 b2 31 bd
       0.11477557 -0.11626058 -0.06515468 -0.043383144
000170 42 b6 c2 3d 8a 6f c4 3d 6a dd bf 3d 73 32 d5 3d
       0.09507419 0.09591587 0.09368403 0.10410013
000180 13 05 58 bd d3 79 f9 3d 5a 87 c8 3d 73 ba 14 3e
       -0.052739214 0.12181439 0.09791441 0.1452425
000190 7c 6d 96 bd 36 0c 0e be 53 e9 04 be f2 a6 d7 bd
       -0.07345101 -0.13871846 -0.12979631 -0.10529889
0001a0 8e b4 82 bd 73 11 33 bd 50 7f 14 be b8 05 a8 3c
       -0.06382094 -0.043717813 -0.14501691 0.02051054
0001b0 a8 3e 9f bc 04 32 5a bd 65 8b 48 3d 46 9e 18 be
       -0.019439057 -0.053270355 0.048961062 -0.14904127
0001c0 d3 e4 6c bd 1d 38 00 3e 4a c7 0a 3e 70 a1 b3 3b
       -0.05783541 0.12521406 0.13552585 0.0054818913
0001d0 5c 6a 8e bd 63 5c ad 3d 16 8e 0f 3e 2a 6b 45 bc
       -0.0695388 0.08464887 0.14019045 -0.012049476
0001e0 a0 a4 37 3d ba ac f4 bd e6 f0 1e 3e 9d c6 a9 bd
       0.044834733 -0.119470075 0.15521583 -0.082898356
0001f0 53 67 c2 3d 0d 23 ba bd a0 f0 89 3d 4f a8 05 3c
       0.09492364 -0.09088717 0.06735349 0.008157804
000200 97 75 f1 bd 4a b2 f5 3d 8c 53 4d bd 8e e2 83 bc
       -0.117900066 0.119968966 -0.050128505 -0.01609924
000210 eb 2f 0f 3e a9 c7 18 bd 92 a9 52 3d ab f7 94 3d
       0.13983123 -0.037299786 0.051431246 0.072738014
000220 83 fb 3b 3c cf ad a2 bd b8 77 36 3d ef 90 0f be
       0.011473539 -0.079433076 0.044547766 -0.14020132
000230 57 98 13 bd fa 6d f8 3d b0 84 e3 3d 0a 08 d2 3c
       -0.036033954 0.12130351 0.111092925 0.025638599
000240 a8 e7 8c bd b1 b3 a9 3d f7 c6 cc bc 04 29 fb 3d
       -0.068801224 0.082862265 -0.024997218 0.122636825
000250 ef 29 d0 3d 93 4b a8 bd b8 0f 82 bc 8b 25 f9 3d
       0.10164248 -0.0821754 -0.015876636 0.12165364
000260 5f 1d 37 bd 82 7d a1 3d 5d 7b a9 3d b0 50 ff 3b
       -0.044705745 0.07885267 0.08275483 0.007791601
000270 23 e0 23 3d 84 3f a1 3c 99 3f 86 3d 11 71 87 3d
       0.040008675 0.019683607 0.06555099 0.066133626
000280 93 4c 89 bd 06 bd a3 bd 29 ad ef 3d 9d c8 1c bc
       -0.067040585 -0.07995038 0.117029496 -0.009569314
000290 dd 83 fa 3d a2 a8 89 3d 94 9e a8 3d 5a fc f8 3d
       0.12232182 0.06721617 0.082333714 0.12157507
0002a0 99 c1 b7 3d 2d 92 73 3d 59 b6 0e 3e 7d 52 84 bd
       0.08972473 0.059465576 0.13936748 -0.06461046
0002b0 41 a9 08 3e fd 8c 21 3d 15 24 d1 bc ac aa 62 3d
       0.13345815 0.039441098 -0.0255299 0.055338547
0002c0 1e 52 28 3d ea 42 14 be da a4 96 bd e6 cc 17 bd
       0.041093938 -0.1447865 -0.07355662 -0.03706064
0002d0 d8 39 94 3d fe 4f 1e bd 04 b0 e3 3c 11 3a fe bd
       0.07237595 -0.038650505 0.027793892 -0.12413419
0002e0 5a 5e 8d 3d 39 c2 98 3d 3f 54 e6 bd ca ba 03 be
       0.06902762 0.0745892 -0.112465374 -0.12864223
0002f0 76 5e af bd 33 8b 03 3e ac 26 c2 3d d0 48 cf bd
       -0.08562939 0.12846069 0.09480032 -0.1012131
000300 37 c5 db 3d d2 6b 9c bd d1 e0 8d bd 4b 04 43 bc
       0.10730975 -0.076377526 -0.06927646 -0.011902879
000310 8d ae f9 3c 38 4c 7f 3d 6d 50 f3 bd f3 79 4e bd
       0.03047874 0.062328547 -0.118805744 -0.05040927
000320 ef fe ff 3d 46 58 e9 3d 88 b2 c7 3d 09 7e 0c 3e
       0.124997966 0.1139379 0.09750849 0.13719954
000330 a5 a5 0b 3e 5e 3e f8 3d d5 51 b4 bd cf 89 9b bd
       0.13637407 0.121212706 -0.08804671 -0.07594644
000340 be ef ae bd 31 ca 3e 3c 2a 07 dc 3d 4c 1d 13 3c
       -0.08541821 0.011644886 0.10743554 0.008979153
000350 76 66 02 be 28 5b b8 3d 67 5f d3 3d 59 2a 59 bd
       -0.12734398 0.09001762 0.10320931 -0.0530189
000360 07 e1 bc 3c 4a 82 1b be 1a 63 a3 bd 89 23 de 3d
       0.02305652 -0.1518642 -0.079778865 0.108466215
000370 57 25 f0 bc 1d 80 02 3c b5 c0 a1 bd 46 cb d0 3d
       -0.02931468 0.007965115 -0.07898084 0.10195021
000380 82 c8 1b be 87 59 b8 3d 05 f1 40 bc 72 be 33 bc
       -0.15213206 0.09001451 -0.0117762135 -0.010970699
000390 07 69 f5 bc 1b e4 de bc 29 3e 2c be b9 88 36 bd
       -0.029957308 -0.027208379 -0.16820587 -0.044563983
0003a0 2a 14 ef 3d 9e c2 d1 bd 2c a5 0b be 14 30 cc bd
       0.11673768 -0.102421984 -0.13637227 -0.09970108
0003b0 92 c3 1c be 2f 0f dc bd 93 a3 a3 bd 0e e3 9b 3d
       -0.15308979 -0.107450835 -0.07990184 0.076116666
0003c0 fd ad 86 3d 52 37 06 be a0 34 07 3e e4 88 14 be
       0.065761544 -0.1310704 0.13203669 -0.14505345
0003d0 ea d0 b9 3d 04 41 b9 3d 4e 43 93 bd ea f6 ac bc
       0.0907305 0.09045604 -0.07190572 -0.021113832
0003e0 da 39 28 3d de 89 02 3e 0f 2a e9 3a 18 73 ef bd
       0.041070797 0.12747905 0.0017789024 -0.11691874
0003f0 3f 36 0c 3e 9e 8d 1a 3d c7 e5 25 3d 10 c4 b6 bd
       0.13692568 0.037732713 0.040502336 -0.08924115

arith.constant23 f4 [200, 50]
000000 3d 43 24 be 7a e3 85 bd 98 f5 e2 bd 35 3c e0 bd
       -0.16041274 -0.06537528 -0.110819995 -0.109489836
000010 22 a7 0a be 92 ad 72 bd b7 e8 14 bd 8d 0f c2 bd
       -0.13540319 -0.05924756 -0.036354747 -0.09475622
000020 32 b1 98 bd da d0 ef 3d 6b 1b 0f be 3f 0e cf bd
       -0.07455672 0.11709757 -0.13975303 -0.10110139
000030 52 fa 48 bd 85 f2 2f bd 3e 49 f6 3b 8f 72 d1 bd
       -0.04906685 -0.042955894 0.0075160554 -0.102269284
000040 fb 54 1a 3d 94 59 aa 3d 88 e8 4d 3d d1 06 6d bc
       0.0376787 0.08317867 0.050270587 -0.014466957
000050 41 8d 9a 3d cb 39 24 bd 08 9e 2e bd d3 78 ee 3d
       0.07546473 -0.04009418 -0.04263118 0.11644139
000060 c7 63 c1 bb c7 19 27 3d c6 a1 b7 bc 85 d5 4a bd
       -0.005901787 0.040796068 -0.022416007 -0.049520034
000070 c4 8f 9b 3c 66 bd ef bb fc c1 30 bd 2b 2b 05 be
       0.018989451 -0.007316279 -0.043153748 -0.13004749
000080 c5 cb c2 3c 1e 80 ac bd 0f 98 3c bd 48 a6 86 3c
       0.023778806 -0.08422874 -0.046043452 0.016436711
000090 25 c6 cc bd bd 30 fc 3d 93 54 f4 3d 28 72 54 3d
       -0.099987306 0.123139836 0.11930194 0.05186668
0000a0 e8 ea 1d 3d 07 2b e9 bd 0a 98 86 3b 25 01 5f bd
       0.038554102 -0.1138516 0.00410748 -0.05444445
0000b0 7a 3a bb bc c8 b9 16 3d 56 91 a0 bd 4d ad b1 3c
       -0.022855032 0.03679827 -0.07840221 0.021689082
0000c0 37 dd 59 bd 42 e3 6a 3c df f1 a4 bc 95 89 72 bd
       -0.053189483 0.014336409 -0.020134864 -0.05921324
0000d0 57 65 56 3e ba d3 4a 3d 13 75 8a 3d 1a 9c b3 3d
       0.20937096 0.049518324 0.067606114 0.087700084
0000e0 59 55 7f 3d 80 90 0c bd 81 c2 37 3d 14 58 32 bd
       0.062337253 -0.034317493 0.044863228 -0.04354103
0000f0 79 05 3d 3d f9 58 9e 3c 51 5f e4 3d 19 11 8e bd
       0.046147797 0.019329535 0.11150993 -0.06936855
000100 fc 3e 65 3c 7b a4 7d 3b 2b bb 6f bd 1c 3d 2d bd
       0.013992067 0.0038702774 -0.058528107 -0.042294607
000110 0f e7 80 3c f1 63 23 3e ec fa 04 bc 68 7a ef bb
       0.015735177 0.15956093 -0.008116465 -0.007308293
000120 96 c2 82 bd 7e a5 28 3d 27 80 87 bd 46 16 af 3d
       -0.063847706 0.04117345 -0.0661624 0.0854917
000130 5a 48 ae 3d 7f 6a 7e 3d b8 5d 5e bd b5 a1 bc bb
       0.08509894 0.06211328 -0.054288596 -0.0057565817
000140 fc a8 06 3c 33 24 72 3c 78 d9 2d bd 52 d8 c8 3d
       0.008219 0.014779138 -0.042443722 0.09806885
000150 de 6e a2 bc 17 f4 2c 3d da 41 c0 3c 39 ef d2 bd
       -0.019828256 0.04222497 0.0234689 -0.10299534
000160 fc 1b 75 bc 6a d0 86 bd a8 2d f2 bb 2b 8e 5e 3c
       -0.014960285 -0.065827206 -0.0073906966 0.0135837
000170 20 e7 19 3d d1 60 fb bc 9a d4 1d bd 81 26 75 bc
       0.037573934 -0.030685814 -0.03853283 -0.014962793
000180 af 79 c3 3d bf d3 23 3c b0 a0 bb 3d fa f9 2f bd
       0.09544694 0.009999215 0.09161508 -0.042963006
000190 37 65 f6 3c bd f9 09 3b f9 b8 31 bd 98 82 c2 bd
       0.03007756 0.0021053397 -0.043389294 -0.09497565
0001a0 3d f5 e9 bd fe 6c e0 3c ab 82 14 3d e6 4d e5 3c
       -0.114237286 0.027395722 0.036257427 0.027991246
0001b0 67 30 71 3d d0 b8 2a bd 00 9d ff 3d 0c 48 31 bc
       0.05888405 -0.041680157 0.12481117 -0.0108204
0001c0 a0 56 86 3d d1 c1 79 bc 0a ce 1f bd f2 78 20 bd
       0.06559491 -0.015243963 -0.039014854 -0.039177842
0001d0 17 09 79 bd 32 18 54 bc c3 54 25 3e 77 77 56 ba
       -0.060799684 -0.012945222 0.16145615 -0.0008181254
0001e0 27 8b 0c 3c 6a c3 8b 3d d5 a7 aa bb 32 a2 87 3d
       0.008578098 0.06824382 -0.0052079954 0.06622733
0001f0 cc 81 9e 3d 31 b7 b8 3d ce a1 a6 bc 00 c2 89 3c
       0.077396005 0.09019316 -0.020340826 0.01681614
000200 87 23 b5 bc e5 1d f0 bc 5e 3f 02 bc cc d3 5d bd
       -0.022111667 -0.02931113 -0.007949678 -0.054157063
000210 f0 cf 23 3d ae 30 f5 bd f3 d5 11 3d 5b 1f 70 bd
       0.039993227 -0.119721755 0.03560443 -0.058623653
000220 11 a6 d4 3d 0a 3d 62 bd de 5d 29 3e 0a 1e f0 bd
       0.10383237 -0.055233993 0.16539714 -0.117244795
000230 8d 9c a8 3d 3b 63 68 bd d2 c2 a5 bd ff 0a a6 3d
       0.08232985 -0.05673526 -0.080938 0.08107566
000240 87 23 db 3d cb 97 8b 3b e1 62 3f be 37 e6 cf 3d
       0.10700136 0.0042600385 -0.18690063 0.10151332
000250 9c 5c 0a be 80 1e 84 bd d5 64 b3 bc ea 1e 72 3c
       -0.1351189 -0.0645113 -0.021898666 0.014777878
000260 52 13 24 3c 11 e1 5b bd 30 e5 95 3e f8 aa b6 bc
       0.010014372 -0.053681437 0.2927642 -0.022298321
000270 ed 70 90 bd 27 f2 8e bd 7c 4b f0 bc 91 a6 90 bd
       -0.07052789 -0.06979781 -0.029332869 -0.0706302
000280 20 53 80 3c 0e 2f 45 3d b3 17 73 bc 97 11 89 3b
       0.015664637 0.048140578 -0.014837193 0.004183005
000290 e9 4f 88 3d 7a 7d 56 bd 2d 8a 96 3d b5 6a 11 3e
       0.06655867 -0.052365758 0.07350574 0.14200862
0002a0 89 c9 b5 bc c5 bd 1f bd c2 22 b4 bd 50 94 0d 3d
       -0.022190826 -0.038999338 -0.08795692 0.03456527
0002b0 f0 db e4 3c 71 ce a0 3c 11 58 fb bc bf a2 02 3d
       0.027936906 0.019629689 -0.030681642 0.031893488
0002c0 30 88 43 bc 88 44 71 b9 3a 93 e8 3c 96 0e bc 39
       -0.011934325 -0.00023009081 0.028390516 0.00035869022
0002d0 71 e4 32 bd 9b 6d 8e bd 77 e4 c4 bd 1b 55 ff 3b
       -0.04367489 -0.06954499 -0.09613889 0.007792128
0002e0 59 cb e6 3c 78 90 e8 3d 4b f7 3b bb 8b 9e fe 3d
       0.028173136 0.1135568 -0.0028681334 0.124325834
0002f0 ba d4 0a 3e 7c af 2a bd f8 30 ca 3d 7b 0a 4f 3d
       0.13557711 -0.04167126 0.09872621 0.050547104
000300 02 d3 8b 38 d9 a2 12 3d eb b7 8d 3b c9 4c d4 bd
       6.66734e-05 0.035799835 0.0043249032 -0.10366208
000310 f8 34 b1 bc 28 2f 00 3d e6 4e 15 bd a1 16 db bc
       -0.021631703 0.03129497 -0.036452197 -0.026744189
000320 20 db 98 3d c4 fe a4 bb 1d 72 5d bd 10 ba 7f 3c
       0.0746367 -0.0050352532 -0.054063905 0.015608326
000330 74 63 b9 3d 8d 33 d0 bc e2 42 7c bd 4d e3 c4 bc
       0.09052172 -0.025415206 -0.061587222 -0.024034167
000340 e9 6b 81 bc a4 6f f6 3c d7 d5 31 3e c6 a2 bb bb
       -0.015798526 0.030082531 0.1736673 -0.005726191
000350 c0 be 8c 3c 94 34 c4 3c 97 ab fa bc 2d 03 8b bd
       0.0171808 0.023950852 -0.030599399 -0.06787715
000360 ad 13 83 bd 52 03 1a bd 72 5e 07 3d b9 cd d2 3d
       -0.06400237 -0.037600823 0.033049054 0.10293145
000370 5c 43 80 3d bd 70 c8 3d dc bf 9d 3c 7d d7 af bc
       0.06262848 0.09787128 0.019256525 -0.021465058
000380 75 c7 c5 3d 3b 14 3e 3b 62 c4 ce bc 57 1c 27 3d
       0.09657184 0.0029003758 -0.025240127 0.04079851
000390 1d 10 0d 3c 63 dd e6 bc c2 07 fa bd fb a9 0a 3c
       0.008609799 -0.028181737 -0.12208511 0.008463378
0003a0 84 cb 8b bd 1b ee 0b bd 36 ae 2e bd 0d e3 14 be
       -0.06825927 -0.034162622 -0.04264661 -0.14539738
0003b0 1a e6 12 be a6 32 b3 3a a5 45 b8 3d 0b 52 9f 3d
       -0.1434559 0.0013671711 0.08997659 0.0777932
0003c0 f6 bf 81 3c 7b d5 1b bd 21 ba 66 bd a4 88 91 bd
       0.015838604 -0.038045388 -0.05632985 -0.0710614
0003d0 7c 70 35 be 89 0e fe bc 86 9b 3e 3c 3e 96 ab bb
       -0.1771869 -0.03101279 0.011633759 -0.005236416
0003e0 a7 f5 60 3d da 82 b2 3d bc 13 83 3d d6 39 e2 3d
       0.054921772 0.08716364 0.064002484 0.110461876
0003f0 2f b8 22 be 18 ae 0b 3a dc 28 9f bd eb 3c aa bb
       -0.15890573 0.0005328371 -0.07771465 -0.0051952503

sequential_2_1/lstm_5_1/while/lstm_cell_1/add_1/ReadVariableOp f4 [200]
000000 fa 3c a9 bc 74 2c 0e 3c a9 44 00 3b 2c 9d b7 3a
       -0.020658959 0.008677591 0.0019572175 0.0014008633
000010 b5 6d 87 3a 9e 2d 04 bc b0 22 b0 3b b0 e4 0e 3c
       0.0010332378 -0.008067517 0.005375229 0.008721516
000020 fc e8 58 3b 2d ca 6b bc f2 ad f2 3b d7 44 3c bc
       0.0033097854 -0.014391464 0.00740599 -0.011491022
000030 8d c6 55 bc e7 60 49 bc be bc db 3b 29 77 13 bc
       -0.0130478265 -0.01229117 0.0067058494 -0.009000578
000040 14 83 77 3b fb 1e 27 3b 80 33 ab 3b 7a 89 db ba
       0.0037767338 0.0025500644 0.005224645 -0.0016749345
000050 bc 02 59 bc 01 5d 79 3c 9b 62 2b bc 99 ff 49 3d
       -0.013245281 0.015219928 -0.010460521 0.049316023
000060 7b 0d 43 bc a5 72 96 3b f0 fb 66 3a 24 ce 87 3b
       -0.011905069 0.0045913034 0.00088113453 0.004144447
000070 fa c0 46 bc 8c 71 04 bc 74 c8 bb bc 1a 3c 43 bc
       -0.01213097 -0.008083712 -0.022922732 -0.011916185
000080 bc 88 59 bc da 5d 54 bc 97 22 29 3b d9 3f 25 bc
       -0.013277229 -0.012961829 0.002580797 -0.010086023
000090 55 a9 3b bc 54 3a 05 3a ad a8 bb bb 14 d4 20 bc
       -0.011453946 0.0005082239 -0.005726895 -0.009816188
0000a0 40 fb 00 3a 0e e3 99 bb 0f 8a 50 bc 6f 0d 9b bc
       0.00049202517 -0.0046962565 -0.012728228 -0.018927304
0000b0 14 e3 43 3b 5b 10 47 ba 20 b8 70 bb 5a c5 6d 3b
       0.0029889988 -0.0007593685 -0.003673084 0.003628096
0000c0 75 6e 62 bc 0f 36 d6 3b 0b ad 7a 3f f3 f1 80 3f
       -0.01382028 0.006537206 0.9792029 1.0073837
0000d0 8c 30 80 3f 14 1d 80 3f 70 1a 80 3f d3 83 7d 3f
       1.0014815 1.0008874 1.0008068 0.9902927
0000e0 f5 90 80 3f d8 f9 80 3f 90 4a 80 3f 97 59 7c 3f
       1.0044237 1.0076246 1.0022755 0.98574203
0000f0 11 93 80 3f 5b 18 7d 3f 40 c4 7c 3f 3b e7 7c 3f
       1.0044881 0.9886529 0.98736954 0.9879033
000100 e4 b9 80 3f bc 72 7d 3f e9 45 80 3f 88 33 80 3f
       1.0056729 0.99003196 1.0021335 1.0015726
000110 d3 6e 80 3f ef 5e 7f 3f 54 b4 7c 3f b3 ed 80 3f
       1.0033821 0.9975423 0.9871266 1.007254
000120 96 4d 7d 3f 11 3b 84 3f 2d e0 7c 3f 65 74 80 3f
       0.9894651 1.0330526 0.98779565 1.0035521
000130 e8 03 80 3f 7c 69 80 3f c0 e7 7c 3f 32 95 7d 3f
       1.0001192 1.0032191 0.9879112 0.9905578
000140 e6 69 7a 3f 62 c9 7c 3f c2 6a 7c 3f 09 ae 7c 3f
       0.9781784 0.98744786 0.986004 0.98703057
000150 98 33 80 3f a7 6b 7d 3f 09 2b 7d 3f 9e ef 7f 3f
       1.0015745 0.9899239 0.9889379 0.99975
000160 90 8e 7e 3f 82 74 7d 3f 01 03 80 3f 7d 7c 7e 3f
       0.99436283 0.990059 1.0000917 0.99408704
000170 89 9c 7c 3f d3 48 7b 3f 4e 04 80 3f 38 82 7f 3f
       0.98676354 0.98157996 1.0001314 0.99808073
000180 fe 91 7e 3f a8 59 80 3f f0 88 7c 3f 5c af 80 3f
       0.99441516 1.0027361 0.9864645 1.0053515
000190 31 c7 64 3b 00 f2 d1 bb cd 11 87 3b 65 6f 19 3b
       0.0034908766 -0.0064070225 0.004121995 0.0023412344
0001a0 74 79 90 3a 26 ba 04 bc 4e c8 a8 3b ac d6 ac bb
       0.0011022524 -0.008101022 0.0051508313 -0.0052746143
0001b0 7e 95 9e 3b 48 cf 12 3c 5d 8d 7a bb a5 b7 2a bc
       0.004839598 0.0089605525 -0.0038231232 -0.010419761
0001c0 43 6f 12 bc 08 5a 32 bc 93 d7 98 3b 05 93 02 3c
       -0.00893766 -0.010885723 0.0046643703 0.0079696225
0001d0 1d 56 de 3b 6a 90 98 3b aa d1 eb 3a ea e3 b9 3b
       0.006785168 0.0046558874 0.0017991562 0.0056729214
0001e0 85 78 2f bc b8 9b 95 ba b4 1a e8 3b 4c af ac bb
       -0.010709886 -0.0011414206 0.0070832614 -0.0052699205
0001f0 54 33 19 bc 1f 9e de bb 6a b7 bd bb 02 ab 11 3b
       -0.0093506165 -0.006793752 -0.005789687 0.0022227173
000200 54 be 1b 3c 1e d7 ec bb b7 b3 25 3c 1e 1b 33 3c
       0.009505827 -0.0072277924 0.010113648 0.010931758
000210 53 53 f6 3b 0d cd 73 3c a2 10 6b 3b 46 87 42 bc
       0.0075172572 0.014880431 0.0035868068 -0.011873072
000220 1a f1 1e bc 3f 51 26 3b 66 42 87 3c 5e 74 0e bc
       -0.009701038 0.0025378016 0.016511153 -0.008694736
000230 df 4b 5c bb 0d ca d8 3b 04 a1 5b 3c 6a 9b e0 bb
       -0.0033614559 0.006615883 0.013405088 -0.0068544643
000240 83 cb 46 3c 80 db cc 3b 5e c0 1a bc d2 98 72 bb
       0.012133482 0.0062517524 -0.009445278 -0.0037017358
000250 34 f0 06 bc 02 0f bd bb 36 dd a9 bc b0 b1 0f 3c
       -0.00823598 -0.0057696113 -0.020735364 0.008770391
000260 50 5c ce 3a 81 35 94 3a 24 bb 85 3a 61 26 01 bc
       0.0015744064 0.0011307449 0.0010202867 -0.007882685
000270 7c 61 a6 3b a1 ae 12 3c f9 17 48 3b 9e 8a 6b bc
       0.005077539 0.008952768 0.0030531867 -0.014376311
000280 e9 b4 fc 3b 27 b4 3c bc a8 66 52 bc dd 3f 49 bc
       0.007711996 -0.011517561 -0.012841858 -0.012283293
000290 ef 19 ec 3b 6c 2a 14 bc 73 1d 62 3b 49 10 20 3b
       0.00720524 -0.009043317 0.0034502416 0.002442377
0002a0 bd ff 94 3b bc 81 d7 ba 38 a7 56 bc a5 e7 77 3c
       0.004547088 -0.0016441862 -0.0131013915 0.015130912
0002b0 05 d6 2b bc ad e3 45 3d d5 2c 43 bc 54 c5 95 3b
       -0.010488038 0.04831283 -0.011912544 0.0045706425
0002c0 ce fa 7b 3a db ef 8f 3b 0f d5 45 bc da 20 02 bc
       0.0009612263 0.0043926067 -0.012074723 -0.007942403
0002d0 6d ed b9 bc ac 9c 43 bc e8 c6 5f bc 97 2b 57 bc
       -0.022696221 -0.011939209 -0.013658263 -0.013132951
0002e0 89 96 1a 3b db ed 25 bc 23 41 3b bc a3 b8 fc 39
       0.002358826 -0.01012751 -0.011429104 0.0004820275
0002f0 1b 6a b7 bb fb c5 20 bc 52 37 1f 3a 08 14 92 bb
       -0.0055973656 -0.009812827 0.0006073612 -0.0044579543
000300 95 d8 4d bc a4 61 97 bc c7 9e 2f 3b fa 72 89 ba
       -0.012563844 -0.018479176 0.002679752 -0.0010486536
000310 78 ab 82 bb b2 07 6f 3b b6 00 5f bc 1a c2 c3 3b
       -0.003987726 0.0036473093 -0.013611009 0.0059740664
